Models/IAE/cnn_test2.pth (torch, 54245 bytes, 55 tensors)

encoder1.0.weight f4 [4, 1, 4]
000000 d8 06 bb 3e 0c f9 2f 3d ef 55 ee bc 7c 1c 37 3d
       0.3652866 0.04296212 -0.02909371 0.0447049
000010 86 a1 c3 3e 4e c9 2d 3e e0 46 5a 3e 2a 24 c0 be
       0.3820917 0.16971323 0.21316099 -0.3752759
000020 dc 36 22 be 1c a4 53 3e 9d fa 9b be 73 d2 b3 be
       -0.1584124 0.20668072 -0.3046464 -0.35121498
000030 a4 05 bd be c2 8d a6 3b 7f 53 cb be 3c be dd be
       -0.36918366 0.005082817 -0.3971214 -0.433092

encoder1.1.weight f4 [4]
000000 3f c4 89 3f 69 98 7d 3f 63 55 7a 3f cb 21 79 3f
       1.0763015 0.99060684 0.9778654 0.9731719

encoder1.1.bias f4 [4]
000000 ca 9c d9 bd 75 73 f4 bd 10 5d 22 3d 2f 0a 1a 3c
       -0.10625608 -0.11936084 0.039639533 0.009401842

encoder1.1.running_mean f4 [4]
000000 cf 0c 52 3c 7d e7 43 3c 5c fa 93 bc 86 32 12 bd
       0.012820437 0.011957047 -0.018063717 -0.035692714

encoder1.1.running_var f4 [4]
000000 bd 70 da 3a 02 2d c2 3a 2c 7b 5f 3b 75 5c 57 3c
       0.0016665679 0.0014814439 0.0034100516 0.013144602

encoder2.0.weight f4 [6, 4, 4]
000000 37 df 6c 3e db f0 38 be 53 8e 20 3e 1f 68 8b be
       0.23132025 -0.18060629 0.15679292 -0.27227876
000010 0f d5 36 3e c4 a6 37 3e 5b be 7f be 13 2f 82 bd
       0.17854713 0.1793471 -0.24974959 -0.06356635
000020 de 36 ce bd 86 4a 5d 3e 3f de 85 3e 38 73 8b 3e
       -0.10069059 0.2161046 0.26146123 0.27236342
000030 35 86 8b 3c f2 ab 81 bd c3 6a b6 bd 03 1e 24 3e
       0.017031768 -0.06331624 -0.08907082 0.16027074
000040 1a 88 33 be ee 26 52 3e bb 12 4f bd 7e ac 73 bd
       -0.17532387 0.20522663 -0.050554972 -0.059490673
000050 ed 81 93 be c0 52 75 bd b9 34 80 be d2 7c 74 bd
       -0.28810063 -0.05989337 -0.25040224 -0.05968935
000060 cf cf d6 3c c1 5c 1c 3e e2 59 74 be cf 9d 05 be
       0.026222138 0.15269758 -0.23862413 -0.1304848
000070 bc af 2e bd ae 01 5d be d9 e6 d0 bc e2 1f be bd
       -0.042648062 -0.21582672 -0.025500702 -0.09283425
000080 3d 1f 35 be a9 de 2a 3e 3f 94 41 3e 09 0d 87 3e
       -0.17687698 0.166865 0.18904208 0.26377133
000090 43 82 fd 3c 61 3b 0f bb 84 bc 43 3e f9 34 6e 3e
       0.030945903 -0.002185546 0.19114882 0.23262395
0000a0 6e 7a 26 be 9e 5d 6f 3e 1d d8 d9 3b d1 a7 78 3e
       -0.1625764 0.23375556 0.006648077 0.24282767
0000b0 c5 9b 05 3e 55 37 a5 bd 5f b5 cb 3d ff a5 69 3e
       0.13047703 -0.08067194 0.09946703 0.22817229
0000c0 bc b5 18 be f1 89 5a be 82 c1 21 3a e5 f0 f5 3d
       -0.14913076 -0.21341683 0.00061704975 0.120088376
0000d0 fb e9 95 bd 4d 35 3a be ef 8c 8f 3c 76 af b9 bd
       -0.07320019 -0.18184395 0.017523257 -0.0906667
0000e0 24 b9 91 3c 25 5f 0d be 8a 70 fd bd 32 d5 1e be
       0.017788477 -0.13805826 -0.12374981 -0.15511015
0000f0 f1 1c bf bd 14 b2 7c bc 07 4b 19 be 22 49 5b 3d
       -0.09331692 -0.0154233165 -0.14970027 0.05353654
000100 79 c1 19 3d 09 04 1d bd d0 ee e7 3d f7 1e 9b be
       0.037538026 -0.038333926 0.11324847 -0.30297062
000110 a1 38 78 be 4e d5 47 be 70 66 0d be 97 95 c7 bd
       -0.24240352 -0.19514963 -0.13808608 -0.09745329
000120 64 2b df bb 40 cf 98 3a 53 47 82 bd 57 21 c9 bc
       -0.0068105925 0.0011658445 -0.0636126 -0.02455203
000130 ce 67 7c 3a 05 93 3c be a4 66 02 3d a2 4f 00 3d
       0.0009628505 -0.18415459 0.031836167 0.031325944
000140 44 cc d9 3d ab ed 8c be b9 9d 7e be 1e ff 82 be
       0.10634664 -0.27525076 -0.24864854 -0.25585264
000150 77 53 f3 bd 1a 8e 27 be c9 81 ac bd 02 ac 5f 3d
       -0.11881154 -0.16362801 -0.08423192 0.0546074
000160 21 b5 22 be 2e 9a 2d bd bb 7f d0 3d fe d9 63 be
       -0.15889408 -0.042383365 0.10180613 -0.22251126
000170 58 c2 5d bd e0 be 0e 3e ef af 3b bd ff f6 f2 bd
       -0.05414042 0.1394 -0.04582208 -0.11863517

encoder2.1.weight f4 [6]
000000 8e 75 7a 3f 96 fc 81 3f 74 0c 8a 3f 25 3b 86 3f
       0.97835624 1.0155208 1.078505 1.04868
000010 f6 98 62 3f 90 73 82 3f
       0.8851465 1.0191517

encoder2.1.bias f4 [6]
000000 24 2e 00 bd be 32 af bd 81 d3 15 bd c4 b8 1a 3d
       -0.031294003 -0.085546 -0.03657866 0.037773862
000010 6c f4 bd bd 0a 2c 9d 3c
       -0.092751354 0.019186039

encoder2.1.running_mean f4 [6]
000000 5a 39 17 3e 73 9f 9b bd d4 d1 c9 3d a7 92 cb bd
       0.14767972 -0.07598772 0.09854475 -0.09940081
000010 8b e3 e4 39 42 e4 32 bd
       0.00043657082 -0.043674715

encoder2.1.running_var f4 [6]
000000 09 3a a3 3d be cf 98 3e 5c 3a ed 3e 07 63 19 3e
       0.07970054 0.29845995 0.46333587 0.14979182
000010 e7 94 19 3f 94 4a 44 3f
       0.5999283 0.766763

encoder_lat1.0.weight f4 [6, 4, 4]
000000 5d ec c8 bd 31 07 91 3e ea c6 35 3e c0 ec 00 3d
       -0.09810708 0.283258 0.17751661 0.031475782
000010 44 d9 fe bd 8a 82 47 bd a3 52 21 3e 95 40 d0 3d
       -0.12443784 -0.048708476 0.1575418 0.10168568
000020 7b c1 d6 bd af 65 bd be 1e e4 88 be 45 b7 bf bd
       -0.10486122 -0.3699164 -0.2673654 -0.09361128
000030 6f a7 e3 bd 68 91 03 bd bd e7 0b 3e 4c e0 bc be
       -0.1111592 -0.032121092 0.1366262 -0.36889875
000040 5c cf 68 3e 12 cf 20 3e 2c 90 3c 3e 47 33 80 3e
       0.22735351 0.15703991 0.18414372 0.25039122
000050 c4 b4 1b bd 52 31 b9 bc 1c 2e 06 be 08 01 8c 3d
       -0.03801419 -0.022606526 -0.13103527 0.06836134
000060 b5 e5 37 3e ce b9 f8 3d 2b 4c 86 be 83 27 0f 3e
       0.1795872 0.121448144 -0.26229987 0.13979916
000070 d3 ec 18 bc b3 8f a2 3d 2a 32 91 3d 68 9d 67 be
       -0.009333807 0.07937565 0.07089646 -0.2261864
000080 14 10 5d bc 5f 62 67 be 36 5f 96 be b3 ca 9d bd
       -0.013492603 -0.2259612 -0.29369515 -0.077046774
000090 91 5e 18 be 9c 03 28 be 47 f4 ae bd ad 7d 82 be
       -0.14879824 -0.16407627 -0.08542686 -0.25486508
0000a0 9e 85 cf 3d bb 99 fd bc 79 4a 45 3e cb 3f 25 3e
       0.10132907 -0.030957093 0.1926669 0.16137616
0000b0 ba 8c 3d 3e 50 90 c2 bd c9 33 c4 3c 36 f6 01 be
       0.18510714 -0.09500182 0.023950474 -0.12691578
0000c0 2b dd 4c 3e 9a 13 52 bc 0c d4 d2 bc 89 af ea 3e
       0.20006244 -0.012822056 -0.025735877 0.45837048
0000d0 79 00 d4 3d bd d0 36 3e d6 06 64 bd 34 88 e9 3d
       0.10351653 0.17853065 -0.05567058 0.11402932
0000e0 6d fd da bc a6 87 0d be ab c9 86 be 0f 0d ae 3d
       -0.026732171 -0.13821277 -0.26325735 0.084985845
0000f0 da a6 24 be 9c e7 0a 3e 39 2f ac bb 04 c0 3e be
       -0.16079274 0.13564914 -0.005254653 -0.18627936
000100 26 37 ee 3d 57 1b 78 3e 32 be 1c 3e 03 b0 84 3d
       0.116316125 0.2422918 0.15306929 0.06478884
000110 5c 78 f3 bd eb 1f a5 bd 27 d3 af bd 18 c1 19 3e
       -0.11888191 -0.080627285 -0.08585196 0.15015066
000120 f9 03 1d 3e ca af 21 be 4d a4 17 be 2b f2 d4 bd
       0.15333547 -0.15789714 -0.1480877 -0.103977524
000130 ed ad 0c be 9d 3d 12 3e 6d 07 c5 3d aa 72 16 be
       -0.13738222 0.14281316 0.09620557 -0.14692178
000140 0d a9 4b bd bb 52 8a be 70 01 38 bd f6 0d c2 3c
       -0.049721766 -0.27016243 -0.044923246 0.023688298
000150 1d 8b 39 3e 1f a5 f1 bd a8 f4 70 be db ba af 3d
       0.18119474 -0.117990725 -0.23530829 0.08580562
000160 03 34 fb 3d 02 bd 06 3e 2d 71 3c 3e db dc 91 3e
       0.1226578 0.13158038 0.18402548 0.28488812
000170 5d 12 c7 3d 8d f3 65 3d b8 8b b9 bc 5f d0 c4 bd
       0.097202994 0.05614047 -0.02264963 -0.09610056

encoder_lat1.1.weight f4 [6]
000000 f4 a1 75 3f fd c4 9c 3f bd 7e 56 3f b8 ea 86 3f
       0.95950246 1.2247616 0.8378714 1.054038
000010 88 49 8d 3f d8 a0 81 3f
       1.1038065 1.0127211

encoder_lat1.1.bias f4 [6]
000000 d7 7a 58 3e 53 cc a6 3c 57 90 46 be a3 97 5a 3e
       0.2114061 0.020361101 -0.19390999 0.21346907
000010 35 dc 9b 3e 8c 8c 02 3e
       0.30441442 0.12748927

encoder_lat1.1.running_mean f4 [6]
000000 96 b1 89 be 8a 0e c8 ba 7f c8 13 3e 9e 31 1e be
       -0.268933 -0.0015263122 0.14431952 -0.15448615
000010 77 36 a0 bd e3 af 35 3e
       -0.07822888 0.17742877

encoder_lat1.1.running_var f4 [6]
000000 73 ed 53 3f f2 ad 00 3f 17 89 fc 3f 7e 17 ab 3f
       0.82784194 0.5026542 1.9729337 1.3366544
000010 8a 87 ab 3e 0a 24 fa 3e
       0.33501846 0.4885562

encoder3.0.weight f4 [6, 6, 8]
000000 10 fe ba 3d 69 15 f1 bd f6 04 07 be 4b 0d b2 bd
       0.0913049 -0.11771662 -0.13185486 -0.08693942
000010 ac ad bf bd a9 b3 b4 bd 1f d9 11 3d 93 e5 c2 3b
       -0.09359297 -0.0882333 0.035607453 0.0059477775
000020 07 f8 f2 bd 46 35 f0 3d 72 06 c1 bd 9a 4f a8 bd
       -0.11863714 0.11728911 -0.094250575 -0.08218308
000030 73 d5 be bd ca 18 15 3e 9a 0f 81 bd a2 81 90 bd
       -0.09318056 0.14560238 -0.06301804 -0.070559755
000040 36 c6 41 3e 96 6e 43 3e 61 cd c9 bd af 2c 05 3d
       0.18923268 0.19085154 -0.09853626 0.032513317
000050 ab b0 de 3d fc 3a 75 bd e9 f9 9a 3d 0a 65 a6 bd
       0.108735405 -0.059870705 0.07567198 -0.081247404
000060 20 63 48 3d c0 74 01 be cd 24 4f bd b4 d1 df bd
       0.048922658 -0.12642193 -0.050572205 -0.109286696
000070 46 8d e2 3d c7 17 0b 3d c6 7b 33 bd 33 08 05 3e
       0.11062102 0.033958223 -0.04381921 0.12991409
000080 aa c4 6a bd a5 08 a9 bd fc 94 e1 3c 28 75 6b bd
       -0.05731646 -0.08253602 0.027536862 -0.057484776
000090 0a 08 1a bd 2c 2e e5 3c 83 28 64 bd f1 77 7e bd
       -0.037605323 0.027976118 -0.055702697 -0.062126104
0000a0 89 b9 b5 bc e8 92 13 3d 7d dd 45 3d 9b ef d6 3d
       -0.022183197 0.036028773 0.04830693 0.1049492
0000b0 b0 26 09 3e b5 36 34 3d 1a be a5 3d bf 20 d4 bd
       0.13393664 0.043997485 0.080928996 -0.10357808
0000c0 7c bd 37 bd 6e 8c 1c bd 0a 78 02 be 29 68 0d 3d
       -0.04485844 -0.03821986 -0.12741104 0.034523163
0000d0 a1 61 d9 bd 68 56 81 3c f6 e7 26 bd 10 a7 9b bd
       -0.10614324 0.015788272 -0.04074856 -0.07600224
0000e0 91 b1 a6 bd 5b f4 10 be d9 4b d6 bd 9e 98 c1 3d
       -0.08139337 -0.14155714 -0.104636855 0.094529375
0000f0 82 e0 48 3e c8 ed 7c 3e 1c 9c 8b 3c 71 69 08 3e
       0.19616893 0.24700081 0.017042212 0.13321473
000100 60 09 4d 3d 24 9a 0e be 28 f8 22 3b 92 79 bc bd
       0.05005777 -0.13925987 0.002486715 -0.09202875
000110 da 1e d5 bd fb c6 13 be 3c 68 d5 3d 92 b0 43 bd
       -0.10406275 -0.14431374 0.10420272 -0.047775812
000120 49 89 0a 3e 68 31 3b 3c 14 0e 07 3e 0f ef fa 3d
       0.13528933 0.011425354 0.13188964 0.12252628
000130 81 6c c2 bd fb c2 fb 3d 7b 80 72 bd c6 02 81 bc
       -0.09493352 0.12293049 -0.05920456 -0.015748393
000140 f6 df 00 3e f4 59 80 bd 8a af a3 bd fb 5a 04 3c
       0.12585434 -0.06267157 -0.07992466 0.008078332
000150 25 0d 8b bd 87 e7 03 3d 9d a3 d0 bc 20 1e f1 3d
       -0.067896165 0.032203224 -0.025468642 0.11773324
000160 a9 0c 9c bc 9f d4 6c bd f7 fc 1f 3e 7d b8 9d bd
       -0.019049006 -0.05781996 0.15623842 -0.07701204
000170 98 dc d2 3c fc 6d 4a 3d 92 06 0e bd 6e af ee bb
       0.025739953 0.049421296 -0.034674235 -0.0072840964
000180 f4 d0 79 bd 21 36 d4 bd d5 88 c0 3d 52 fe 10 3e
       -0.06099029 -0.10361887 0.09401099 0.14159516
000190 17 ba c7 3d a2 6d 4b 3d 89 f4 12 3e 91 18 3e 3d
       0.09752291 0.0496651 0.14351095 0.046410147
0001a0 52 b4 07 be 24 ca 13 3b f4 89 10 3e 3f 5b 7c 3d
       -0.1325238 0.0022550905 0.14115125 0.061610457
0001b0 9b 26 a1 bd 3e 00 6c bc 9c 40 46 bd f0 fa 00 3c
       -0.078686915 -0.014404355 -0.04840146 0.007872328
0001c0 f5 86 19 bd 34 c8 b5 bd f8 0c c3 3d 2b cc c1 bd
       -0.03748222 -0.08876076 0.09523958 -0.0946277
0001d0 16 25 19 3d 92 63 a8 bd d8 1a 9d bd 45 28 c5 3d
       0.037388884 -0.082221165 -0.07671136 0.096268214
0001e0 6e 58 1c 3d c8 71 df 3d 48 08 00 3e 92 92 18 3e
       0.03817027 0.10910374 0.12503159 0.14899662
0001f0 5b c4 c0 bc f2 53 ab bc 8e 4d 1e 3d 40 98 a9 bd
       -0.02353113 -0.020914052 0.03864818 -0.082809925
000200 9f 61 f2 bc 5b 94 0d 3e 02 1d 85 bd 2a 6b a3 3d
       -0.029587565 0.13826124 -0.064996734 0.07979424
000210 05 3e 3b 3d 36 e9 31 3e 4b 2a 21 bd 2b c2 e2 3d
       0.045713443 0.17374119 -0.039346974 0.11072191
000220 1f 23 1d be 7b 4b 1e 3e 82 4a 93 3d 65 45 b4 bd
       -0.15345429 0.15458481 0.071919456 -0.088022985
000230 1e 9c 4d 3e 70 6a 7c 3d 5a a0 e6 3d 18 b8 4b bd
       0.20079085 0.061624944 0.112610534 -0.049736112
000240 25 01 89 3c a1 ce 96 3c 69 bc 9f bc bf e2 b5 3d
       0.016724179 0.018409075 -0.01949902 0.08881139
000250 aa 35 45 bd 64 64 05 bd b6 90 eb bd cb 0d 93 bc
       -0.04814688 -0.032566443 -0.11502211 -0.017950913
000260 47 b3 7c bc 22 e9 73 3d d4 18 58 3d 63 05 d1 bc
       -0.015423602 0.059548505 0.052758053 -0.025515264
000270 de 73 c4 bd 91 f8 5a be 73 d5 8c bd 60 b1 13 bc
       -0.095924124 -0.21383883 -0.0687665 -0.009014457
000280 8d 5e 25 bd 08 02 85 bd c4 ec d7 bc cb ee 22 be
       -0.040373374 -0.06494528 -0.026358016 -0.15911405
000290 ec 65 90 bd 32 af 6f bd 08 d6 67 3d 88 9c f6 bc
       -0.0705069 -0.05851669 0.0566006 -0.030103937
0002a0 5a af f7 3d 42 d0 13 bd fd 7d 19 be 02 af ae 3a
       0.120939925 -0.036087282 -0.14989467 0.0013327303
0002b0 cf e2 ec bd 18 1e 8b bb 12 94 80 bd 9c 99 fc bd
       -0.11566698 -0.004245531 -0.06278242 -0.12333986
0002c0 6f 59 7c bd 5e ca dc bc a3 17 ad 3d 62 b7 af bd
       -0.061608728 -0.026951965 0.08451774 -0.08579899
0002d0 59 0b db 3c f9 77 0c be 1a f4 63 3c 3c 06 13 bc
       0.02673881 -0.13717641 0.013913179 -0.008973654
0002e0 29 d1 fd bd 65 75 7c bd 8f f2 fd 3d 97 85 40 be
       -0.1239341 -0.061635394 0.1239978 -0.1880096
0002f0 14 ad 0e be a1 a6 2e be 68 0e 7e 3d 37 ea 49 3d
       -0.13933212 -0.17055751 0.062025458 0.04929563
000300 1e 5a 7f bd 97 dd cb 3b 0f d7 b1 3d 46 59 9e bd
       -0.0623418 0.006221484 0.08683597 -0.07731871
000310 56 27 13 3e 3a 21 96 bd 8c f8 80 bd 94 02 af bd
       0.14370474 -0.07330556 -0.062974066 -0.085454136
000320 a7 d9 c3 bd 5c f1 a6 bd b3 2f 2f bd 61 b4 46 be
       -0.09562998 -0.081515044 -0.0427701 -0.19404747
000330 0f 23 06 be 4c 2e 0e be 99 85 96 bd 77 12 94 bc
       -0.13099311 -0.13884848 -0.073497005 -0.018075211
000340 1e ef c4 bd f2 8f 80 3d 6b 62 ab bd 43 f6 67 bd
       -0.096159205 0.062774554 -0.08368381 -0.056631338
000350 2e 20 fd 3d 8f 73 1e 3e ab 0e 06 bd 4f 4c ed 3d
       0.123596534 0.1547377 -0.032728832 0.1158682
000360 62 78 f1 bd 49 33 15 bd 4d ea 52 bd 52 c8 a3 bc
       -0.11790539 -0.036425862 -0.051492978 -0.019992981
000370 3b 3c bb bd 58 97 16 be a2 4a cf bc b4 b8 b0 bd
       -0.091423474 -0.1470617 -0.025304142 -0.08628979
000380 de b3 81 bd 4b 8a 21 bd 90 6a cc bd f0 ca 27 be
       -0.06333135 -0.039438527 -0.09981263 -0.16386008
000390 bf 72 2b bd 71 72 fb 3d 52 96 07 bc 1a 13 d2 3d
       -0.041857477 0.12277687 -0.008275585 0.102575496
0003a0 fb ec 3c be c9 24 c2 3d 71 06 f7 bd 98 34 20 bd
       -0.18449776 0.094796725 -0.120617755 -0.039112657
0003b0 a2 f5 97 3d 62 08 ed 3d b2 f5 ae bd a7 a6 16 3c
       0.074198976 0.115738645 -0.085429564 0.009195006
0003c0 c4 79 93 bd ca fa f2 bd f3 41 2e be 9f 8a ea bc
       -0.07200959 -0.118642405 -0.17017345 -0.028630553
0003d0 5b 5a a1 3c 39 ff bd 3c 6b 61 aa bd 13 95 17 be
       0.019696405 0.023192989 -0.08319362 -0.14802961
0003e0 8b 5a 54 3d bc bf 0d be bc f2 f9 bb a8 49 07 bd
       0.05184416 -0.13842672 -0.007627813 -0.03302923
0003f0 a4 dd 76 3d 6d 4d 41 bd be 1d 80 bc d2 00 00 3d
       0.060269967 -0.04719298 -0.015639182 0.031250782

encoder3.1.weight f4 [6]
000000 2e e8 84 3f f9 8d 7c 3f 84 f4 76 3f cd 6a 82 3f
       1.0383356 0.98654133 0.9646685 1.0188843
000010 47 8c 79 3f 08 4d 86 3f
       0.9747967 1.0492258

encoder3.1.bias f4 [6]
000000 7f 7f 08 be bb 1c ac 3b 9b f0 e9 bc 0f a0 56 be
       -0.13329886 0.0052524484 -0.028557112 -0.20959495
000010 c1 28 ab bd 57 86 d2 bd
       -0.083573826 -0.102795295

encoder3.1.running_mean f4 [6]
000000 1c 7b 1b bd 91 29 81 3d 51 fa 6e 3e 8f af 7d be
       -0.037959203 0.06306756 0.23337676 -0.24774002
000010 d8 ad 8a be 66 ee 53 be
       -0.27085757 -0.2069641

encoder3.1.running_var f4 [6]
000000 3b e1 9f 3e 74 96 81 3e 82 05 a6 3e ee 69 9b 3c
       0.31226525 0.253101 0.32426077 0.01897141
000010 16 8b f7 3e 61 02 7d 3e
       0.48348302 0.24707939

encoder_lat2.0.weight f4 [6, 6, 8]
000000 b2 89 c6 3c e4 7f 14 3d 85 de 51 3d d2 29 9e bc
       0.02423558 0.03625478 0.0512376 -0.01930705
000010 13 5d 02 bd a0 ae 05 bd ad 87 2f bd 68 47 b9 bc
       -0.031827044 -0.03263724 -0.042854 -0.022617057
000020 a0 25 4d 3d de af 00 3e 9e 44 a9 bd 9a a2 c9 bd
       0.05008471 0.12567088 -0.08265041 -0.09845467
000030 bc e6 99 3c 5f da 86 3b 61 8d 0a 3e 77 e2 99 3c
       0.01878678 0.0041153873 0.13530494 0.018784745
000040 44 13 13 be 47 91 7c bd b9 53 d7 bd 48 12 fb 3c
       -0.14362818 -0.061661985 -0.10514016 0.030648366
000050 9e 39 91 3d 0e 63 b7 3b a2 d7 18 be 9d e7 d4 3c
       0.07091068 0.005596525 -0.14926007 0.025989348
000060 be c3 c7 3c 6c 2e 2d bd 22 5c 03 3e 24 ff ae bc
       0.02438533 -0.0422806 0.12828115 -0.021361895
000070 65 53 c2 3d ba 59 bc 3d 0b 20 fb 3d 00 fe 1d 3d
       0.094885625 0.091968015 0.12261971 0.03857231
000080 80 ef c6 bd 1a db 72 3d 45 83 aa 3d bb 11 52 bd
       -0.0971365 0.059290983 0.08325819 -0.05128644
000090 82 f3 2e 3e f2 0f 01 3d 33 b0 c1 3d 27 72 27 3e
       0.17085078 0.031509347 0.094574355 0.1635214
0000a0 26 f7 02 bd 92 49 a3 bd fd 94 3e 3c 27 8d a6 bd
       -0.03197398 -0.07973017 0.011632201 -0.081323914
0000b0 fc 0e 30 3e e5 f6 54 3e 6e 19 9d 3d 5b a1 f0 3d
       0.17193216 0.20797308 0.07670866 0.11749526
0000c0 42 b1 ec 3c 36 bb 6e bd e6 51 6c 3c fb dd e7 bd
       0.028893117 -0.058284007 0.014423823 -0.11321636
0000d0 dc 8e 9e 3c 56 00 09 be 52 b5 ad 3c f4 53 50 3d
       0.01935523 -0.13379034 0.021204624 0.050861314
0000e0 c6 c5 fe bd 0e 38 17 be 0d 27 cc 3c 34 5f 39 be
       -0.12440066 -0.14767477 0.024920965 -0.18102723
0000f0 10 3e 15 bd a2 12 ad 3d 5b a1 c9 3c de cc fa bd
       -0.03643614 0.084508196 0.024613073 -0.122461066
000100 e7 61 bf 3c 33 cb 3a 3e 45 5d ce 3d 66 c6 49 3e
       0.023362113 0.18241577 0.100763835 0.19704589
000110 c3 b2 92 3d 45 2e b4 bd d5 b4 a3 3d 75 81 13 bd
       0.07163002 -0.08797888 0.07993475 -0.03601213
000120 71 7f 1a be db 2e 0b bc fc c3 2c be 13 9c 35 be
       -0.15087678 -0.008495058 -0.16871637 -0.17735319
000130 fc 30 0c be d7 4a 28 bd 3c 67 06 bc 9a 5c a4 bd
       -0.13690561 -0.041086998 -0.008203324 -0.08025475
000140 d2 a5 b9 3c 86 6c 9e 3d e8 82 49 bd be 08 15 bd
       0.022662077 0.07735543 -0.049197108 -0.03638529
000150 29 b3 53 3d 09 d7 a5 3c ce 02 c2 3d db 18 92 bd
       0.051684532 0.020244138 0.09473191 -0.07133647
000160 7f e3 31 3d 08 dd 67 3d f2 6b 70 3b 94 37 99 3d
       0.043429848 0.056607276 0.0036685434 0.07481304
000170 87 bd 8c bd df 80 5c 3d fe 10 d4 3d a4 2f c5 3d
       -0.06872087 0.05383384 0.103548035 0.09628227
000180 76 0c 94 bd 8f 89 cd 3d d6 72 aa bc 96 db ae bd
       -0.07228939 0.10036003 -0.020806711 -0.085379764
000190 f0 3a e2 bc 08 cb 2c be 01 50 bb bd 33 d2 a3 3d
       -0.027615994 -0.16874325 -0.09146119 0.07999077
0001a0 12 20 02 be 47 8b 5d bc 80 02 c5 bc 69 79 0b 3d
       -0.12707546 -0.013521976 -0.024049044 0.034051333
0001b0 a2 12 4f 3c df f7 8d 3c 4f c3 54 bc 18 cc 9d bc
       0.01263872 0.017330108 -0.012986018 -0.019262359
0001c0 28 03 22 be 79 c7 aa 3b 33 a0 b9 bd 68 0d 5b be
       -0.15821517 0.0052117673 -0.09063759 -0.21391833
0001d0 c6 4c 2a be d9 08 51 bd 8b 08 82 3c b2 a0 45 3e
       -0.16630849 -0.05103383 0.015873214 0.19299582
0001e0 c7 9d 9b 3d 1d 15 55 bd f9 25 18 3e cf 7d 0b 3d
       0.07598453 -0.05202209 0.14858235 0.034055527
0001f0 4f f2 ea bc 92 c0 e5 bd 38 8d da bd a8 30 81 bd
       -0.028679995 -0.112183705 -0.106714666 -0.063081086
000200 1a 92 12 3e 55 cf b2 bc 5d 78 7c 3d 5a be 67 3d
       0.14313546 -0.02182738 0.061638225 0.056578018
000210 fa d8 13 3d 40 db aa bc 82 e4 81 3d 7c ff b0 bd
       0.036095597 -0.0208565 0.063424125 -0.0864248
000220 16 68 2a 3e 85 92 0e bd 76 c7 f1 bd 17 92 c2 bc
       0.16641268 -0.0348077 -0.11805622 -0.023751302
000230 87 23 de bc aa 9a 19 be 2f 48 6c 3d 68 76 6b bc
       -0.02711655 -0.15000406 0.057686027 -0.014371492
000240 21 91 18 3d f7 d6 fa bc 88 8c 86 bd c8 6b 09 3e
       0.03724778 -0.030620081 -0.06569773 0.13420022
000250 cc 7b 94 bd 55 87 45 3a da dd 4d 39 db 33 41 be
       -0.07250175 0.00075351197 0.0001963297 -0.18867438
000260 c6 df 97 bd 7b 0b e3 3d 55 45 1d bd e6 6d c8 bb
       -0.07415728 0.11086174 -0.0383962 -0.0061166165
000270 75 6e ef 3d b5 c6 98 3d 4c be 61 bd 66 63 12 be
       0.1169099 0.07459775 -0.055113122 -0.1429573
000280 1e c5 df 3d bd 54 11 3d 8e 34 cf bc fb 63 d3 3c
       0.10926269 0.035481203 -0.025293615 0.02580451
000290 cb ec 1b 3d 18 a8 36 3e f7 6b 32 3e 0a e2 48 3e
       0.03806762 0.1783756 0.17423998 0.19617477
0002a0 4a 8a 94 3d 69 af f9 3b 98 b9 5a 3c 58 6c e2 3d
       0.07252939 0.0076197875 0.013349913 0.11055821
0002b0 93 cc 09 be a6 4e 9f bc 32 eb 6b ba 7f d6 79 be
       -0.13456945 -0.019446682 -0.00089995854 -0.2439823
0002c0 77 29 ed bd d8 a3 90 bd 78 aa f1 3d aa dc e2 3d
       -0.115801744 -0.07062501 0.118000925 0.110772446
0002d0 92 e5 90 bd aa e7 15 be 37 73 cc bd 2a 1c 86 3d
       -0.07075037 -0.14639154 -0.09982913 0.065483406
0002e0 4c 2e 90 3d a3 47 b1 3d 44 59 0f bd 8f 02 8c bd
       0.070400804 0.08656242 -0.03499724 -0.068364255
0002f0 ae be cb 3d 49 9a be bd b6 57 44 be 85 16 54 be
       0.09948479 -0.09306771 -0.19174084 -0.20711716
000300 a6 a4 4e bc e8 fb 8e bc af 6a c5 bd ea 6a 0e 3d
       -0.012612497 -0.017454103 -0.09639489 0.03476993
000310 a2 cf c0 bd 56 3c 56 bd 24 26 a8 bb fd ec b3 3b
       -0.09414603 -0.052303635 -0.0051315 0.0054908977
000320 6a db 4b 3d 0a a5 dd bd 81 51 a5 3d a4 16 ea 3c
       0.049769796 -0.10822494 0.08072186 0.028575249
000330 cc ce b4 bd 07 80 a3 3d b5 d6 3a 3d 2f 1e 16 bd
       -0.08828506 0.07983404 0.045614917 -0.03664988
000340 7b d5 19 3d 01 be f2 3b 55 3d 9b 3d 02 6e 00 3e
       0.037557106 0.007407904 0.075800575 0.12541965
000350 e9 20 83 3e 62 59 b2 3d 27 25 15 bd 81 79 27 3d
       0.25611046 0.08708455 -0.036412384 0.04088736
000360 65 27 a5 bd f1 9d 8b bd 63 01 24 bd a4 1d 60 be
       -0.080641545 -0.06817234 -0.040040385 -0.21886307
000370 66 9d 3a 3c 5a 74 5b bd 52 2a 8c ba ea 05 b8 3d
       0.011390066 -0.05357776 -0.0010693765 0.08985503
000380 e6 8b f2 3c 06 d3 21 3d c0 82 b1 3d 2e d3 1a be
       0.029607724 0.03950789 0.08667517 -0.15119621
000390 e2 60 cc bd d2 bf 66 3d 7d 5b fa 3c 27 bb 21 bd
       -0.099794164 0.056335278 0.030561203 -0.039485123
0003a0 f3 a2 1d 3d 41 d8 96 3b 9f a7 0d be 58 cd fb bd
       0.03848548 0.004603416 -0.13833474 -0.122950256
0003b0 c5 1d f4 bd 0c b8 4b bd c5 ed 39 bb e2 0d 08 be
       -0.119197406 -0.049736068 -0.0028370481 -0.13286546
0003c0 7b e2 c8 bd 9f c4 e7 3d 9b fc d0 3d cd 1b b1 3d
       -0.09808823 0.11316799 0.10204431 0.08647881
0003d0 d9 ca a0 bd ba 8f fe bd 5d e2 f5 bc 3f 04 af 3b
       -0.0785119 -0.124297574 -0.030015165 0.0053410823
0003e0 00 54 ae bc 01 f5 7d bb 10 95 4d 3c c4 e3 c1 bd
       -0.021280289 -0.003875077 0.012547746 -0.09467271
0003f0 a6 3b f1 bd e4 ef a5 3d 16 1c 8b 3a 56 21 21 be
       -0.11778955 0.08102396 0.0010613229 -0.15735373

encoder_lat2.1.weight f4 [6]
000000 4b d8 89 3f 6a cb 99 3f 33 74 5e 3f 28 3c 95 3f
       1.0769132 1.2015202 0.86896056 1.1658983
000010 1a 18 8a 3f 0c 49 5c 3f
       1.0788605 0.8604896

encoder_lat2.1.bias f4 [6]
000000 7b 93 dc 3d f7 8f 1a 3e 44 5b 0b be 0d d2 3a bd
       0.10770317 0.1509398 -0.13609034 -0.045610476
000010 e0 f4 51 3e 8a 4c 00 be
       0.20503569 -0.12529197

encoder_lat2.1.running_mean f4 [6]
000000 8d f4 6b 3e fe 8d 16 be 53 55 f2 bd 4a c1 48 be
       0.23042507 -0.14702603 -0.118326806 -0.19604984
000010 c6 18 69 be 19 94 91 bd
       -0.22763357 -0.071083255

encoder_lat2.1.running_var f4 [6]
000000 88 17 08 3f fc ce 32 3f 05 dd 54 3e 18 61 74 3f
       0.53160906 0.69847083 0.20787437 0.95460653
000010 88 66 65 3f a1 17 a6 3e
       0.89609575 0.32439902

encoder4.0.weight f4 [8, 6, 8]
000000 6b d3 76 bd 0b 90 a8 bd 4b fe 5b 3d 19 b6 a9 bd
       -0.060260218 -0.08230599 0.05370931 -0.082866855
000010 01 e4 74 3d b1 eb 23 bd 34 c7 03 bd 50 70 bd bc
       0.059787754 -0.040019695 -0.032172397 -0.023124844
000020 02 18 93 bd b6 9f 23 bd 8d fb ed bb 06 00 65 bc
       -0.071823135 -0.039947234 -0.007262653 -0.013977056
000030 3c 9b a8 3d 45 59 b8 3d b9 13 9f 3d 2c 40 c3 ba
       0.082327336 0.09001402 0.07767434 -0.0014896444
000040 87 c0 58 bd 96 4a 2d bd 78 ac 4e bd b6 bd 8b 3c
       -0.052917983 -0.04230746 -0.050457448 0.017058235
000050 3a 5f 09 be 75 2c 8f 3c 0d a7 9f 3d 05 7b 1a 3e
       -0.13415232 0.017477253 0.07795534 0.1508599
000060 fa 18 cd 3d 20 ca df 3d a1 cc c2 3d 59 36 a3 3d
       0.100145295 0.10927224 0.09511686 0.0796935
000070 89 ec 68 bd a9 50 e4 bc 51 59 00 3e 8c ae 76 bd
       -0.056866203 -0.027870493 0.12534072 -0.060225055
000080 d4 eb ba 3d 68 74 11 3e a3 65 b9 bd e2 d7 c2 bd
       0.09127012 0.14204562 -0.09052589 -0.09513833
000090 7b fe 0b be 2c 20 29 be 2c d4 09 be ae 07 ae bd
       -0.13671295 -0.16516179 -0.13459843 -0.084975585
0000a0 9e 2a f1 bb d4 72 b2 3c 7d 04 c5 bd fe ce a1 bd
       -0.0073598167 0.02178327 -0.09619997 -0.07900809
0000b0 44 54 6d bc 6b 13 86 bd 8c 0d be bd 2d 5a 29 bd
       -0.0144854225 -0.065466724 -0.092799276 -0.041345764
0000c0 68 26 15 bd 24 54 07 3e 38 94 a7 3d da 64 0c be
       -0.03641358 0.13215691 0.08182567 -0.13710347
0000d0 48 3a 0f bd 45 67 d3 3d 33 76 d7 3d 98 67 1b be
       -0.03496769 0.103224315 0.105205916 -0.15176237
0000e0 1c ab 80 3d 4f ef ba 3c 87 81 02 3e b8 90 c7 3d
       0.062826365 0.02281919 0.12744723 0.097444
0000f0 de 35 c1 3c 82 6a 23 bb ff a4 b6 3d 23 cc a7 3d
       0.023585256 -0.002493531 0.08918189 0.08193233
000100 47 a5 09 be ea 41 92 3d ad 69 33 bd dd fd 64 3d
       -0.13441955 0.07141478 -0.043801952 0.055906165
000110 b3 72 8c 3d 69 6d d1 3d df bc 0f 3d 1d 47 bd 3d
       0.06857815 0.102259465 0.03509223 0.092420794
000120 ec d9 03 bd 90 4d 34 be dc 5f ad 3c 73 1a a4 bd
       -0.03219025 -0.17607713 0.021163873 -0.08012857
000130 47 25 cd bd b5 f6 da bd 24 4d 42 3b 27 40 d3 3d
       -0.10016876 -0.10691587 0.002964803 0.103149705
000140 a1 ab e2 bd 0a d9 2e 3e ce d3 14 3d 9a 8a 07 3e
       -0.11067892 0.17074981 0.036334805 0.13236466
000150 a9 ac 70 3d e7 8e 05 bd 60 a5 ac 3d 05 64 2c 3d
       0.05875841 -0.032606985 0.0842998 0.042087574
000160 e3 05 11 3d e2 43 81 bd 3c 56 2d be 10 fa 77 bd
       0.035406005 -0.06311776 -0.16927427 -0.060541213
000170 0e 74 b1 bd 9a 43 09 bc 65 83 dd 3c b4 41 fd bd
       -0.08664714 -0.008377934 0.027040193 -0.123660475
000180 a6 9f 3b 3e 8c 2e 11 3e 05 be 20 3e 68 87 66 bc
       0.1832262 0.14177912 0.15697487 -0.014070369
000190 26 02 83 bd 61 c1 74 bd f2 e5 c6 3d ff 61 e2 3d
       -0.06396894 -0.059754733 0.09711827 0.110538475
0001a0 04 58 95 be 68 a7 b7 bc 1c c6 f7 ba a8 95 29 3d
       -0.29168713 -0.022418693 -0.0018903646 0.04140249
0001b0 14 ae 7a bd ad fa 20 bd 4a cc 44 3b fc 72 64 3d
       -0.06120117 -0.039301563 0.0030028992 0.05577372
0001c0 11 dd 03 bd a5 56 e4 bd 3b cc e2 3b 59 af 00 3e
       -0.032193247 -0.11149339 0.006921319 0.1256689
0001d0 a9 1e 06 3d 71 66 19 3d c5 28 bf 3b 80 17 bb 3d
       0.032744084 0.03745121 0.0058337175 0.09135342
0001e0 ec 2a 19 bd 9d d9 72 bd a6 8a c5 3d 22 c8 4a 3d
       -0.03739445 -0.059289563 0.09645586 0.049507268
0001f0 a2 be af 3d 71 f0 55 3d 8b c0 19 3e 1f 27 21 bd
       0.08581282 0.052231256 0.15014856 -0.03934395
000200 a2 a6 55 bd 33 61 2f be 4f f3 94 bd b0 fd 93 bc
       -0.052160867 -0.17126922 -0.0727297 -0.018065304
000210 c1 a0 7c 3d f0 3b a6 bc af 9c eb 3b 0f 0e a2 bc
       0.061676744 -0.020292252 0.007190309 -0.019782094
000220 be 0f 10 3e 71 8a 1d 3d c0 6b 46 3d ce e6 84 bd
       0.14068505 0.038462106 0.048442602 -0.06489335
000230 d3 fd b8 3c f5 11 13 bd ef ba 47 bd 3b 11 2b bd
       0.02258197 -0.035905797 -0.04876226 -0.04176448
000240 f1 9f 5d be bf dd 0a bd 7a a9 1c bd 77 db cd bd
       -0.21643044 -0.03390288 -0.038247563 -0.10051625
000250 62 ef a3 3d be ea 3c 3d 4c 3f 0b bd 05 f5 f3 bd
       0.08004643 0.046122305 -0.03399591 -0.11911968
000260 74 0f 2d 3c c2 7e f7 bd 6e 40 aa 3d af c5 c7 3c
       0.010562766 -0.12084724 0.0831307 0.024386255
000270 94 b0 af bb b0 cd 5c bd a8 b0 27 3e c1 14 80 3c
       -0.005361626 -0.053907096 0.16375983 0.015634896
000280 90 0c b9 bd d5 94 fa bd 1c d7 d1 bd 08 8e d6 3c
       -0.09035599 -0.12235419 -0.10246107 0.026190773
000290 84 4c 51 3d 10 d6 ab 3a a2 83 b1 3d ee e2 85 ba
       0.05109836 0.001311006 0.08667685 -0.0010214725
0002a0 8d 0b aa bc 10 1b e5 3d 39 87 dc 3d ec 42 37 bd
       -0.020757461 0.111868024 0.10767979 -0.044741556
0002b0 88 96 96 bd 50 ab 29 bc e1 53 59 be 80 aa 1b 3d
       -0.0735293 -0.0103557855 -0.21223404 0.0380044
0002c0 36 af 55 bd f1 e4 cf 3d 94 95 41 3e 82 db b0 3d
       -0.052169047 0.10151089 0.18904716 0.08635618
0002d0 ab 93 0f 3d ca cb 06 be 12 8b 3d 3c 39 79 8d 3d
       0.035052937 -0.13163677 0.0115688015 0.06907887
0002e0 7e 06 1c bd 8d cf 04 be b5 32 4f 3d 5b 4b ef bd
       -0.03809213 -0.129698 0.050585467 -0.11684295
0002f0 b6 54 02 3d 4b 2c 12 3e db e5 8f bd bf 2a 89 3d
       0.031819068 0.14274709 -0.07026263 0.06697606
000300 17 71 28 3d 1e d7 36 bc 30 a9 72 3d 4c f5 dd 3d
       0.041123476 -0.011159686 0.05924338 0.10837802
000310 a6 7c cc bd f1 c0 a7 3d 33 9b 2f bb 67 a7 7b 3a
       -0.09984712 0.081910975 -0.0026795387 0.0009599835
000320 db a0 81 3b 98 b2 90 bc 5e f6 bd 3d 64 6d 9a 3d
       0.003955943 -0.017663285 0.092755064 0.07540396
000330 66 04 a6 3d bf c5 fe bd a5 41 9e bd 5d d8 e3 3d
       0.08106308 -0.12440061 -0.077273645 0.111252524
000340 13 73 c7 3d 25 c8 1a 3e be 0c 7e bb 7c 4f 03 3e
       0.097387455 0.15115412 -0.003876492 0.1282329
000350 9e 7b 81 3d 30 50 8d 3c 7a a9 07 3e 94 b9 cf bd
       0.06322406 0.01725015 0.13248244 -0.10142818
000360 94 c7 90 bd 5a 00 1a bd 74 4a 05 be e6 5e 71 3c
       -0.070693165 -0.03759799 -0.13016683 0.014732098
000370 67 5f c5 3d 4c 6c d3 3c a0 fe 38 be 12 9e 60 bd
       0.09637337 0.025808476 -0.18065882 -0.054838248
000380 ee 15 6b 3c db 9f b4 3d a3 03 df 3d 52 76 e7 3d
       0.01434849 0.088195525 0.108893655 0.11301865
000390 ab 93 bf 3d a8 ae 9d bd 7d 1a df bd 54 d1 35 bd
       0.09354337 -0.07699329 -0.10893724 -0.044389084
0003a0 53 b4 e3 bc 95 24 0f 3c 32 57 e1 3d 4d 5f 41 3e
       -0.027795946 0.008736749 0.11002959 0.1888401
0003b0 4a 69 d6 bb fd 63 3a 3d f8 cc 93 3c a9 84 c3 3d
       -0.006543313 0.045505513 0.018042073 0.09546787
0003c0 2f 24 f9 bd 99 9d 87 bc b6 00 3d 3c d3 47 2d 3e
       -0.121651046 -0.01655464 0.011535814 0.1692193
0003d0 f7 58 ec 3d c6 e3 89 bd a9 60 08 3e 10 7d 4d bd
       0.11540406 -0.067328975 0.13318123 -0.050168097
0003e0 c6 84 0a be bd b1 08 be 32 cd 53 bc 71 b9 21 be
       -0.13527212 -0.13349052 -0.01292734 -0.15793397
0003f0 63 d1 c2 3c d6 41 07 3e 41 25 2c 3d 51 c2 26 3c
       0.023781484 0.13208708 0.042027716 0.010178165

encoder4.1.weight f4 [8]
000000 b5 b6 73 3f 39 05 7c 3f b3 26 81 3f 10 a6 8c 3f
       0.95200664 0.9844547 1.0089935 1.0988178
000010 55 47 87 3f 3d 2b 81 3f e0 a0 70 3f 69 27 65 3f
       1.0568644 1.009132 0.93995476 0.8951326

encoder4.1.bias f4 [8]
000000 ba 69 b3 3c 62 5a 90 3c 49 da 96 bd 86 f0 27 be
       0.021901 0.017621223 -0.07365853 -0.16400346
000010 2a bf 56 be 76 f0 c3 bd be 7e 56 3b 48 ea 5f be
       -0.20971361 -0.09567349 0.0032729353 -0.21866715

encoder4.1.running_mean f4 [8]
000000 f8 7f b8 3d a8 df 47 3e 4d 61 e1 bd 7b 3b 48 3d
       0.09008783 0.19518912 -0.11004887 0.04888485
000010 37 24 00 3e b5 25 82 bd 7c 90 92 3d 62 5a a6 bb
       0.12513815 -0.06354848 0.071564645 -0.0050766924

encoder4.1.running_var f4 [8]
000000 b3 f9 17 3f c2 6f 5b 3e 22 eb de 3e 24 d0 3a 3e
       0.59365386 0.21429351 0.43538767 0.18243462
000010 fa ba 71 3e c2 dc 34 3d 52 70 a9 3d 51 ad 01 3e
       0.23606482 0.044155844 0.082733765 0.12663771

encoder_lat3.0.weight f4 [8, 6, 8]
000000 00 a2 8c bc 25 07 b4 bd 12 a7 1e 3e 01 2f c6 3d
       -0.017167091 -0.08790425 0.1549342 0.09676934
000010 05 5d e2 3d 36 fe 25 3d e1 c1 5b 3d 98 70 95 3d
       0.11052898 0.040525638 0.053651694 0.07296866
000020 33 ef 94 bc 3a 04 f4 bd 65 e0 13 be 51 cd c9 bd
       -0.018180465 -0.11914869 -0.14441068 -0.09853614
000030 00 d7 53 3d 36 6c c5 3d 7c 37 d1 bd 21 b8 c6 bd
       0.05171871 0.0963978 -0.10215661 -0.097030886
000040 48 9d c2 3d eb 41 d6 bd 97 2d 96 bd 5d 6f bb bd
       0.09502655 -0.104617916 -0.07332914 -0.091521
000050 5c 98 cb bd 6d 80 0e 3e 42 ac 77 bc 9f 88 99 3d
       -0.099411696 0.13916178 -0.015116753 0.074967615
000060 25 6c 05 bd 5b 5f 89 3c 32 11 c2 bd f0 ea 5b bb
       -0.032573838 0.016769102 -0.09475936 -0.0033556782
000070 68 9d 53 3c 0a b2 bd 3b e6 92 3f 3d f6 8f ba 3d
       0.012915947 0.005789046 0.046770953 0.091094896
000080 0b 59 65 3d 26 de 9a 3d 8c 68 52 bc c9 be 4e be
       0.05599312 0.07561903 -0.012842309 -0.20189966
000090 ae ef e1 bc a8 7c aa bd 5c 3a 3f be e5 41 32 be
       -0.027580108 -0.083245575 -0.18674606 -0.1740795
0000a0 dd a2 45 bd d2 c9 eb bd 66 65 b2 bb 05 ad 38 3e
       -0.04825102 -0.115131035 -0.0054442165 0.18034752
0000b0 f7 5b d4 3d ec c7 12 3e 5c 71 14 3e b0 fe c8 3c
       0.103691034 0.14334077 0.14496368 0.024535507
0000c0 fb 6b 62 bd c8 a1 1a 3e f2 5e 16 3e 71 0d af 3d
       -0.05527876 0.15100777 0.14684656 0.085474856
0000d0 ef 80 29 3e 0c f6 14 3e dc 39 04 bd 0a 55 46 3d
       0.1655309 0.14546984 -0.03228174 0.048420943
0000e0 de 0a 97 be f9 ea 81 3d 25 4e ac bd b0 9d a9 3d
       -0.29500479 0.063436456 -0.084133424 0.0828203
0000f0 f8 a0 dd bd 10 3a 09 3e d8 3c a8 3d a7 71 08 3d
       -0.10821718 0.13401055 0.0821473 0.033311512
000100 14 44 64 3c 4f 46 f9 bd 5a 83 0e be bf ff 09 3e
       0.013932247 -0.121716134 -0.13917294 0.13476466
000110 bb 7a b2 3d da d8 e6 3d a9 72 b2 3d 90 85 6f 3c
       0.08714815 0.1127183 0.08713276 0.014619246
000120 15 04 11 be 6c 48 72 3d bb c0 14 bd 11 83 ac bc
       -0.14161713 0.059151098 -0.036316615 -0.021058591
000130 32 28 ed bb d1 07 ba 3d fd 2f 9c 3d 49 1b e1 3d
       -0.0072374577 0.09083522 0.076263405 0.10991532
000140 fb 8f 40 3d b1 e5 96 3d c7 35 5b 3d 99 f5 58 bd
       0.04701231 0.07368029 0.053518083 -0.052968595
000150 c8 40 46 3d 7b e7 06 be 21 27 a7 3d da ae b6 3c
       0.048401624 -0.1317424 0.0816176 0.022300173
000160 f6 38 06 3d 40 96 b1 3d ed ab 11 3e 46 f3 d3 3d
       0.032769166 0.08671236 0.1422574 0.10349135
000170 8b 56 24 3e 07 75 f3 bd 5b 3f 22 3d 1c d1 cc bd
       0.16048639 -0.118875556 0.0396112 -0.10000822
000180 ac 91 95 3d 6b b2 14 3d 73 43 4e 3d 0f ea ba 3c
       0.07303175 0.036302965 0.050357293 0.022816686
000190 c4 95 84 3e e8 6c 22 3e f0 0b d3 3d 7c c7 d7 3d
       0.25895512 0.15861857 0.10305011 0.105360955
0001a0 b6 98 31 3c 39 89 5c 3d c0 6c 4f be 24 6c d1 3c
       0.010839632 0.053841803 -0.20256329 0.02556426
0001b0 2b 6f 9e bd 8a 6d b5 bd 39 a3 0c be fd 60 6a bb
       -0.07736047 -0.088587835 -0.1373414 -0.0035763376
0001c0 32 40 df bd 44 14 dd bd 28 f6 31 3d c9 6f d8 bd
       -0.10900916 -0.10794881 0.043447644 -0.10568196
0001d0 d0 86 40 bd 95 94 aa 3d b1 32 6b 3c 7a 3d a1 bd
       -0.047003567 0.08329121 0.0143553475 -0.07873054
0001e0 27 19 e7 bc 14 5d e0 bc 2b 2d ae bd 78 71 34 bd
       -0.028210236 -0.027388133 -0.08504709 -0.044053525
0001f0 ab 6a 19 be 0d fa 9c 3d 4d 49 01 bd f3 fb ee 3d
       -0.14982097 0.07664881 -0.031564046 0.11669149
000200 b5 cd fa bd 3d e1 b8 3d ec 9e 06 3d f4 45 e2 bd
       -0.12246267 0.09027336 0.032866403 -0.11048499
000210 ac 28 0c 3e 40 82 ea 3d 49 82 fe bd 54 e5 fe bd
       0.1368739 0.114506245 -0.12427194 -0.124460846
000220 70 32 df 3d da 80 3d 3c ef f4 3e 3d 8c a4 82 3d
       0.10898292 0.011566365 0.046620306 0.06379041
000230 22 9b 78 3d 3e dc 91 3c 20 b3 07 3e a9 40 0e 3d
       0.06069482 0.017805215 0.13251925 0.034729633
000240 4f 85 a9 3d 2d 9b 5c bc 00 b9 71 bd 22 5e 15 bc
       0.0827738 -0.013464731 -0.05901432 -0.009116681
000250 8e 5a 85 3e d9 04 81 3d 3a 79 bb 3d 47 f8 8d bc
       0.2604565 0.06299753 0.091539815 -0.017330302
000260 c0 62 b9 bd d3 0f a0 bd d3 80 a5 bd 02 de 54 bd
       -0.09052038 -0.07815518 -0.08081212 -0.051969536
000270 e4 0d 22 3d 21 53 9e 3d ac e4 c4 bb c9 35 60 3d
       0.03956403 0.07730699 -0.006008705 0.054738794
000280 fc 5a 99 3c 08 eb 85 bd f5 b7 1b bd 4d a9 8c bd
       0.018720143 -0.06538969 -0.038017232 -0.06868229
000290 bf f9 d1 bd 49 53 86 3d 43 6f 72 3d dc cb 2e 3d
       -0.102527134 0.06558854 0.05918814 0.042674884
0002a0 f0 de 12 be 59 66 5e 3d 1c 39 27 be 5c e0 06 3d
       -0.14342856 0.054296825 -0.16330379 0.03292881
0002b0 87 70 c1 bd e9 8b ea bd cc fb 9e 3d 95 77 93 3c
       -0.09445291 -0.11452467 0.0776287 0.018001357
0002c0 23 c7 05 bd dd b7 a4 3d 70 cf 04 bd 3e 97 f0 3d
       -0.032660615 0.08042882 -0.03242439 0.11747597
0002d0 92 83 60 3d 34 f6 23 bc 3e 88 45 bd 9a 7b 1f 3e
       0.054812975 -0.01000743 -0.048225634 0.15574494
0002e0 e1 b8 54 3d 6a 8f b8 3d 5e a1 01 3e a3 52 01 3e
       0.051934127 0.09011729 0.12659213 0.1262918
0002f0 6a f8 61 3e 09 dd 3b 3e 32 45 fd 3d ef 50 ae 3c
       0.22067419 0.18346037 0.123667136 0.021278827
000300 5b 9d 4b bd 2c d1 04 3c 46 f4 8f 3d 1a b0 48 3e
       -0.049710613 0.008106511 0.07029013 0.19598427
000310 7a 5f 28 3e fe 56 d2 3c 01 cb d0 3d 97 10 1e 3d
       0.16442671 0.025676247 0.1019497 0.03859004
000320 d5 74 c0 bd 48 60 37 3b e7 b4 23 bd 97 f3 e8 bd
       -0.09397284 0.0027980972 -0.039967444 -0.11374586
000330 1b cc 57 3d 6c 05 d8 bd d9 c7 9f bc b6 44 f0 bc
       0.052684885 -0.10547909 -0.019504474 -0.029329639
000340 02 e5 da bd 16 29 27 bc ac 77 d7 bd be 6a e1 3d
       -0.10688211 -0.010202667 -0.105208725 0.110066876
000350 3d 3a 38 3c 3c ac e3 3a b3 07 6d bc 62 4c 96 bc
       0.011244354 0.0017370055 -0.014467168 -0.018346969
000360 57 24 03 be a6 01 64 3d d3 18 d6 bd a0 f0 8f bc
       -0.12806831 0.055665635 -0.104539536 -0.017570794
000370 8d 12 e5 bd c7 3e 4f bd ea c5 ca 3d a1 92 13 3e
       -0.11185179 -0.05059698 0.0990103 0.14411403
000380 9a d2 ff 3d f6 cf 1d 3d c4 55 2c bd 68 c5 cc 3a
       0.12491341 0.038528405 -0.04207398 0.0015622796
000390 54 27 b2 3d 89 d0 cb bd 28 0d 86 bd f9 eb cf bd
       0.086989075 -0.09951884 -0.06545478 -0.1015243
0003a0 f3 5c 62 bd 7a 84 bb 3d 66 0b 96 3d bd 89 28 3e
       -0.055264425 0.09156127 0.07326393 0.16458793
0003b0 aa 66 13 3e 52 62 07 bc 4b ee 36 bd 4f 1e 8f 3a
       0.14394632 -0.0082631875 -0.044660848 0.0010919067
0003c0 03 91 03 bd 5b cc 25 3e 29 3c 0f 3e b8 3e 71 3e
       -0.032120716 0.16191237 0.13987793 0.23559082
0003d0 91 36 17 3e fa a6 4e bd a7 f8 78 3d 4c 52 c3 bb
       0.14766909 -0.05045221 0.06078401 -0.0059607383
0003e0 62 eb 24 3d 19 bd 8b 3d b4 11 81 3b bb 3b 5f bd
       0.04026354 0.06823177 0.003938878 -0.054500323
0003f0 67 29 09 be eb 92 ff bc e2 31 fa bd 05 92 95 3d
       -0.133947 -0.031197986 -0.12216546 0.07303242

encoder_lat3.1.weight f4 [8]
000000 6d bd 6b 3f 1b 3f 76 3f 83 c5 79 3f fb 7c 7f 3f
       0.92085916 0.9619004 0.97567004 0.9980008
000010 01 bb 83 3f 54 a3 82 3f a2 2c 77 3f 56 9f 72 3f
       1.0291444 1.0206094 0.9655248 0.9477438

encoder_lat3.1.bias f4 [8]
000000 ba 37 08 3d 63 47 f6 3d a7 c0 e0 3d 6f 9a d5 3d
       0.03325627 0.12025335 0.109742455 0.104298465
000010 e6 0f b4 3d 47 fd f5 3d 58 1e b1 3c ff 88 fc bc
       0.08792095 0.120111994 0.021620914 -0.030827044

encoder_lat3.1.running_mean f4 [8]
000000 82 12 d9 bd b0 45 91 bd 88 d4 42 be 89 7b c8 bd
       -0.10599233 -0.0709337 -0.19026387 -0.097891875
000010 80 a2 e9 bd 50 fe cc bd bb 41 0d bd 6d 3e 3c 3e
       -0.114079475 -0.10009444 -0.034486514 0.18383189

encoder_lat3.1.running_var f4 [8]
000000 52 ca e9 3e 84 ec c4 3f a6 45 e6 3f 9e e3 0d 40
       0.4566217 1.5384679 1.7990005 2.2170177
000010 75 0b 9c 3f f7 71 07 40 ec 9c 78 3e e0 e9 ba 3f
       1.2190996 2.1163309 0.24278611 1.4602623

encoder5.0.weight f4 [8, 8, 16]
000000 57 6e 06 bd e6 a8 bc bb 3e 04 13 bc 39 e0 82 bc
       -0.032820072 -0.005757439 -0.008973179 -0.015976058
000010 a6 9a 9b 3d 18 fa 71 3d eb 9f 2e bd c8 a3 1d bc
       0.07597856 0.0590764 -0.04263298 -0.009621568
000020 09 c5 c1 3c 2e 9e 3e bd 5a c1 2c 3c e5 72 70 3d
       0.023653524 -0.04653757 0.0105441455 0.058703322
000030 7b ce e7 bc 81 b2 43 bd 6d d0 df 3c 23 65 7e bd
       -0.0282967 -0.047777656 0.027321065 -0.06210817
000040 ec fd 1d 3d ef a9 35 bd 12 cc 23 bd c9 84 8d 3d
       0.038572237 -0.044351514 -0.03998954 0.069100924
000050 35 89 ba bb 5a 7b 97 3d 5d e9 45 3c f4 89 07 3d
       -0.005692626 0.07396574 0.012079564 0.033090547
000060 3f 1c fb bc b3 50 30 3c b1 70 ec 3c de ee cc bb
       -0.030653117 0.010761428 0.02886233 -0.006254061
000070 88 1b 1a 3d d5 31 3d bc 27 c2 cf bd dd 20 72 3d
       0.037623912 -0.011547525 -0.101444535 0.059113372
000080 cd de 7b 3b e9 d0 d0 bc 64 2d 1f bd 4c 43 ac 3c
       0.003843236 -0.025490241 -0.038861647 0.021028183
000090 a0 5c 49 bd f0 fa b5 bd 88 cb 61 b9 d9 e6 86 3c
       -0.0491606 -0.08885753 -0.00021533493 0.016467499
0000a0 be e0 07 3d 69 54 49 3d 27 de a2 3d c0 c7 09 3d
       0.033173315 0.049152765 0.079525284 0.033637762
0000b0 23 c8 09 bb 5f 1e 20 3d 8e 8f a4 3d 79 b8 ed 3a
       -0.0021023832 0.039091464 0.080351934 0.0018136642
0000c0 68 34 0b 3d e8 f1 91 bc 75 0e a2 3c 13 c4 39 3c
       0.033985525 -0.017815545 0.019782284 0.011338252
0000d0 16 22 0a bc 6c 86 38 3d 11 d0 0c bd ed ea 6e 3d
       -0.008430978 0.04505007 -0.034378115 0.05832951
0000e0 8b 6f 6c bd 6b bb 24 3d 56 d8 71 ba 32 3c 0b 3d
       -0.057723563 0.0402178 -0.0009225657 0.033992954
0000f0 52 98 9b ba 92 72 25 bd 26 87 20 bd c1 56 69 bc
       -0.0011870957 -0.040392466 -0.039191388 -0.014241875
000100 b1 c0 12 bd 53 be e6 bd 51 ee 21 be a2 81 5b bd
       -0.035828296 -0.1126677 -0.15813567 -0.053590424
000110 1e d2 1b be 09 4f 87 bd 34 8a 6d 3c 1e 85 2b 3d
       -0.15216872 -0.06606872 0.014498282 0.041874997
000120 ce 4f 28 3d a5 9e 95 bc 62 9c c8 3c ee 1d 4c 3d
       0.041091733 -0.018264124 0.024488632 0.04983323
000130 3d 09 25 3d 95 9a da bc 70 45 0b bd 87 30 8c bc
       0.040292013 -0.026685039 -0.034001768 -0.017112983
000140 26 fb 2b bd f0 d1 0a 3b 1d 92 db 3c 98 3a c2 bd
       -0.04198756 0.0021182261 0.02680307 -0.09483832
000150 8b 09 1c bd dd 46 99 3c d2 fa d3 3b 50 a7 96 3d
       -0.03809504 0.018710548 0.006469109 0.07356131
000160 58 64 ca 3c ea eb ec bc 19 e9 84 bb 2a d7 1d 3d
       0.02470605 -0.028921086 -0.0040561077 0.038535275
000170 a2 d0 be bd 78 d4 d6 b7 4d d5 3c bd 9d d0 54 3d
       -0.09317137 -2.5609726e-05 -0.046101857 0.05195676
000180 49 9a 95 3d f4 ca 35 bb bf c9 8e bc 3f bc ad 3b
       0.07304818 -0.0027739378 -0.017430184 0.0053019817
000190 fc 4e 25 3c ac fc 63 bc 87 9d d5 3d 23 e5 66 3d
       0.010089632 -0.013915222 0.104304366 0.056370866
0001a0 d0 22 1a bd 8c 69 93 bc fe 98 ac 3c 9a ed d7 3c
       -0.037630856 -0.017994665 0.021069046 0.026358414
0001b0 12 70 8b 3c 89 06 75 bd 89 09 88 bd 8a 04 b5 bb
       0.017021213 -0.059820686 -0.06642444 -0.0055242227
0001c0 d2 73 5e 3d 0a 6b 39 3d 79 8a 39 3c 4a e7 93 3d
       0.054309674 0.045268096 0.011324518 0.07221849
0001d0 17 35 83 3d b9 c1 24 3d 71 98 1f 3d 2b d1 84 3d
       0.064066105 0.04022381 0.03896374 0.06485208
0001e0 3e bf f4 bc b5 49 1f bd d9 e5 56 bb 4d 7f 22 bd
       -0.029876348 -0.038888652 -0.0032790808 -0.039672185
0001f0 51 7b c7 bc d6 6c 43 3d 7a 2f 9f bc 52 bb 83 bd
       -0.024350794 0.047711216 -0.019431818 -0.06432213
000200 23 6e 45 3d 2a 53 94 bd e9 b5 a5 bc b4 08 35 bd
       0.048200738 -0.07242425 -0.020228343 -0.044197753
000210 87 5d cf bc 0b 68 38 bd c6 50 f8 bb 36 18 ab 3c
       -0.025313152 -0.045021098 -0.0075779883 0.020885568
000220 ae 13 24 bd d6 f0 8d 3d bd ad ae 3d 68 87 46 3d
       -0.04005783 0.069307014 0.08529232 0.048468977
000230 c7 a9 90 bd 7b 3a 06 bd 5a f6 80 bd 5e 71 0c bd
       -0.070636325 -0.032770615 -0.06296988 -0.034287803
000240 f6 b9 ea 3c 4a e1 29 bd bb bb cd bd ca c7 7c bd
       0.028653126 -0.041474618 -0.10045572 -0.06171397
000250 fa 8a 58 bd b7 f6 3f bd a5 c5 53 bd 4a 01 f5 bd
       -0.052866913 -0.046866145 -0.05170216 -0.119631365
000260 b5 e1 d4 bc 34 fe 8d bc eb 9b 24 bd 09 4b 48 3d
       -0.025986532 -0.017333128 -0.040187757 0.048899684
000270 f1 2a 16 3d ce a1 43 3d b5 30 86 3d e8 0f 6c 3d
       0.036662046 0.04776173 0.06552259 0.057632357
000280 6d d7 a7 3c 81 12 4e bd de 9a f3 3c 28 2c af 3d
       0.020488465 -0.050310615 0.029736932 0.08553344
000290 9f f3 94 3d 99 20 a8 bd 45 b5 33 bd 32 af 14 bd
       0.072730295 -0.082093425 -0.043874044 -0.03629989
0002a0 ba f9 a1 3c cc c9 85 3c d0 6e b9 3b 80 87 8c bb
       0.0197724 0.016331576 0.005658962 -0.004288614
0002b0 34 79 6c 3d 02 81 a0 bb 9b 8d d5 3c 82 5c fb bc
       0.057732776 -0.0048981914 0.0260685 -0.03068376
0002c0 c4 58 07 3d ae 9e 84 bc 21 39 9f bc 5b bf ba bd
       0.033043638 -0.016188946 -0.01943642 -0.091185294
0002d0 7b 1f 0f bd f4 c3 11 bd 5d bc 54 bd ee 5c 2b 3d
       -0.03494213 -0.035587266 -0.05193745 0.04183667
0002e0 e3 09 78 bc 78 59 2b bd ae 0f c1 3d 5e b7 46 bd
       -0.015139076 -0.04183337 0.09426819 -0.048514716
0002f0 bf 1b 92 3d 72 f7 80 3d e9 7b 1e 3d da ce 71 3d
       0.071341984 0.062971964 0.03869239 0.05903516
000300 58 44 78 3d 10 11 0c 3e 7a 9e 98 3d f3 8d a3 3d
       0.060612053 0.13678384 0.07452102 0.07986059
000310 cf 19 09 bd 6f 71 87 3c 5a a0 e1 3c c1 b5 e9 bb
       -0.03347188 0.016533582 0.027542282 -0.0071322625
000320 f2 eb 5a 3d 7c 52 c6 38 53 de 6c 3d 72 dc dc 3b
       0.05344767 9.45674e-05 0.057829212 0.0067401463
000330 70 93 d0 bb 7b 52 7b 3d f4 92 95 3a 8f a4 05 3d
       -0.006365232 0.061357956 0.0011411593 0.03262764
000340 a9 42 70 3d 2a 4c 14 3d bc 0a 26 bb 2e 61 2a 3c
       0.058657322 0.03620545 -0.0025335988 0.010399146
000350 74 11 16 3c 3d 6a 78 3d 8e ea 61 3c c4 b5 9f 3c
       0.009159435 0.06064819 0.013788832 0.019495852
000360 bf aa 43 bd 17 9d 04 3c 52 53 9e 3d 80 16 14 3d
       -0.047770258 0.008094094 0.07730736 0.03615427
000370 72 da 87 3d fc 2d 37 bc ef 45 c0 3d d0 44 38 3e
       0.06633462 -0.011180397 0.09388339 0.17995
000380 e0 b4 9d bd c1 93 92 bc a9 9d 5a bd d9 ad 94 bc
       -0.07700515 -0.01789272 -0.053373013 -0.018149303
000390 d9 79 9d bb 25 85 8c bd aa 57 09 be 8a 9e b5 bd
       -0.004805785 -0.06861333 -0.13412347 -0.088681296
0003a0 e0 c5 86 bd 98 4d 15 bd 19 76 ad bc b6 58 c2 3c
       -0.065807104 -0.036450952 -0.021174477 0.023723941
0003b0 0c 18 b9 3c 64 5a 2a 3d 54 f7 a5 3c 62 d6 37 3d
       0.022594474 0.04159011 0.020259537 0.044882186
0003c0 df cc 45 bc 8d dd 8f bd db 79 95 bd 87 5a c4 bd
       -0.012072771 -0.07024679 -0.07298633 -0.09587579
0003d0 a7 0e 19 be 0c 57 68 3c 34 00 3f 3d 71 62 e6 bd
       -0.14946996 0.01418091 0.046631053 -0.11249245
0003e0 77 de 8c bd e3 b7 1b 3d 88 52 2a 38 47 d9 28 3d
       -0.06878369 0.038017165 4.060802e-05 0.041222837
0003f0 66 d4 32 bd 3d 3f d3 3a 8a c0 f5 3a 71 9f 4a bd
       -0.04365959 0.0016116869 0.0018749398 -0.04946846

encoder5.1.weight f4 [8]
000000 22 24 63 3f 78 ea 55 3f d8 c8 6c 3f 7f 04 37 3f
       0.8872701 0.83560896 0.92493963 0.71491235
000010 fe d6 77 3f 1d d1 29 3f ec 74 6e 3f d6 d8 4c 3f
       0.9681243 0.66334707 0.9314716 0.80018365

encoder5.1.bias f4 [8]
000000 ca 2a 58 bd 1c ba 0e 3d 9d 90 05 bd bd b4 86 bc
       -0.05277518 0.034845456 -0.032608617 -0.016443605
000010 8a 50 04 bd 3e f7 96 3d 1e 81 16 3d 41 69 ff bd
       -0.03230337 0.073713765 0.03674423 -0.124712475

encoder5.1.running_mean f4 [8]
000000 73 66 a7 3c db a5 cf be b3 ac e4 3e 7c d6 36 3e
       0.020434594 -0.40556225 0.4466301 0.17855257
000010 08 9b e8 be 6f 3a d2 be 8d a7 3e bf 6b ef 16 3f
       -0.4543078 -0.41060206 -0.7447441 0.5895907

encoder5.1.running_var f4 [8]
000000 46 73 0e 3f c6 bd 38 3f 74 54 9c 3f 51 e4 3a 3e
       0.55644643 0.7216457 1.2213273 0.18251158
000010 32 52 6f 3e 2b 1f 4c 3f 73 37 7a 3f 6f 81 74 3f
       0.23371199 0.7973506 0.9774086 0.9551
