Models/IAE/cnn_test.pth (torch, 54245 bytes, 55 tensors)

encoder1.0.weight f4 [4, 1, 4]
0.29363224 0.3669235 0.1810685 0.09439373 0.17597814 -0.3122268 -0.4993605 -0.09818031
-0.26247302 -0.29811352 -0.31377697 -0.10660672 0.1741096 -0.3681018 -0.45654175 0.021480447
00000000: f756 963e 66dd bb3e 056a 393e 8051 c13d
00000010: 9d33 343e 31dc 9fbe 2eac ffbe c212 c9bd
00000020: dd62 86be 56a2 98be 60a7 a0be a054 dabd
00000030: c949 323e d777 bcbe d7bf e9be c3f7 af3c

encoder1.1.weight f4 [4]
1.0408057 0.9531206 0.93319356 0.9297752
00000000: 1f39 853f b6ff 733f c6e5 6e3f bf05 6e3f

encoder1.1.bias f4 [4]
0.24336937 -0.03424156 0.20645523 -0.2668521
00000000: d235 793e e140 0cbd 0069 533e d7a0 88be

encoder1.1.running_mean f4 [4]
0.1403013 -0.10967022 -0.14675175 -0.09403009
00000000: 25ab 0f3e c89a e0bd 1746 16be d992 c0bd

encoder1.1.running_var f4 [4]
0.018065004 0.011121655 0.01977948 0.008168453
00000000: 0ffd 933c 9a37 363c 9308 a23c fad4 053c

encoder2.0.weight f4 [6, 4, 4]
0.04177033 0.018329952 -0.09467973 -0.30939153 0.19609715 -0.108792976 -0.020837165 -0.2672978
-0.054424275 0.069395564 -0.049156427 -0.11980991 -0.047914214 0.08273047 0.20584793 -0.16151029
0.21848132 0.0760444 -0.08690433 0.027836021 0.18081857 0.22218838 0.2585165 -0.13999343
0.089571975 -0.052609865 -0.050912034 -0.11166638 0.17134658 0.118224785 0.26620826 0.022457302
-0.11203355 0.048848815 0.046307687 -0.13761376 0.01363872 -0.12727468 0.1262662 -0.15248244
0.007556929 -0.037703406 0.010744259 -0.04678735 0.021249922 0.11464033 0.2949135 0.13216627
0.12363102 0.01822627 0.17330417 0.0019249616 0.17599648 -0.08022777 0.07241636 -0.13117401
0.1879653 0.094884045 -0.19854555 -0.22962053 -0.15352097 -0.0992275 -0.1891981 0.10365602
0.06153085 0.089358844 0.14337458 -0.21777925 0.055575915 -0.12120089 0.03350983 -0.25132975
-0.08289582 -0.036110215 0.12954648 -0.21460207 -0.09433483 -0.24693762 0.028025031 -0.04578561
0.1045414 0.15489046 0.1846465 0.15234897 0.07635789 -0.14777337 0.17147751 -0.19143099
0.14790498 0.19144757 0.13688013 -0.11494136 -0.22323099 -0.15469943 0.21585852 0.057177573
00000000: 5e17 2b3d b228 963c 72e7 c1bd 9168 9ebe
00000010: b1cd 483e dace debd b4b2 aabc 42db 88be
00000020: fdeb 5ebd 431f 8e3d 4058 49bd e65e f5bd
00000030: b241 44bd 986e a93d cdc9 523e f462 25be
00000040: 91b9 5f3e 2bbd 9b3d e6fa b1bd 5e08 e43c
00000050: 8128 393e 5a85 633e 465c 843e 705a 0fbe
00000060: 8371 b73d 717d 57bd 2389 50bd 58b1 e4bd
00000070: 7a75 2f3e d61f f23d 734c 883e 60f8 b73c
00000080: d971 e5bd b215 483d 21ad 3d3d 9fea 0cbe
00000090: f074 5f3c 4b54 02be ed4b 013e 5b24 1cbe
000000a0: 1da0 f73b e36e 1abd b008 303c 18a4 3fbd
000000b0: 5114 ae3c 8dc8 ea3d e7fe 963e 9856 073e
000000c0: 4332 fd3d 424f 953c a676 313e fe4e fc3a
000000d0: 6c38 343e 754e a4bd 074f 943d 7b52 06be
000000e0: fa79 403e 9152 c23d 864f 4bbe a521 6bbe
000000f0: 9a34 1dbe ca37 cbbd 26bd 41be 9b49 d43d
00000100: c607 7c3d c501 b73d c9d0 123e 8601 5fbe
00000110: 92a3 633d 2c38 f8bd 9a41 093d 4bae 80be
00000120: 49c5 a9bd 4ee8 13bd d5a7 043e a5c0 5bbe
00000130: 9f32 c1bd 37dd 7cbe c094 e53c b189 3bbd
00000140: cd19 d63d 9b9b 1e3e f913 3d3e 5e01 1c3e
00000150: 8761 9c3d e751 17be cd97 2f3e 7c06 44be
00000160: 6774 173e d50a 443e 4e2a 0c3e 6066 ebbd
00000170: aa96 64be 8769 1ebe 040a 5d3e 0833 6a3d

encoder2.1.weight f4 [6]
0.80074435 1.0537697 0.99573153 0.9657668 0.97710854 1.0779054
00000000: 95fd 4c3f ede1 863f 43e8 7e3f 7e3c 773f
00000010: c923 7a3f cef8 893f

encoder2.1.bias f4 [6]
0.04846258 -0.107229285 -0.1072807 -0.2515678 0.14887469 -0.113892116
00000000: b380 463d 079b dbbd fcb5 dbbd 7fcd 80be
00000010: 9b72 183e 4540 e9bd

encoder2.1.running_mean f4 [6]
-0.19961198 0.094243154 -0.11233359 0.07557916 -0.07010849 0.3111564
00000000: 1567 4cbe 8e02 c13d 270f e6bd 3fc9 9a3d
00000010: 0a95 8fbd e44f 9f3e

encoder2.1.running_var f4 [6]
0.022095447 0.15908562 0.108625576 0.3335972 0.38742796 0.1888198
00000000: 8301 b53c 57e7 223e 1677 de3d 41cd aa3e
00000010: f55c c63e fa59 413e

encoder_lat1.0.weight f4 [6, 4, 4]
0.28846258 0.002580009 0.0054900963 0.104182914 0.10743263 -0.09579797 -0.16162229 -0.24946581
-0.06334691 0.047526743 0.17546897 -0.0770741 0.080342665 -0.022343662 0.15965116 0.026692007
0.07095779 0.02908684 -0.101367295 0.047347803 0.12567808 -0.18253535 0.20672026 0.14522871
0.23060586 -0.09190672 0.12574917 -0.15529148 -0.3489234 -0.27246523 -0.062271357 -0.023216277
-0.18311179 -0.036655027 0.019017145 -0.40272844 0.056707233 0.2162756 0.057172555 0.11972682
0.063828096 -0.17293121 0.15213996 0.04712335 -0.17005213 -0.1691642 0.1713859 -0.19566156
-0.02293501 -0.07500971 0.14961624 0.0097608995 0.20067105 0.14616904 -0.03130234 0.22864306
-0.10067988 -0.008647496 0.19036324 0.04748887 -0.10860159 -0.56941515 -0.42686415 -0.079920165
0.03558387 0.001266842 -0.08519169 0.12133873 0.117325 -0.013455678 -0.05573694 0.09360481
-0.07812944 0.28176388 -0.14089184 0.28246358 -0.19906417 -0.17488398 -0.08805363 -0.3254357
-0.043754175 0.041139454 0.019983204 0.06316683 0.18694764 -0.004142505 0.09226659 0.012468311
0.04382798 0.18045929 -0.0065343385 0.068239205 -0.38290146 -0.36203498 -0.08709399 -0.0608064
00000000: 5eb1 933e 5e15 293b 44e6 b33b da5d d53d
00000010: a405 dc3d ba31 c4bd 5080 25be f773 7fbe
00000020: 06bc 81bd 67ab 423d 23ae 333e 07d9 9dbd
00000030: b28a a43d 0e0a b7bc 987b 233e 32a9 da3c
00000040: 5152 913d 8647 ee3c a899 cfbd c5ef 413d
00000050: c1b1 003e 8cea 3abe 7aae 533e d6b6 143e
00000060: f123 6c3e 9739 bcbd 64c4 003e bb04 1fbe
00000070: 16a6 b2be 9080 8bbe 4010 7fbd 1030 bebc
00000080: a881 3bbe 9523 16bd d8c9 9b3c 6c32 cebe
00000090: d845 683d 5a77 5d3e c52d 6a3d 5633 f53d
000000a0: 4eb8 823d e114 31be 94ca 1b3e 6a04 413d
000000b0: 2522 2ebe 6139 2dbe c97f 2f3e 815b 48be
000000c0: 34e2 bbbc b19e 99bd 0035 193e 2eec 1f3c
000000d0: b67c 4d3e 56ad 153e e236 00bd 6821 6a3e
000000e0: 4131 cebd 3aae 0dbc 95ee 423e b083 423d
000000f0: 836a debd 31c5 11bf f08d dabe 2fad a3bd
00000100: 64c0 113d 2a0c a63a fb78 aebd 7180 f83d
00000110: 1748 f03d 3475 5cbc 6b4c 64bd e1b3 bf3d
00000120: 5402 a0bd 5b43 903e f345 10be 119f 903e
00000130: 7ad7 4bbe c914 33be 7655 b4bd 829f a6be
00000140: 9437 33bd d881 283d d1b3 a33c 9c5d 813d
00000150: 346f 3f3e dabd 87bb 44f6 bc3d e347 4c3c
00000160: f884 333d 52ca 383e 011e d6bb ffc0 8b3d
00000170: a90b c4be a65c b9be 555e b2bd 2210 79bd

encoder_lat1.1.weight f4 [6]
0.2258143 1.0018017 0.5524298 0.850373 0.94646716 0.31927097
00000000: dd3b 673e 0a3b 803f 0a6c 0d3f 0cb2 593f
00000010: ac4b 723f 7c77 a33e

encoder_lat1.1.bias f4 [6]
-0.3582492 0.24825351 -0.34505215 0.1918344 0.18728904 -0.027737446
00000000: 706c b7be 2b36 7e3e adaa b0be 3d70 443e
00000010: b3c8 3f3e a439 e3bc

encoder_lat1.1.running_mean f4 [6]
0.096734956 0.116052635 -0.09804069 0.1794116 0.18317832 0.19125862
00000000: fa1c c63d 01ad ed3d 8fc9 c8bd adb7 373e
00000010: 1993 3b3e 4dd9 433e

encoder_lat1.1.running_var f4 [6]
0.19786802 0.0347749 0.52960575 0.090594955 0.03633128 0.04121283
00000000: ea9d 4a3e 2070 0e3d 3e94 073f d989 b93d
00000010: 1cd0 143d c9ce 283d

encoder3.0.weight f4 [6, 6, 8]
0.10334329 0.0723735 0.015664916 0.032971945 -0.08285221 0.08758107 0.07877972 0.05157585
0.0025354258 0.16296044 0.08279343 -0.07348221 -0.025934564 -0.0155278975 0.021265812 -0.05044133
0.090593636 -0.0075325076 0.016167775 -0.16504408 -0.14665127 -0.12117607 0.076460294 -0.16172653
-0.06326577 -0.14911683 -0.009392115 0.07194655 -0.02827 0.067434564 -0.00765929 0.13258451
-0.06511782 -0.1831299 -0.06777143 0.028852556 0.15759312 0.16353165 0.12346836 0.14018324
-0.045747634 -0.060814295 -0.09712298 -0.030902313 0.032426324 0.060267318 0.099745676 0.0815436
-0.15023647 -0.090173766 -0.07321879 -0.076045826 -0.14874955 -0.0811283 -0.04098623 -0.036584716
0.022371808 0.01779689 -0.08977468 0.1041399 0.04726212 -0.054909952 -0.08689668 0.088487975
-0.057331342 0.014359599 0.119048394 -0.1517676 -0.16090003 -0.09635108 0.037995003 0.09163324
0.05841234 -0.093765646 -0.022128329 0.095959336 -0.044052698 0.06282173 -0.0832484 -0.14819759
-0.08241071 -0.018935207 -0.13140206 -0.10306887 0.0669619 0.11580033 -0.034963556 0.108245224
0.029661188 0.02961979 0.124040075 0.2954466 0.42962965 0.11431506 0.18258852 0.11761957
-0.119130954 -0.10743596 -0.0682977 -0.10864779 -0.0014709497 -0.11708194 -0.0018455366 0.10685266
-0.05493697 -0.12417208 0.022833798 0.10794352 0.10307913 0.18221644 0.17437035 0.016670816
-0.12502062 0.13084842 0.043494616 -0.08066786 -0.08793534 -0.06801738 0.11297922 0.20222068
-0.15512592 -0.17388734 -0.0031744302 0.020857124 0.039252844 -0.086780585 -0.13019285 -0.18150951
0.058274336 -0.012861755 0.021480475 0.09585654 0.04864538 0.059575308 0.07430181 0.10547435
-0.11353619 0.0015335784 0.0069351564 -0.12910505 0.079940364 -0.08577124 0.05042482 -0.045116678
-0.054668278 -0.117951795 -0.10309663 0.100035146 0.10772676 -0.079873115 -0.16015089 -0.17106554
0.04343376 -0.07745466 0.16629753 0.18143976 0.008009721 0.2339379 0.12876797 0.2842109
0.029302005 -0.060717 -0.020861588 -0.14844994 -0.03968646 -0.06994741 0.11728343 0.09458475
-0.007163563 -0.07492991 -0.06911826 0.027763888 -0.079381704 0.12722814 -0.093244836 0.13776758
0.05551691 0.12148386 0.04712022 -0.0887519 0.10586519 -0.021895545 0.13451563 -0.09836652
-0.0010469903 0.16026068 -0.051523425 -0.09266859 0.034142997 -0.09510017 0.14130495 0.038200412
-0.009746718 -0.08686884 -0.04552276 -0.062349856 -0.04660289 0.09476023 0.06694675 0.17473112
-0.092629604 0.09309286 0.022885077 0.046470273 0.023560183 0.06664775 0.024884282 -0.07052486
0.0016732923 -0.120517686 -0.039774336 0.061893374 -0.124146596 -0.07805243 -0.004546886 -0.030981837
0.11173404 0.11292496 0.078974344 0.032915093 -0.03175239 -0.101925105 -0.21928012 0.009234011
-0.07184279 -0.012742237 -0.038119666 -0.16400354 -0.18188205 -0.10987098 0.047631815 -0.06592438
0.16508974 0.18453772 0.15186551 0.09251208 0.10704384 -0.069473654 -0.16217148 -0.2078747
0.09313951 0.06427582 0.1427877 -0.09368982 0.09482476 0.102300115 0.03991555 0.10526085
0.19051205 0.013463314 0.12117009 -0.1422694 0.11354177 0.05946471 -0.049940687 -0.03342522
00000000: a6a5 d33d 8f38 943d b653 803c 970d 073d
00000010: 6bae a9bd b45d b33d 4357 a13d 3341 533d
00000020: 6329 263b 1adf 263e 9a8f a93d d77d 96bd
00000030: b974 d4bc b968 7ebc a435 ae3c 919b 4ebd
00000040: 2889 b93d 41d3 f6bb 4872 843c 5101 29be
00000050: c02b 16be 292b f8bd 3797 9c3d a49b 25be
00000060: 7c91 81bd 15b2 18be 63e1 19bc b658 933d
00000070: 7d96 e7bc 221b 8a3d c8fa fabb 3cc4 073e
00000080: 7e5c 85bd 6886 3bbe bfcb 8abd 325c ec3c
00000090: 1760 213e d774 273e fbdc fc3d 328c 0f3e
000000a0: df61 3bbd 6918 79bd 6ae8 c6bd d926 fdbc
000000b0: 77d1 043d ddda 763d 7647 cc3d 5500 a73d
000000c0: 97d7 19be 06ad b8bd bcf3 95bd eabd 9bbd
000000d0: cd51 18be 9826 a6bd 2de1 27bd dbd9 15bd
000000e0: 1545 b73c c9ca 913c cadb b7bd 4d47 d53d
000000f0: ed95 413d 42e9 60bd e3f6 b1bd 2f39 b53d
00000100: 45d4 6abd 8644 6b3c a5cf f33d f768 1bbe
00000110: fac2 24be b753 c5bd a6a0 1b3d 35aa bb3d
00000120: c741 6f3d 3408 c0bd 7846 b5bc 5486 c43d
00000130: 9a70 34bd aea8 803d 237e aabd 1cc1 17be
00000140: f2c6 a8bd 021e 9bbc 438e 06be c615 d3bd
00000150: 5223 893d b928 ed3d f235 0fbd acaf dd3d
00000160: 05fc f23c 34a5 f23c b908 fe3d c744 973e
00000170: 6bf8 db3e 041e ea3d 7cf8 3a3e 87e2 f03d
00000180: eefa f3bd 6207 dcbd aadf 8bbd bc82 debd
00000190: e2cc c0ba a8c8 efbd efe5 f1ba 91d5 da3d
000001a0: 9705 61bd ee4d febd f20d bb3c 7e11 dd3d
000001b0: 271b d33d f296 3a3e 248e 323e 3c91 883c
000001c0: 6805 00be 21fd 053e 6927 323d 3135 a5bd
000001d0: 7217 b4bd b24c 8bbd a661 e73d f012 4f3e
000001e0: 54d9 1ebe 860f 32be 1a0a 50bb 8fdc aa3c
000001f0: 97c7 203d 05ba b1bd 4651 05be a1dd 39be
00000200: 12b1 6e3d 1cba 52bc d2f7 af3c 6f50 c43d
00000210: 6140 473d 3d05 743d 8c2b 983d f002 d83d
00000220: a985 e8bd 5a02 c93a 4f40 e33b 1d34 04be
00000230: c6b7 a33d d5a8 afbd 428a 4e3d 44cc 38bd
00000240: d8eb 5fbd b690 f1bd 5324 d3bd 3adf cc3d
00000250: d99f dc3d 8494 a3bd 98fe 23be ce2b 2fbe
00000260: 99e7 313d 8ca0 9ebd e649 2a3e 58cb 393e
00000270: 343b 033c 6b8d 6f3e c0db 033e 1784 913e
00000280: c20a f03c 64b2 78bd ece5 aabc 4303 18be
00000290: 458e 22bd 9640 8fbd 4c32 f03d a6b5 c13d
000002a0: 52bc eabb da74 99bd e08d 8dbd 1871 e33c
000002b0: e092 a2bd 1848 023e 26f7 bebd f212 0d3e
000002c0: b365 633d 88cc f83d 2201 413d 8ec3 b5bd
000002d0: d9cf d83d 495e b3bc 77be 093e 6374 c9bd
000002e0: 2a3b 89ba 601b 243e 3a0a 53bd 08c9 bdbd
000002f0: 87d9 0b3d e1c3 c2bd 3fb2 103e 0978 1c3d
00000300: b3b0 1fbc 4ae8 b1bd 1376 3abd 9062 7fbd
00000310: ace2 3ebd a711 c23d 611b 893d b7ec 323e
00000320: 97b4 bdbd 78a7 be3d 7c79 bb3c 9d57 3e3d
00000330: 4901 c13c 9e7e 883d 1fda cb3c 566f 90bd
00000340: 5f52 db3a fad1 f6bd 6aea 22bd e883 7d3d
00000350: 9240 febd f4d9 9fbd 0bfe 94bb 9fcd fdbc
00000360: d1d4 e43d 3445 e73d 4dbd a13d fad1 063d
00000370: cb0e 02bd 1cbe d0bd f88a 60be 404a 173c
00000380: 5022 93bd d1c4 50bc 5e23 1cbd 8bf0 27be
00000390: 4a3f 3abe 0904 e1bd 9419 433d 5d03 87bd
000003a0: 490d 293e 75f7 3c3e a282 1b3e f976 bd3d
000003b0: cd39 db3d 3448 8ebd 4810 26be 1bdd 54be
000003c0: edbf be3d 0ba3 833d f036 123e 73e0 bfbd
000003d0: 7c33 c23d b982 d13d 7d7e 233d 0093 d73d
000003e0: 9715 433e 3b95 5c3c 0628 f83d 12af 11be
000003f0: 9688 e83d 4591 733d 9b8e 4cbd e2e8 08bd

encoder3.1.weight f4 [6]
0.99252325 0.9804091 0.95082134 1.0705305 1.2493511 1.0247763
00000000: 0116 7e3f 17fc 7a3f 0769 733f 2507 893f
00000010: bdea 9f3f df2b 833f

encoder3.1.bias f4 [6]
-0.012587856 -0.08116785 -0.20291573 -0.21123695 -0.25635612 -0.2985304
00000000: 4b3d 4ebc 543b a6bd 24c9 4fbe 804e 58be
00000010: 1c41 83be fad8 98be

encoder3.1.running_mean f4 [6]
0.10540211 -0.030380704 0.1027792 0.09672062 -0.14889753 -0.008744723
00000000: 10dd d73d f4e0 f8bc e77d d23d 7615 c63d
00000010: 9878 18be 0746 0fbc

encoder3.1.running_var f4 [6]
0.2292423 2.1629791 0.29516238 0.21291678 0.1704645 0.67690533
00000000: 7ebe 6a3e 406e 0a40 861f 973e db06 5a3e
00000010: 3f8e 2e3e ab49 2d3f

encoder_lat2.0.weight f4 [6, 6, 8]
-0.056988385 -0.26858923 -0.10541392 -0.024938047 0.0112332525 -0.0074610477 -0.19615147 0.14292037
-0.041003574 0.06820389 0.06162353 0.108174935 -0.12980309 0.11601012 0.034658365 0.053630147
0.1524945 -0.16684729 0.14780451 0.07038615 -0.0041493163 0.042483803 -0.09046787 -0.082896
-0.034339502 -0.018958697 0.05671847 -0.08163064 0.072475836 0.006215767 -0.011400064 0.16667685
0.12200176 -0.029689593 0.03274567 -0.070873104 0.06802766 -0.028332474 0.0801649 -0.03201155
-0.19532171 -0.1905721 -0.17114276 -0.19383039 0.03318837 -0.20911759 0.01630775 -0.1320963
0.11371099 0.05710961 0.1170434 -0.069832064 0.012846648 0.05992792 0.11043334 -0.040441047
-0.14673406 -0.112368956 -0.025047565 -0.05117938 -0.04548319 -0.046489984 -0.13302776 -0.18695545
-0.05372216 0.029420923 0.03622495 -0.24186072 -0.2105335 -0.141939 -0.084504865 -0.19268571
0.0134653635 0.06327826 0.12432164 0.118778646 0.18894398 -0.0066303457 -0.06572204 0.111191966
0.010066458 0.17567004 -0.010337331 0.068744734 -0.009617178 -0.06261062 0.107116744 -0.06198321
-0.015990866 -0.06603749 0.08635741 0.094407834 0.091312736 0.010112683 -0.081744686 0.022475582
-0.06489294 -0.10630081 -0.0815416 -0.05433712 -0.025654845 -0.09220296 -0.06857666 -0.12549923
-0.008035572 0.15844844 0.035665665 0.022811973 0.0044202534 0.08066039 0.12754425 -0.082070544
-0.0061963326 0.1698603 -0.08574902 0.010611822 -0.040521607 -0.09550233 -0.044519365 -0.07656806
-0.112768374 -0.006213101 -0.03394613 0.022680255 0.10611797 0.038313597 -0.10875979 -0.04896924
-0.016135942 0.09073373 -0.08193069 0.123784676 0.035566136 0.11946469 -0.08840871 -0.10237625
-0.14506778 0.053993724 -0.17559859 -0.049077097 -0.07673148 0.06493395 -0.18087102 -0.15439454
0.0009375175 -0.15298848 -0.17996675 -0.010730304 -0.056171056 -0.054124437 -0.07042941 -0.08644694
0.10525631 0.1392352 0.07638017 0.024081198 -0.13258232 0.014463222 0.1095074 0.0144132
0.02282698 -0.06992916 -0.099152 -0.047531597 -0.037851803 0.03967488 0.0493993 -0.13433672
-0.04924219 0.05138984 0.0012609223 -0.057878807 0.0071354453 -0.15309054 -0.0037976955 -0.026811738
-0.048893847 -0.06294152 0.08224615 0.08332051 0.043698553 -0.094895616 0.038009327 -0.00967038
-0.083272256 -0.016635895 -0.16980134 -0.1047695 -0.091069244 0.026935427 -0.11690042 0.017377079
-0.12759128 0.080080494 0.016080396 0.006333545 -0.08425259 0.060076617 -0.028591214 -0.117106155
-0.07794458 0.094083615 -0.12467119 0.15512261 -0.0045334785 0.094053954 0.10406705 0.02742394
0.116349444 -0.08190431 0.03439397 -0.08000276 -0.012301951 0.13188744 -0.07837354 0.08834962
0.012318399 0.02147093 -0.082566015 0.07693766 -0.06019938 -0.0320793 0.052936725 -0.022863438
0.0018663818 -0.105029695 0.15079972 0.16642323 0.07559069 -0.050215732 0.023093536 0.028219435
-0.03869873 0.06727204 -0.08123946 -0.020160109 -0.23477799 -0.1508419 -0.22462484 -0.18931524
0.18801175 0.16075933 0.086369984 0.14914033 -0.039660558 -0.015352212 0.0091982875 0.07967803
-0.17711613 -0.24434222 -0.24300273 0.017187847 0.01817491 0.07543824 -0.17445222 -0.007931921
00000000: a76c 69bd 8784 89be 41e3 d7bd e04a ccbc
00000010: ad0b 383c ce7b f4bb eedb 48be b859 123e
00000020: 5df3 27bd 7bae 8b3d f468 7c3d d28a dd3d
00000030: 1aeb 04be b796 ed3d eef5 0d3d 49ab 5b3d
00000040: 8527 1c3e 04da 2abe 115a 173e 9d26 903d
00000050: fdf6 87bb 7f03 2e3d 3847 b9bd 61c5 a9bd
00000060: 94a7 0cbd 454f 9bbc a051 683d f72d a7bd
00000070: 366e 943d a2ad cb3b 56c7 3abc 56ad 2a3e
00000080: 0fdc f93d 9737 f3bc 5320 063d eb25 91bd
00000090: 1652 8b3d 8119 e8bc 7f2d a43d 8b1e 03bd
000000a0: 6a02 48be 5525 43be 0c40 2fbe 797b 46be
000000b0: 87f0 073d ec22 56be d597 853c 4144 07be
000000c0: 4fe1 e83d c4eb 693d 73b4 ef3d 1d04 8fbd
000000d0: bf7a 523c fb76 753d e02a e23d 83a5 25bd
000000e0: 7441 16be b221 e6bd 8d30 cdbc 78a1 51bd
000000f0: 954c 3abd 486c 3ebd 6e38 08be 4071 3fbe
00000100: c50b 5cbd 2604 f13c 9d60 143d 56aa 77be
00000110: 1896 57be 7558 11be e310 adbd 674f 45be
00000120: d49d 5c3c 0898 813d 589c fe3d 3842 f33d
00000130: 887a 413e 5f43 d9bb 4799 86bd 9db8 e33d
00000140: c9ed 243c d9e2 333e e95d 29bc 0aca 8c3d
00000150: 5e91 1dbc ff39 80bd 0660 db3d 1be2 7dbd
00000160: 47ff 82bc aa3e 87bd 27dc b03d e558 c13d
00000170: 2c02 bb3d abaf 253c c269 a7bd b61e b83c
00000180: 97e6 84bd 3db4 d9bd 48ff a6bd 9a90 5ebd
00000190: 1c2a d2bc e8d4 bcbd eb71 8cbd df82 00be
000001a0: a2a7 03bc 4f40 223e 2916 123d 2de0 ba3c
000001b0: c6d7 903b 4631 a53d f69a 023e 9a14 a8bd
000001c0: 9b0a cbbb dcef 2d3e 2f9d afbd 35dd 2d3c
000001d0: fcf9 25bd ba96 c3bd f059 36bd b7cf 9cbd
000001e0: 1bf3 e6bd 4597 cbbb 190b 0bbd f1cb b93c
000001f0: 6154 d93d b8ee 1c3d 74bd debd f893 48bd
00000200: 862f 84bc 9bd2 b93d 47cb a7bd d282 fd3d
00000210: ccad 113d e7a9 f43d a00f b5bd a4aa d1bd
00000220: a68c 14be 8628 5d3d 1ed0 33be 1105 49bd
00000230: 6525 9dbd 17fc 843d 4136 39be 9a19 1ebe
00000240: bcc3 753a 03a9 1cbe 3449 38be 28ce 2fbc
00000250: 9f13 66bd 96b1 5dbd 4b3d 90bd 180b b1bd
00000260: 9f90 d73d ac93 0e3e 356d 9c3d ef45 c53c
00000270: a9c3 07be 26f7 6c3c 6a45 e03d 5825 6c3c
00000280: a6ff ba3c 0537 8fbd 3410 cbbd 7eb0 42bd
00000290: 7e0a 1bbd 2182 223d ec56 4a3d 918f 09be
000002a0: 2eb2 49bd 277e 523d 8845 a53a 5412 6dbd
000002b0: 74d0 e93b c4c3 1cbe c2e2 78bb 4aa4 dbbc
000002c0: ea44 48bd 7ce7 80bd ab70 a83d f2a3 aa3d
000002d0: 41fd 323d a258 c2bd abaf 1b3d 8370 1ebc
000002e0: a58a aabd 0048 88bc 67e0 2dbe 6491 d6bd
000002f0: 8382 babd afa7 dc3c 7d69 efbd 605a 8e3c
00000300: 4aa7 02be 3e01 a43d 09bb 833c a089 cf3b
00000310: 9f8c acbd e612 763d 1f38 eabc 5ad5 efbd
00000320: 68a1 9fbd e9ae c03d 9c53 ffbd 76d8 1e3e
00000330: 938d 94bb 5c9f c03d 1b21 d53d 2ca8 e03c
00000340: 9e48 ee3d 72bd a7bd b1e0 0c3d 7dd8 a3bd
00000350: 1f8e 49bc 800d 073e 4e82 a0bd a5f0 b43d
00000360: 1cd3 493c cee3 af3c 5f18 a9bd 7e91 9d3d
00000370: a093 76bd 9665 03bd 2ed4 583d 1b4c bbbc
00000380: 62a1 f43a cf19 d7bd 3e6b 1a3e da6a 2a3e
00000390: 4bcf 9a3d 03af 4dbd a82e bd3c 722c e73c
000003a0: 8f82 1ebd ecc5 893d e060 a6bd d026 a5bc
000003b0: a469 70be 4d76 1abe 0e04 66be dbdb 41be
000003c0: 2786 403e 189e 243e bfe2 b03d 3eb8 183e
000003d0: 1c73 22bd d887 7bbc 6ab4 163c 3c2e a33d
000003e0: ee5d 35be d934 7abe b5d5 78be 87cd 8c3c
000003f0: 8de3 943c 5d7f 9a3d 9aa3 32be e3f4 01bc

encoder_lat2.1.weight f4 [6]
1.031215 1.1918066 0.8579623 0.74564177 0.9837486 1.1043491
00000000: dafe 833f 1e8d 983f 6ba3 5b3f 61e2 3e3f
00000010: f3d6 7b3f 505b 8d3f

encoder_lat2.1.bias f4 [6]
0.2453087 0.2307375 0.057248287 -0.10982528 0.20947284 0.18843855
00000000: 3432 7b3e 7446 6c3e 2e7d 6a3d 14ec e0bd
00000010: 0c80 563e 09f6 403e

encoder_lat2.1.running_mean f4 [6]
-0.11471475 -0.010109959 -0.12901385 -0.1379042 0.012162998 0.08793123
00000000: 91ef eabd 3ea4 25bc 351c 04be c236 0dbe
00000010: 5047 473c 4a15 b43d

encoder_lat2.1.running_var f4 [6]
0.5177995 3.1102238 0.22681314 0.16795404 0.58966154 2.9099572
00000000: 828e 043f e80d 4740 b441 683e 25fc 2b3e
00000010: 0ff4 163f bd3c 3a40

encoder4.0.weight f4 [8, 6, 8]
0.104070276 0.13821508 0.19662245 -0.02729004 0.005178865 0.1412135 0.10088889 0.26697946
-0.0803748 -0.10249487 0.043124508 -0.023683544 0.20627047 0.13728969 0.10100856 0.18229184
-0.12966771 -0.13985816 -0.020869147 -0.09571726 -0.04014704 -0.113871545 0.07445954 0.016755784
-0.06781109 -0.08456663 0.07388717 -0.0578178 0.03781438 0.014531247 -0.111724615 0.026933607
-0.04092925 -0.017858434 0.0015277872 0.03459714 0.13223973 0.060959794 0.03943527 0.03951186
-0.07407805 -0.027541481 -0.11830248 0.048726153 -0.0699229 -0.08442624 -0.07041453 0.05425765
-0.02130852 0.11788981 0.0954789 0.11137132 -0.027544552 -0.010962516 0.01319306 0.10012395
0.0007890637 0.12091827 -0.017756587 0.18016627 0.07996695 0.0086288825 0.16838294 0.08643565
-0.112383895 -0.06624905 -0.04110595 0.105489865 -0.12335185 0.11467895 0.08811136 0.12995261
0.0076109013 0.043550726 0.07652202 0.18032937 0.21353967 0.17219955 0.18330905 -0.0053606606
-0.008579178 -0.092354774 -0.05359785 0.041825645 0.121605635 0.122800596 -0.001271474 0.056077313
-0.10658585 -0.00035725988 -0.12560545 0.08313865 -0.003930603 -0.124312505 -0.033475704 0.07779219
0.07227522 -0.14204943 0.066448145 0.019807667 -0.14581406 0.034898955 -0.057972845 0.013710349
-0.04338507 -0.07494956 -0.101078786 -0.06338482 0.055439673 0.147876 -0.009395775 -0.08612931
0.20017606 0.104288645 0.12637755 0.0724988 0.13459525 0.108983204 0.2117927 0.16414803
-0.11104511 -0.033983108 0.09011085 -0.017707655 0.041494317 -0.07870299 0.012165852 0.1270611
-0.058553245 -0.1097108 -0.122673444 0.083599836 0.09757234 -0.014132599 -0.13418281 0.002465776
-0.013784738 0.018141756 -0.110607415 -0.07556591 -0.023247456 -0.065067545 0.1408349 -0.10922579
-0.13394496 0.072946474 -0.020570755 0.12343458 0.021058548 -0.15349783 0.05315291 0.039553627
0.091532715 -0.125612 -0.11394847 -0.085769564 -0.039136823 -0.008028882 -0.1430476 -0.064546436
-0.11108536 0.077710345 -0.032699402 0.049588926 -0.009414283 0.07767576 0.048919365 0.088252686
-0.09903134 0.058654055 0.024985539 0.078837715 0.068412304 0.014165452 0.15665922 0.083734594
0.099012576 0.1066151 -0.11459015 0.045738865 -0.031611543 0.12806712 0.20200242 0.104101315
-0.08714741 -0.056379266 -0.09549815 -0.12880605 -0.12859395 -0.03693518 0.07332949 -0.07463626
0.1553059 -0.033003956 0.14167488 -0.13726541 -0.1497545 -0.1592903 -0.017860895 -0.11143309
0.04130634 0.11821289 -0.04920054 0.14081618 -0.11458364 -0.07094993 -0.04226727 -0.040289525
-0.103384264 0.058459383 -0.044697467 -0.056771725 0.09508138 0.115150146 -0.051855415 0.17671584
0.109607875 -0.09609081 0.12822567 -0.1467277 0.16207686 -0.06499024 0.1757981 0.09930043
-0.08001956 -0.07483004 -0.13974294 -0.07334244 0.036310565 -0.0728894 -0.13586032 0.10080681
-0.0035969971 -0.15862232 -0.16178165 0.089029394 0.022097863 -0.12247084 0.013364768 -0.106114365
0.16730048 -0.05316438 0.017219413 0.114255406 0.047079273 0.02047602 -0.08836901 -0.017586075
-0.1656246 -0.00015005056 -0.20328678 -0.11605598 -0.14948629 -0.026127081 -0.1399726 -0.098444164
00000000: cc22 d53d 4188 0d3e 6557 493e 5d8f dfbc
00000010: 78b3 a93b 469a 103e d69e ce3d 88b1 883e
00000020: 8b9b a4bd d5e8 d1bd 53a3 303d fe03 c2bc
00000030: 9138 533e ab95 0c3e 93dd ce3d b6aa 3a3e
00000040: 9dc7 04be fa36 0fbe c6f5 aabc 6907 c4bd
00000050: 3971 24bd 7c35 e9bd 3e7e 983d 6d43 893c
00000060: 8ae0 8abd 4531 adbd 2852 973d 5cd2 6cbd
00000070: 40e3 1a3d 7814 6e3c e0cf e4bd dea3 dc3c
00000080: 6ea5 27bd da4b 92bc 0840 c83a bbb5 0d3d
00000090: da69 073e fab0 793d e186 213d 30d7 213d
000000a0: 3cb6 97bd ac9e e1bc 9248 f2bd 1395 473d
000000b0: bd33 8fbd aae7 acbd 7e35 90bd 453d 5e3d
000000c0: 358f aebc 3670 f13d 718a c33d a616 e43d
000000d0: 1da5 e1bc 209c 33bc b427 583c c90d cd3d
000000e0: 2bd9 4e3a ffa3 f73d 4376 91bc 827d 383e
000000f0: b6c5 a33d 2860 0d3c 946c 2c3e 2d05 b13d
00000100: 8729 e6bd 95ad 87bd b65e 28bd 120b d83d
00000110: e59f fcbd ccdc ea3d bb73 b43d 4c12 053e
00000120: de64 f93b 3f62 323d 94b7 9c3d 43a8 383e
00000130: 25aa 5a3e 1455 303e 5eb5 3b3e 7ba8 afbb
00000140: ae8f 0cbc 8024 bdbd 6b89 5bbd 5e51 2b3d
00000150: 600c f93d e17e fb3d 96a7 a6ba 53b1 653d
00000160: af49 dabd 9c4e bbb9 b79e 00be 9944 aa3d
00000170: 4acc 80bb 8e97 febd d21d 09bd 8351 9f3d
00000180: 0805 943d 6875 11be f715 883d b043 a23c
00000190: 4850 15be 35f2 0e3d ef74 6dbd 5fa1 603c
000001a0: 8bb4 31bd 287f 99bd 6502 cfbd e7cf 81bd
000001b0: b614 633d ce6c 173e bdf0 19bc 9064 b0bd
000001c0: f4fa 4c3e 4995 d53d 1e69 013e 407a 943d
000001d0: 56d3 093e 9632 df3d 30e0 583e 6c16 283e
000001e0: 9e6b e3bd df31 0bbd 0a8c b83d a50f 91bc
000001f0: f2f5 293d 092f a1bd 4853 473c 4e1c 023e
00000200: 87d5 6fbd 0eb0 e0bd 373c fbbd 6436 ab3d
00000210: 02d4 c73d 6b8c 67bc 3867 09be db98 213b
00000220: 62d9 61bc 059e 943c 2486 e2bd 4dc2 9abd
00000230: 7371 bebc 2242 85bd 0637 103e c5b1 dfbd
00000240: de28 09be f664 953d 0084 a8bc 45cb fc3d
00000250: fa82 ac3c 892e 1dbe deb6 593d fc02 223d
00000260: 8175 bb3d 6fa0 00be d15d e9bd f4a7 afbd
00000270: ef4d 20bd 928b 03bc 127b 12be ec30 84bd
00000280: b980 e3bd 9a26 9f3d cfef 05bd c21d 4b3d
00000290: 5d3e 1abc 7814 9f3d ac5f 483d d3bd b43d
000002a0: f1d0 cabd 3c3f 703d 79ae cc3c ab75 a13d
000002b0: c01b 8c3d 3616 683c 466b 203e 0b7d ab3d
000002c0: 1bc7 ca3d 0459 da3d 3eae eabd ad58 3b3d
000002d0: 1b7b 01bd 0724 033e b9d9 4e3e 1233 d53d
000002e0: 577a b2bd f2ed 66bd 8994 c3bd bce5 03be
000002f0: 22ae 03be 5849 17bd c62d 963d e5da 98bd
00000300: 8308 1f3e 282f 07bd 3813 113e 4e8f 0cbe
00000310: 3e59 19be ff1c 23be 0351 92bc 0837 e4bd
00000320: d630 293d 9a19 f23d 8186 49bd 1e32 103e
00000330: d4aa eabd 324e 91bd 7220 2dbd a106 25bd
00000340: 21bb d3bd 1b73 6f3d b114 37bd 7889 68bd
00000350: 07ba c23d d7d3 eb3d 5866 54bd fff4 343e
00000360: 187a e03d 42cb c4bd 974d 033e c93f 16be
00000370: 7af7 253e 9a19 85bd 6b04 343e 065e cb3d
00000380: 4ce1 a3bd 7e40 99bd c618 0fbe 9034 96bd
00000390: 63ba 143d 0a47 95bd f81e 0bbe cd73 ce3d
000003a0: 99bb 6bbb e46d 22be 17aa 25be 0b55 b63d
000003b0: 9406 b53c fed1 fabd e6f7 5a3c 7d52 d9bd
000003c0: d150 2b3e e5c2 59bd ba0f 8d3c bdfe e93d
000003d0: 32d6 403d 54bd a73c d0fa b4bd ac10 90bc
000003e0: 7f99 29be e456 1db9 692a 50be c2ae edbd
000003f0: ef12 19be 7608 d6bc fa54 0fbe 189d c9bd

encoder4.1.weight f4 [8]
0.88537025 1.0081198 0.9176513 1.0963814 1.0670859 0.9436495 0.8991385 1.1668378
00000000: a0a7 623f 120a 813f 32eb 6a3f 3a56 8c3f
00000010: 4596 883f 0393 713f f12d 663f f15a 953f

encoder4.1.bias f4 [8]
-0.08137807 -0.31248122 -0.1452152 -0.28517887 -0.3808113 -0.14779152 -0.17881323 -0.0508799
00000000: 8ca9 a6bd 8afd 9fbe 4bb3 14be f702 92be
00000010: b3f9 c2be a956 17be d11a 37be 7167 50bd

encoder4.1.running_mean f4 [8]
0.20695373 0.15113513 -0.029932374 0.024049219 -0.027911257 -0.07738095 0.027561376 0.13504788
00000000: aeeb 533e 2bc3 1a3e bd34 f5bc de02 c53c
00000010: 26a6 e4bc e779 9ebd 65c8 e13c fe49 0a3e

encoder4.1.running_var f4 [8]
2.4370048 0.8459409 0.66149604 0.40241346 0.1546859 1.2137407 0.26642522 0.592927
00000000: e3f7 1b40 958f 583f ce57 293f 2309 ce3e
00000010: fb65 1e3e db5b 9b3f e368 883e 10ca 173f

encoder_lat3.0.weight f4 [8, 6, 8]
0.21854314 0.058310654 0.008892678 0.039421957 0.06489065 -0.09235794 0.10790878 -0.06578006
-0.013584384 0.04013185 0.00048129098 0.15125081 0.12218653 0.1552017 -0.011565086 0.07033554
-0.20824847 -0.10318164 0.00080127077 -0.023718774 0.043862622 0.09577409 -0.09875292 0.020971842
-0.06561463 -0.19294348 -0.025192536 0.013122853 -0.12509787 -0.19514047 -0.11466087 0.016615378
0.15523285 -0.052380662 0.030168511 -0.001062131 0.138679 -0.032327432 0.1146302 -0.05595244
0.05698889 0.016045697 0.022193298 0.0999877 -0.16480255 -0.1120312 0.0945267 0.007868032
0.11668619 0.061294343 0.004552947 0.12531589 0.19862923 -0.03946718 0.1666717 0.06454606
-0.13750619 0.074445 0.0050809328 -0.11614659 0.025111254 0.21606985 0.051001668 0.118300654
0.10143002 -0.15050367 -0.16579595 0.057413332 0.029436668 -0.119198255 0.0825582 -0.020441694
-0.011553845 -0.047084387 -0.195343 -0.046097115 -0.0041033975 -0.09041584 -0.12919617 0.10288874
-0.055916034 0.0099478625 0.16330789 -0.0630593 -0.02134606 0.06817621 0.07793386 -0.039658416
0.16673565 0.041835867 0.024443382 -0.1282887 0.07455909 0.11766865 0.1007634 -0.0572172
0.09519353 0.17514671 -0.07591405 -0.04388347 -0.034706134 0.07077021 0.049396265 -0.043827835
0.094320334 0.007294295 -0.079806 0.19829507 0.034845125 0.07719672 0.101562016 -0.007946399
-0.14011689 -0.106710374 -0.087372206 -0.11829925 -0.13213505 -0.13421173 -0.07181708 0.06793159
-0.17889604 -0.16490528 -0.10090355 -0.05784392 -0.090404175 0.065557584 0.043545544 0.06745876
0.10187764 0.13639253 0.12739162 -0.07943163 0.010380687 0.062342152 -0.031882238 0.20637524
0.039726976 -0.18697052 -0.06248776 -0.07948606 -0.08601086 0.06844358 0.070148565 0.022393452
-0.092419244 -0.18271835 0.031592134 0.009224578 -0.14341179 -0.12529276 -0.09642947 -0.07720111
0.062482078 -0.045010366 -0.061984714 -0.08021275 -0.05240485 -0.080032945 0.001720251 -0.058286898
0.15371187 0.108395986 0.115223676 -0.041976113 -0.0015736114 0.10434409 0.041124135 -0.112960905
-0.09777832 -0.056487795 0.11663527 0.055253968 0.09265801 0.052652717 0.094807066 -0.065580115
-0.15408666 -0.17393427 -0.10083468 -0.046080004 -0.043134533 -0.033686753 -0.029083852 -0.23930888
0.03341722 0.08447411 -0.11142838 -0.14973257 0.037714113 0.078590065 -0.03641637 -0.14406024
0.0851983 0.16698596 0.12521766 -0.1027512 0.16250016 -0.08038172 -0.08733442 -0.11246944
0.11261433 -0.08113316 -0.0008962351 0.052892674 -0.06671379 0.17524277 0.17572479 0.076025695
-0.1445537 0.11503979 -0.17457892 -0.07743747 -0.07356532 0.005132939 0.0709566 -0.033378024
-0.11478603 -0.028211927 -0.09030814 -0.14461277 -0.010574524 -0.06538378 -0.05656182 -0.00910258
-0.0019310135 -0.053140484 -0.11962342 -0.0033282926 -0.05285264 0.06463017 -0.044261664 0.109035365
0.04049824 0.09000634 0.0015432741 0.1295152 0.10250944 -0.120366454 -0.012791768 0.007895047
-0.24418812 0.009519676 -0.11403479 0.028050316 -0.16300963 0.071435265 0.019457579 -0.046180334
-0.042875506 -0.09732639 -0.06569403 -0.12396995 -0.049148016 -0.076948956 0.10196692 -0.040671866
00000000: c6c9 5f3e 27d7 6e3d 98b2 113c eb78 213d
00000010: 64e5 843d 2926 bdbd 47ff dc3d b2b7 86bd
00000020: 0991 5ebc 4b61 243d c855 fc39 7ee1 1a3e
00000030: ee3c fa3d 32ed 1e3e 7d7b 3dbc 140c 903d
00000040: 163f 55be e550 d3bd 5f0c 523a e04d c2bc
00000050: 4ba9 333d 3525 c43d f93e cabd 24cd ab3c
00000060: f760 86bd fa92 45be 9460 cebc 3c01 573c
00000070: a819 00be e7d2 47be 51d3 eabd f91c 883c
00000080: 5cf5 1e3e 1b8d 56bd f423 f73c 3437 8bba
00000090: de01 0e3e c569 04bd 3dc3 ea3d 632e 65bd
000000a0: 2f6d 693d 4472 833c b8ce b53c 5ac6 cc3d
000000b0: 00c2 28be 9d70 e5bd 3797 c13d ebe8 003c
000000c0: 2bf9 ee3d c70f 7b3d e330 953b cf52 003e
000000d0: 7665 4b3e 56a8 21bd fcab 2a3e ba30 843d
000000e0: 6cce 0cbe 9f76 983d f47d a63b 43de edbd
000000f0: 1eb6 cd3c 6a41 5d3e 20e7 503d 9d47 f23d
00000100: 8bba cf3d a21d 1abe 6ac6 29be 3e2a 6b3d
00000110: 2b25 f13c 371e f4bd 4614 a93d 5775 a7bc
00000120: 574c 3dbc 8fdb 40bd ff07 48be 54d0 3cbd
00000130: cb75 86bb f12b b9bd 004c 04be 55b7 d23d
00000140: 3608 65bd 5cfc 223c 2f3a 273e 3c25 81bd
00000150: efdd aebc f89f 8b3d ca9b 9f3d dd70 22bd
00000160: c0bc 2a3e 165c 2b3d 7d3d c83c 1d5e 03be
00000170: 70b2 983d 43fc f03d 0b5d ce3d 955c 6abd
00000180: d3f4 c23d a959 333e d378 9bbd 27bf 33bd
00000190: 0528 0ebd f9ef 903d bd53 4a3d d184 33bd
000001a0: 052b c13d fb04 ef3b 5471 a3bd dd0d 4b3e
000001b0: c3b9 0e3d 5019 9e3d bfff cf3d 9d31 02bc
000001c0: cd7a 0fbe f88a dabd 33f0 b2bd e146 f2bd
000001d0: 694e 07be cd6e 09be d514 93bd b81f 8b3d
000001e0: 8630 37be eedc 28be 85a6 cebd bfed 6cbd
000001f0: d325 b9bd 0e43 863d d05c 323d d227 8a3d
00000200: 39a5 d03d 7caa 0b3e f372 023e 0dad a2bd
00000210: c213 2a3c 7c5a 7f3d f396 02bd 0854 533e
00000220: c1b8 223d 3375 3fbe 2af3 7fbd 96c9 a2bd
00000230: 7626 b0bd 262c 8c3d 0daa 8f3d 7972 b73c
00000240: 4d46 bdbd 851a 3bbe c166 013d af22 173c
00000250: 8ada 12be bf4c 00be d07c c5bd 9e1b 9ebd
00000260: 35ed 7f3d ca5c 38bd afe3 7dbd 9546 a4bd
00000270: 78a6 56bd 50e8 a3bd 0c7a e13a 3ebe 6ebd
00000280: a566 1d3e b7fe dd3d 64fa eb3d 25ef 2bbd
00000290: a341 ceba 5bb2 d53d c871 283d 0c58 e7bd
000002a0: 0040 c8bd bf5f 67bd 79de ee3d fc51 623d
000002b0: 7cc3 bd3d 60aa 573d 352a c23d de4e 86bd
000002c0: e5c8 1dbe d31b 32be 6a82 cebd 63be 3cbd
000002d0: d6ad 30bd 1ffb 09bd 4241 eebc 630d 75be
000002e0: 7fe0 083d c300 ad3d 9034 e4bd 7f53 19be
000002f0: 1d7a 1a3d d4f3 a03d 5529 15bd 8784 13be
00000300: 727c ae3d 5efe 2a3e 0f39 003e 396f d2bd
00000310: 7166 263e 2c9f a4bd 63dc b2bd 6156 e6bd
00000320: 58a2 e63d 2429 a6bd 52f1 6aba fda5 583d
00000330: 3da1 88bd d772 333e 33f1 333e 5cb3 9b3d
00000340: e305 14be fb99 eb3d d1c4 32be 8997 9ebd
00000350: 6aa9 96bd 3732 a83b b251 913d 65b7 08bd
00000360: f014 ebbd b31c e7bc 79f3 b8bd 5f15 14be
00000370: c540 2dbc eee7 85bd 5ead 67bd fd22 15bc
00000380: 101a fdba d6a9 59bd 20fd f4bd 7c1f 5abb
00000390: 037c 58bd d35c 843d b84b 35bd ef4d df3d
000003a0: 7ce1 253d 3e55 b83d b047 ca3a a29f 043e
000003b0: 78f0 d13d b082 f6bd 9094 51bc 3a5a 013c
000003c0: 730c 7abe 6af8 1b3c 128b e9bd c7c9 e53c
000003d0: ffeb 26be a74c 923d 8065 9f3c 9727 3dbd
000003e0: 3a9e 2fbd 0f53 c7bd 978a 86bd f5e3 fdbd
000003f0: 6e4f 49bd 6a97 9dbd 08d4 d03d 8b97 26bd

encoder_lat3.1.weight f4 [8]
0.9589831 0.911005 0.96272886 0.9744782 0.97473574 0.71261555 0.88080287 0.9319292
00000000: eb7f 753f a037 693f 6675 763f 6777 793f
00000010: 4888 793f f96d 363f 4c7c 613f e992 6e3f

encoder_lat3.1.bias f4 [8]
0.086238675 0.014740588 0.07616053 0.16468883 0.1000897 0.17657033 0.06576429 0.06337736
00000000: e79d b03d 8282 713c 0dfa 9b3d 30a4 283e
00000010: d4fb cc3d dace 343e 6eaf 863d fdcb 813d

encoder_lat3.1.running_mean f4 [8]
0.10457921 0.117284074 0.114218526 -0.1564303 0.053631533 -0.13597757 0.10213304 0.051590547
00000000: a02d d63d a232 f03d 67eb e93d 442f 20be
00000010: bdac 5b3d b43d 0bbe 212b d13d 9c50 533d

encoder_lat3.1.running_var f4 [8]
1.2047788 0.7192475 1.4495571 0.56248945 0.79001755 0.7961099 0.8420709 1.2250118
00000000: 3136 9a3f 9b20 383f 168b b93f 4fff 0f3f
00000010: 973e 4a3f dccd 4b3f f591 573f 30cd 9c3f

encoder5.0.weight f4 [8, 8, 16]
-0.101625524 -0.067572095 -0.076733775 -0.100264914 -0.10637888 -0.11393877 -0.030043257 0.039705902
0.018006768 -0.056325126 0.030708548 -0.040605303 0.03325949 0.02192064 0.012462214 0.110358156
0.12120644 -0.013586835 0.044103574 -0.074910484 0.005464118 -0.07414263 0.012786681 -0.104503065
-0.07218597 0.026589038 -0.06243276 0.02080963 -0.050412137 -0.036796056 -0.018655963 0.11802196
0.015979206 0.11164098 0.10272882 -0.005701268 0.06454288 0.021523774 -0.00031695474 0.09297708
-0.030784762 0.07508986 0.039686922 0.05539427 -0.08442934 -0.10509687 -0.012078353 0.018681608
0.035503514 0.011476464 0.08184191 0.02001977 -0.0032829223 0.022577161 -0.076345034 -0.11389199
-0.14840028 -0.02643103 -0.04982587 -0.04252855 -0.13645469 -0.08471601 -0.053053897 -0.040238813
-0.07402199 -0.10330476 0.028372027 -0.12690414 0.060599484 0.044277135 0.111694254 0.12857935
0.1049466 0.08657656 -0.026352841 0.008936348 -0.0046299538 -0.061783012 -0.037812404 -0.13776103
-0.049340237 -0.056569736 0.084630035 -0.008566755 0.057056576 -0.016890598 0.030206032 0.06982692
0.09884844 -0.024250656 0.017823791 -0.0046986523 0.06305608 0.046007317 -0.05294436 -0.04281995
-0.08518121 0.018610947 0.0827996 0.05460003 -0.0021803947 -0.044661533 -0.06464021 0.024867712
-0.09790598 -0.022312198 0.016471533 0.0030398646 -0.030601615 0.038307197 0.016751405 0.017455881
0.1294395 -0.056969266 -0.012308884 -0.10072619 -0.08851042 -0.111982115 -0.06823742 -0.13793448
-0.12501593 -0.010843968 -0.05506926 0.077121615 -0.00229266 -0.043122873 -0.008561073 0.12595592
-0.17256731 -0.11174904 -0.11134958 -0.1232417 -0.0015346485 -0.064446025 0.0018876061 0.020893317
0.0484561 0.011244776 0.053504996 -0.043477964 0.07174458 -0.024269884 0.047097515 0.0707036
-0.013925513 -0.10642239 -0.124640845 -0.0059510055 0.016372532 -0.07819911 -0.09310514 0.008125376
0.058703586 -0.026065787 0.012707589 0.102185614 0.07796305 0.068263106 0.01718077 0.05102434
0.14695233 0.058512777 0.0042925123 0.006559607 0.018276539 0.033948455 0.06371503 0.06225355
-0.0055261934 -0.0962171 0.033648722 -0.039629817 -0.09297098 -0.049965646 -0.023707261 -0.084406346
0.09338444 0.056704856 -0.042652573 0.042412844 -0.030976433 0.0005515081 -0.08165573 -0.0030375414
-0.027391348 -0.10832852 -0.13270216 -0.043784767 -0.04142114 0.06042686 -0.031290404 0.032290302
0.057518695 -0.05579206 -0.06723226 0.016818514 0.06581404 0.11175891 0.057789788 0.024998907
0.07056634 0.06473676 -0.006999621 -0.030827655 -0.02871401 -0.03576278 -0.16402228 -0.20541452
0.10741868 0.07658548 -0.014734051 0.08108582 0.1151215 0.12197592 0.10022689 -0.035319697
0.045294728 0.020426745 -0.06329019 0.07609452 0.017621143 -0.05183652 -0.007985939 -0.066441424
-0.014836056 0.069950655 -0.042650517 -0.039528515 0.016701937 0.111259155 0.11250378 -0.024867322
0.07682338 -0.009516265 0.07418351 -0.011680024 -0.013501988 0.051944643 0.11133035 0.024068592
-0.037570503 -0.07953067 -0.14345326 -0.11947393 -0.03737849 0.020792343 -0.0062000593 -0.049655877
0.087059446 -0.030005617 0.06840445 0.111845545 0.058766507 0.013182185 0.116016604 0.015152426
00000000: 0b21 d0bd 3d63 8abd 9926 9dbd b157 cdbd
00000010: 2cdd d9bd bb58 e9bd 471d f6bc a8a2 223d
00000020: ee82 933c 2db5 66bd 7e90 fb3c bf51 26bd
00000030: 1a3b 083d ea92 b33c 502e 4c3c 7503 e23d
00000040: 153b f83d 519b 5ebc f3a5 343d ab6a 99bd
00000050: 580c b33b 17d8 97bd 3a7f 513c b405 d6bd
00000060: 3dd6 93bd 41d1 d93c 7eb9 7fbd f578 aa3c
00000070: f57c 4ebd 76b7 16bd 64d4 98bc 7fb5 f13d
00000080: d3e6 823c 07a4 e43d 7d63 d23d b4d1 babb
00000090: 0f2f 843d a052 b03c f22c a6b9 c46a be3d
000000a0: 5330 fcbc b6c8 993d c18e 223d 1ae5 623d
000000b0: 4ae9 acbd 073d d7bd 49e4 45bc 2c0a 993c
000000c0: 226c 113d c707 3c3c bb9c a73d 8000 a43c
000000d0: 4c26 57bb bdf3 b83c c95a 9cbd 3440 e9bd
000000e0: 3ef6 17be e385 d8bc 3616 4cbd 6b32 2ebd
000000f0: c7ba 0bbe 967f adbd 0b4f 59bd 74d1 24bd
00000100: d798 97bd 7291 d3bd 746c e83c 29f3 01be
00000110: 2a37 783d f15b 353d f5bf e43d 4eaa 033e
00000120: 3eee d63d 0d4f b13d eae1 d7bc c369 123c
00000130: deb6 97bb 2f10 7dbd 2ee1 1abd 3a11 0dbe
00000140: fd18 4abd abb5 67bd 8352 ad3d 935b 0cbc
00000150: 28b4 693d 275e 8abc a472 f73c 6b01 8f3d
00000160: 0d71 ca3d 50a9 c6bc 3303 923c 27f7 99bb
00000170: 8c23 813d 2b72 3c3d 2fdc 58bd f963 2fbd
00000180: 7c73 aebd fc75 983c d692 a93d 48a4 5f3d
00000190: f4e4 0ebb 03ef 36bd 1662 84bd 5fb7 cb3c
000001a0: ee82 c8bd 12c8 b6bc 4fef 863c 7738 473b
000001b0: 3db0 fabc 02e8 1c3d 3e3a 893c a3ff 8e3c
000001c0: ca8b 043e 9b58 69bd 34ab 49bc 8849 cebd
000001d0: f344 b5bd e156 e5bd 0fc0 8bbd b23e 0dbe
000001e0: 2d04 00be e6aa 31bc 4e90 61bd f0f1 9d3d
000001f0: 7440 16bb 9ca1 30bd be43 0cbc 97fa 003e
00000200: 7cb5 30be aedc e4bd 400b e4bd 2566 fcbd
00000210: 4226 c9ba 47fc 83bd 8d69 f73a 7628 ab3c
00000220: e779 463d 023c 383c 0e28 5b3d f315 32bd
00000230: d3ee 923d a3d1 c6bc 53e9 403d 0dcd 903d
00000240: d627 64bc fbf3 d9bd b343 ffbd a700 c3bb
00000250: b01f 863c db26 a0bd e8ad bebd 4c20 053c
00000260: 2c73 703d eb87 d5bc 7e33 503c b146 d13d
00000270: 17ab 9f3d 87cd 8b3d b0be 8c3c e6fe 503d
00000280: ac7a 163e 18ab 6f3d 34a8 8c3b f9f1 d63b
00000290: aeb8 953c 890d 0b3d 077d 823d 94fd 7e3d
000002a0: 1215 b5bb 790d c5bd 3ed3 093d e052 22bd
000002b0: 9267 bebd c7a8 4cbd bb35 c2bc 3cdd acbd
000002c0: 5740 bf3d 5a43 683d 77b4 2ebd 17b9 2d3d
000002d0: 4ac2 fdbc 1593 103a 1f3b a7bd 7d11 47bb
000002e0: d263 e0bc 58db ddbd 13e3 07be a857 33bd
000002f0: 37a9 29bd 2882 773d 5e2a 00bd d642 043d
00000300: b998 6b3d 3786 64bd 11b1 89bd fbc6 893c
00000310: 83c9 863d dbe1 e43d fcb4 6c3d 82ca cc3c
00000320: 1685 903d b594 843d 145d e5bb 478a fcbc
00000330: a539 ebbc fe7b 12bd 75f5 27be 2f58 52be
00000340: 53fe db3d d9d8 9c3d 1767 71bc 5310 a63d
00000350: d2c4 eb3d 83ce f93d c143 cd3d 63ab 10bd
00000360: f786 393d fd55 a73c 4a9e 81bd 72d7 9b3d
00000370: 375a 903c 8852 54bd 75d7 02bc 7112 88bd
00000380: ee12 73bc 4a42 8f3d 4fb2 2ebd a7e8 21bd
00000390: 80d2 883c d7db e33d 6268 e63d 8eb6 cbbc
000003a0: 9455 9d3d 1cea 1bbc 86ed 973d 925d 3fbc
000003b0: 7137 5dbc e8c3 543d 2b01 e43d 7f2b c53c
000003c0: 87e3 19bd fae0 a2bd 69e5 12be bfae f4bd
000003d0: 301a 19bd b454 aa3c de29 cbbb f663 4bbd
000003e0: 394c b23d 57ce f5bc a217 8c3d 470f e53d
000003f0: 26b5 703d 17fa 573c 1d9a ed3d e241 783c

encoder5.1.weight f4 [8]
0.5442543 0.71726495 0.6645512 0.8008537 0.69813406 0.8201649 0.45111877 0.8168815
00000000: 4054 0b3f ad9e 373f 0720 2a3f c004 4d3f
00000010: eab8 323f 54f6 513f 0af9 e63e 251f 513f

encoder5.1.bias f4 [8]
-0.038154062 0.0073356708 -0.098493986 0.10252779 -0.011969954 0.06271027 -0.038296517 -0.04889991
00000000: 6f47 1cbd 1160 f03b 37b7 c9bd 17fa d13d
00000010: a01d 44bc 3e6e 803d cfdc 1cbd 464b 48bd

encoder5.1.running_mean f4 [8]
-0.3333541 -0.2711137 0.09496082 -0.067889765 -0.31451333 -0.19727188 -0.29733953 0.2452399
00000000: 63ad aabe 6acf 8abe d27a c23d ca09 8bbd
00000010: e407 a1be a401 4abe e33c 98be 2b20 7b3e

encoder5.1.running_var f4 [8]
2.3559628 3.392325 1.6825942 4.168991 2.4825425 2.60477 2.6375883 2.5226214
00000000: 18c8 1640 da1b 5940 3f5f d73f 6068 8540
00000010: fae1 1e40 8db4 2640 3fce 2840 a172 2140

encoder_lat4.0.weight f4 [8, 8, 16]
0.11778675 0.035533138 -0.041098725 -0.07348312 -0.010530258 -0.07165196 0.03114949 0.025248606
0.022996245 0.010254515 -0.08071475 -0.081797004 -0.054015674 -0.02896731 -0.019284794 -0.1186705
0.1244353 0.044854987 -0.043768674 -0.04746927 -0.045885153 -0.024971997 -0.06126356 -0.07958467
-0.030741032 -0.049130958 -0.023027964 0.025508698 0.047168802 0.0042739892 -0.038695812 -0.04277789
-0.107007444 -0.054651152 -0.02554425 -0.11759847 -0.04684392 -0.06364846 -0.04591444 -0.07246447
-0.031070804 0.015656115 0.015672032 0.10463283 0.0751115 0.01767497 0.021042736 0.11289553
-0.008744253 0.0017945466 -0.043625034 0.01956586 0.03574336 0.1215691 0.05387904 0.0213287
0.03849345 0.049587633 0.018181106 0.08206617 0.052923262 0.008978349 -0.063952506 -0.14319894
0.14859127 0.1254039 0.027895106 0.031019136 0.113049224 -0.05351766 0.04640797 0.09793974
0.033153675 0.062354583 0.008517702 0.0017398192 0.05491226 0.105355 0.12218623 0.24416307
-0.024515156 -0.16458797 -0.09086555 -0.044253908 -0.11746358 -0.10588187 0.04318509 -0.0077600097
-0.05201729 -0.04984694 0.0025678677 0.03887335 0.0016131472 -0.06434938 -0.0100902915 0.09060167
-0.08898193 -0.004691095 -0.0517549 -0.08350348 0.004743163 -0.06615797 -0.02026983 -0.07550808
0.006529844 -0.07011447 0.08624615 0.009775452 0.01366801 0.079846635 0.0064584324 0.106161125
0.07762719 0.13653651 0.0023848556 -0.020665903 0.026278388 -0.09129299 -0.016100632 0.00922349
0.035354473 -0.10142727 -0.029796164 -0.04130023 -0.18832344 -0.10117514 -0.23176906 -0.1111908
-0.07050108 0.045716103 0.030467657 -0.031731293 -0.08363641 0.06538502 -0.08481754 0.071808666
0.07502164 0.047574576 0.0062658815 0.038421348 -0.037704393 -0.0055731577 -0.09997664 -0.060819335
-0.051103845 -0.037571587 -0.050147794 -0.01791186 0.017164366 0.005416273 0.090977065 0.141045
-0.046165723 0.081395455 0.071016885 0.09337569 -0.0155470325 -0.10031719 -0.0879497 -0.05256726
0.028331222 0.052513923 0.08368015 0.0003852005 0.07215198 0.08950787 -0.07274191 0.03263917
-0.017274743 -0.072645426 -0.047572304 -0.0067768646 -0.05626641 -0.048498746 -0.008693865 -0.031850126
-0.015764717 -0.0821348 -0.026236327 -0.14412175 -0.10117977 -0.17151569 -0.06594827 -0.059579637
-0.070066616 -0.08439697 -0.053952634 0.012678807 -0.060150146 0.05118426 -0.007837357 0.06587817
0.08166369 0.14399837 0.066799924 0.07538267 -0.012435276 0.051633835 -0.058264963 0.0086188335
0.06896859 -0.024728417 -0.04647453 0.010219686 -0.0069529 0.029623928 -0.016039195 -0.16887775
-0.046210114 0.067272075 -0.010250339 0.10631792 -0.02109165 0.031440035 0.072194986 -0.0039559854
0.028484898 -0.013510771 0.0155172255 0.058227662 -0.08768131 0.0653548 -0.06346203 0.032407206
0.0094262175 0.013186254 0.070899166 -0.061869826 0.026376724 0.034467448 -0.00096663117 0.006804827
-0.036503587 -0.014507744 -0.05350677 -0.07531412 -0.10576347 -0.07128261 -0.108273596 -0.113054164
-0.15263832 -0.25317094 -0.116739355 -0.17105801 -0.14662564 -0.08730686 0.02560811 0.02883976
-0.011536105 0.03092229 -0.033229474 -0.0017085643 0.062588856 0.012826616 -0.002068946 -0.061936993
00000000: 2e3a f13d 328b 113d 2357 28bd 517e 96bd
00000010: 1a87 2cbc 43be 92bd 372d ff3c 2ad6 ce3c
00000020: 9f62 bc3c 8e02 283c c64d a5bd 3085 a7bd
00000030: 8a3f 5dbd da4c edbc 25fb 9dbc 8509 f3bd
00000040: efd7 fe3d ddb9 373d c846 33bd 236f 42bd
00000050: 12f2 3bbd 1392 ccbc 80ef 7abd 4afd a2bd
00000060: 9ed4 fbbc 8b3d 49bd 24a5 bcbc 9ef7 d03c
00000070: 1334 413d d20c 8c3b 807f 1ebd de37 2fbd
00000080: b826 dbbd e3d9 5fbd 2d42 d1bc 77d7 f0bd
00000090: 69df 3fbd 205a 82bd c810 3cbd 4168 94bd
000000a0: 3388 febc 4141 803c a262 803c bd49 d63d
000000b0: 0fd4 993d 19cb 903c d161 ac3c c635 e73d
000000c0: 0e44 0fbc fe36 eb3a 2ab0 32bd 9548 a03c
000000d0: a167 123d 38f9 f83d 45b0 5c3d 87b9 ae3c
000000e0: 4fab 1d3d 671c 4b3d 8bf0 943c 4f12 a83d
000000f0: 10c6 583d ed19 133c 88f9 82bd bea2 12be
00000100: 4f28 183e e169 003e 4784 e43c d81b fe3c
00000110: 5a86 e73d 5535 5bbd 4916 3e3d a194 c83d
00000120: 26cc 073d 8567 7f3d d58d 0b3c a50a e43a
00000130: aeeb 603d 5dc4 d73d c63c fa3d e205 7a3e
00000140: 02d4 c8bc c089 28be b817 babd 9643 35bd
00000150: bf90 f0bd 98d8 d8bd d9e2 303d ae47 febb
00000160: 1510 55bd 4e2c 4cbd ac49 283b a939 1f3d
00000170: 3d70 d33a 9cc9 83bd c051 25bc 5e8d b93d
00000180: 283c b6bd c2b7 99bb f2fc 53bd df03 abbd
00000190: 896c 9b3b d47d 87bd ea0c a6bc fba3 9abd
000001a0: 4df8 d53b 2d98 8fbd d2a1 b03d 3829 203c
000001b0: caef 5f3c a286 a33d 42a1 d33b 016b d93d
000001c0: 01fb 9e3d 3ad0 0b3e 3d4b 1c3b 8a4b a9bc
000001d0: c645 d73c d2f7 babd 79e5 83bc 1f1e 173c
000001e0: dacf 103d 1ab9 cfbd 1617 f4bc 6e2a 29bd
000001f0: dcd7 40be e934 cfbd de54 6dbe 01b8 e3bd
00000200: df62 90bd cf40 3b3d 4f97 f93c acf8 01bd
00000210: 9149 abbd 95e8 853d d2b4 adbd 6c10 933d
00000220: f2a4 993d 8fdd 423d 0652 cd3b b45f 1d3d
00000230: ec6f 1abd 099f b6bb 8dc0 ccbd b21d 79bd
00000240: 4452 51bd aae4 19bd c667 4dbd e5bb 92bc
00000250: 499c 8c3c fe7a b13b 2f52 ba3d 1a6e 103e
00000260: 4518 3dbd a9b2 a63d 4d71 913d c13b bf3d
00000270: fbb8 7ebc 1973 cdbd f91e b4bd c450 57bd
00000280: e116 e83c d718 573d 8060 ab3d bcf4 c939
00000290: 6bc4 933d e74f b73d b6f9 94bd a6b0 053d
000002a0: c383 8dbc 20c7 94bd 2ddb 42bd 7610 debb
000002b0: 9b77 66bd 9fa6 46bd b670 0ebc 4775 02bd
000002c0: 0225 81bc 4a36 a8bd 91ed d6bc a794 13be
000002d0: 5737 cfbd cfa1 2fbe e30f 87bd c709 74bd
000002e0: 167f 8fbd 52d8 acbd 70fd 5cbd c5ba 4f3c
000002f0: 0060 76bd 96a6 513d 4268 00bc 22eb 863d
00000300: 4b3f a73d 4f74 133e 66ce 883d 3b62 9a3d
00000310: 54bd 4bbc 007e 533d 3ea7 6ebd 0236 0d3c
00000320: 673f 8d3d 4093 cabc 145c 3ebd 7870 273c
00000330: 27d5 e3bb e1ad f23c a164 83bc 4aee 2cbe
00000340: d146 3dbd f1c5 893d 0af1 27bc 36bd d93d
00000350: 65c8 acbc 44c7 003d f7da 933d 36a1 81bb
00000360: 2959 e93c 485c 5dbc f63b 7e3c 2180 6e3d
00000370: 4292 b3bd bdd8 853d 61f8 81bd 6bbd 043d
00000380: 6c70 1a3c 280b 583c 9533 913d 376b 7dbd
00000390: 0014 d83c bd2d 0d3d 8565 7dba 07fb de3b
000003a0: c984 15bd e4b1 6dbc ea29 5bbd 4a3e 9abd
000003b0: 859a d8bd 9efc 91bd 8cbe ddbd f188 e7bd
000003c0: 384d 1cbe 9f9f 81be 0b15 efbd d529 2fbe
000003d0: 0825 16be f0cd b2bd 19c8 d13c 5c41 ec3c
000003e0: ee01 3dbc be50 fd3c a11b 08bd e8f1 dfba
000003f0: 962e 803d ba26 523c 2797 07bb a5b1 7dbd

encoder_lat4.1.weight f4 [8]
0.56975424 0.8270305 0.85910815 0.8163932 0.78235275 0.68938375 0.842712 0.9809595
00000000: 6adb 113f 45b8 533f 83ee 5b3f 25ff 503f
00000010: 4548 483f 747b 303f f9bb 573f 2920 7b3f

encoder_lat4.1.bias f4 [8]
-0.06492753 0.027465595 0.09582672 0.04569303 0.018149408 -0.12083441 -0.090018354 -0.13170132
00000000: baf8 84bd 87ff e03c cd40 c43d 9d28 3b3d
00000010: 11ae 943c 0878 f7bd 8b5b b8bd b6dc 06be

encoder_lat4.1.running_mean f4 [8]
-0.15886414 -0.30467454 -0.30786052 -0.24986619 -0.23340687 0.058929864 0.1250363 0.19835557
00000000: 48ad 22be 4dfe 9bbe e59f 9dbe ecdc 7fbe
00000010: 3602 6fbe 7160 713d 8409 003e b91d 4b3e

encoder_lat4.1.running_var f4 [8]
3.7293944 2.4632812 2.018469 2.00783 2.6627624 1.4491559 1.7981822 0.5731944
00000000: 66ae 6e40 66a6 1d40 992e 0140 4980 0040
00000010: b36a 2a40 f17d b93f d62a e63f debc 123f
