Models/IAE/cnn_test3.pth (torch, 54245 bytes, 55 tensors)

encoder1.0.weight f4 [4, 1, 4]
00000000: 4151 d23e 4643 81bd 5fef cdbd 222a 0e3f
00000010: cbce 513a b4df 6cbe cb5f b2be bc9d 70be
00000020: 60cc 9ebe efc9 88be 3a3a 053e 7285 fbbe
00000030: 0dc7 5b3e bf7b 093e 20b5 963e e60e 1d3f
0.41077617 -0.063116595 -0.10055422 0.5553304 0.0008003532 -0.23132211 -0.3483871 -0.23497671
-0.310153 -0.26716563 0.13010493 -0.49125248 0.2146265 0.13426112 0.29435062 0.6135086

encoder1.1.weight f4 [4]
00000000: 8756 703f 3df1 723f d0e6 7b3f c85c 783f
0.9388203 0.9489935 0.98399067 0.9701657

encoder1.1.bias f4 [4]
00000000: d2a5 e4bd f99e 9a3d cbb5 2c3e f39c 2a3e
-0.1116444 0.07549853 0.16866224 0.16661434

encoder1.1.running_mean f4 [4]
00000000: 29de 953e b128 98be 3552 afbe 524d ea3e
0.29271057 -0.29718545 -0.34242406 0.45762116

encoder1.1.running_var f4 [4]
00000000: 4c57 653b 2494 6b3b 3ac6 9b3b d8ab 0b3c
0.003499466 0.0035946453 0.004753855 0.008524857

encoder2.0.weight f4 [6, 4, 4]
00000000: 5e08 d13d 8c54 35bd 02d4 0d3d aa8b ee3b
00000010: b9ea 80be 50d1 5abd 8b32 49be a053 9f3e
00000020: 08be c23c 1524 8c3d 0b93 403e dd4a 693e
00000030: 0fd5 82bd 9a4b 0bbb 536e 2abe f9fb 853e
00000040: d1d0 42be 40fd 9fbe 36b2 4ebe c46a c4bd
00000050: d15d e33d 182a 65be f39d f83d 428b 89be
00000060: bcb5 47be 0d6f c1bd ec2e 273d 3508 323e
00000070: f20d d7bd 4e07 79be f782 233c d681 36be
00000080: bba5 473e 3d8d 22be b445 e03c 9537 3b3d
00000090: 409a c93d 80dd a53c 2a44 36be 8db4 3abe
000000a0: ce7d f8bd f254 d8bd a1a9 a9bd c296 19be
000000b0: 687e 10be 589d 92bd 825e 21be 84e8 89be
000000c0: 3516 d5bc c187 e7bd b68b ec3c 7ff3 27be
000000d0: b0b2 363d fd9c 293e 540b 4dbe 9773 343e
000000e0: 140b b23d 553c 223e 7167 d33c 93d9 783e
000000f0: 3773 ae3d 401d 93bc 2382 4b3e 00dc c3bd
00000100: 354e 1bbe e2b3 72be 9ca1 3abd da33 7f3c
00000110: 3aed ce3d 1000 62be 96dd 1a3d f8a8 2f3e
00000120: dc63 4dbe e6ad 79be fd23 ecbc 65b0 3abe
00000130: f8bd 2ebd 4af3 0e3e 6dd5 fe3c b116 90bd
00000140: d67c 50bd be21 863e 86fc 0fbd a273 5dbe
00000150: 1689 9cbd 4e1c f63d 7fde 083e c908 4fbc
00000160: 7b80 a43e 384e e83d a6e2 f83d 303d 8fbe
00000170: ac80 85bd f71b eb3d e7a3 1bbd 3b60 403c
0.10206674 -0.044270083 0.034626015 0.007279833 -0.2517908 -0.053422272 -0.19648187 0.31118488
0.023772255 0.068428196 0.18806092 0.22782464 -0.06388294 -0.002125478 -0.16643648 0.26168802
-0.1902497 -0.31247902 -0.2018517 -0.095906764 0.111018784 -0.22379339 0.121395014 -0.26864058
-0.1950292 -0.094450094 0.040816233 0.17385943 -0.10500707 -0.24319193 0.009979955 -0.17822966
0.19496815 -0.1587419 0.027376987 0.045707304 0.09843874 0.020247221 -0.1779944 -0.18232937
-0.1213337 -0.10563077 -0.08284307 -0.14998916 -0.1411072 -0.07158917 -0.15758708 -0.26935208
-0.026011566 -0.1130519 0.028875213 -0.1640148 0.044604003 0.16563793 -0.20023853 0.17622219
0.08693519 0.15843327 0.02580616 0.24301748 0.08518069 -0.017958283 0.19873862 -0.09563446
-0.15166552 -0.23701432 -0.04556428 0.015576327 0.10103841 -0.22070336 0.037808977 0.171543
-0.20057625 -0.24382743 -0.028825754 -0.18231352 -0.042661637 0.13959995 0.031107629 -0.07035578
-0.050900303 0.26197618 -0.035152934 -0.21626142 -0.076433346 0.120171174 0.13366126 -0.012636372
0.32129273 0.11343044 0.12152605 -0.2797637 -0.06518683 0.11479943 -0.037998106 0.011741693

encoder2.1.weight f4 [6]
00000000: a0d0 803f 9361 643f 9537 5b3f bdb5 663f
00000010: b0ef 803f 2a62 833f
1.0063667 0.89211386 0.85631686 0.9012106 1.0073147 1.0264332

encoder2.1.bias f4 [6]
00000000: 9de4 fb3c 430b a9bc 4b39 4d3e 817c 143e
00000010: c059 edbc e104 e3bd
0.03074866 -0.020635253 0.20041387 0.1450062 -0.02897346 -0.11084915

encoder2.1.running_mean f4 [6]
00000000: a3f2 f03d 1b75 96be 1096 b4be 5d33 483e
00000010: 8089 2cbe 8377 c83d
0.11765029 -0.2938622 -0.3527074 0.19550844 -0.16849327 0.0978842

encoder2.1.running_var f4 [6]
00000000: e1ef 373d 1422 dd3e 221d 813d 2851 d33e
00000010: 7b4b ab3d 4c3f 0d3e
0.0449065 0.43190062 0.06304385 0.41272855 0.08364006 0.13793677

encoder_lat1.0.weight f4 [6, 4, 4]
00000000: 9242 fdbd 37bb 3bbe d024 4fbd c100 64bd
00000010: 45b1 ec3d 7f4f 3abd 03bb d5bc 9bf4 5c3e
00000020: b9a9 183e ddb6 c13d f66b e4bd 3645 043c
00000030: 7f61 083e f0bc 593e 73af 9e3d 044b 2d3d
00000040: e40c b13c e936 18bc 9271 093c 4182 cabd
00000050: 4970 d1bd de27 31be abea 73bd 00d3 88be
00000060: 01db 58be c8c1 11bd e800 933e 6c18 49bd
00000070: d775 9a3d 6852 b4bc b639 33bd 19e5 89be
00000080: db33 14bd fc2a 0f3d 611f b5bd 8d94 7ebd
00000090: 1573 013e b83d a23e 390b 9fbd 2661 363e
000000a0: c6fc 20be cc7c 8b3d 2dda 2a3e efe0 c23e
000000b0: 82e6 803c cfb4 2e3e 629a 613e f0bb 59be
000000c0: 0ed3 1ebc f036 a7bc dba8 b3bc cbd6 b63d
000000d0: 3f82 60be 70e4 97be c2b3 f13d 2d14 0fbd
000000e0: d687 e63d ee12 10bd ea44 79be ed0d 0dbe
000000f0: 81c0 8a3d b3c7 70bd 6366 28be 5124 13be
00000100: dfbe 53bd abfe 2abe 4160 80be 15fb 9ebe
00000110: 6b26 9fbc e88e 7abc d31b 573e 7304 a3bc
00000120: d461 6b3e b05d 6bbd abdd 893d f75d 3abe
00000130: aa6b eb3d 29fe 68be 51c8 bd3d 9325 6cbe
00000140: 73a7 603c 49f9 06be a786 993c 54d1 37be
00000150: 6224 ff3c 912f 573e 41c7 6abd 6d57 b83e
00000160: 1499 303b 482b e7bc 42bd 123d 772a 883e
00000170: 84c4 113e 3d90 813d f886 4fbe 91c2 5a3e
-0.12366213 -0.18333136 -0.050572217 -0.05566478 0.11557249 -0.04548597 -0.02609015 0.21577685
0.14908494 0.094587065 -0.111534044 0.008073142 0.13318442 0.2126348 0.07748308 0.04230787
0.021612592 -0.009290435 0.008388894 -0.09888125 -0.10226495 -0.17300364 -0.05954997 -0.2672348
-0.21177293 -0.035585195 0.2871163 -0.049095556 0.075420074 -0.02201195 -0.04375621 -0.269326
-0.036182266 0.034953102 -0.08843876 -0.062153388 0.12641557 0.31687713 -0.077658124 0.17810497
-0.15721425 0.068109125 0.1668479 0.38062236 0.015734915 0.1706116 0.22031549 -0.21263099
-0.009693874 -0.020411938 -0.021931102 0.08927687 -0.21924685 -0.2966647 0.11801864 -0.03493135
0.112563774 -0.035174303 -0.24342695 -0.13774844 0.067749985 -0.058784198 -0.16445307 -0.14369322
-0.0516957 -0.1669871 -0.25073436 -0.31050935 -0.019427499 -0.015292861 0.21006708 -0.019899582
0.22986537 -0.057462394 0.06731733 -0.18199907 0.11495145 -0.22753204 0.09266723 -0.23061208
0.013711798 -0.13181032 0.018740965 -0.17950946 0.031145278 0.21014239 -0.05731893 0.360042
0.002694671 -0.02821888 0.03582502 0.26594898 0.14235121 0.063263394 -0.2026633 0.21363284

encoder_lat1.1.weight f4 [6]
00000000: 0a99 6e3f 95ff 233e 8e97 763f 07ec 9c3e
00000010: e5ce 503f 647b 873f
0.9320227 0.16015466 0.96325004 0.30648825 0.81565696 1.0584531

encoder_lat1.1.bias f4 [6]
00000000: 224d 76be 6d16 cebe af47 c03d fe44 41be
00000010: ff12 6f3d 0a70 193e
-0.24052861 -0.40251485 0.093886726 -0.18873975 0.058367725 0.14984146

encoder_lat1.1.running_mean f4 [6]
00000000: 9ed1 443e 9c5e 47be cfd9 863e bbd9 79be
00000010: 78ce d4bd 0c83 5b3e
0.19220588 -0.19469684 0.2633805 -0.24399464 -0.10390943 0.21436709

encoder_lat1.1.running_var f4 [6]
00000000: 4b85 833d bbd3 9f3d ba40 203f 369c 3c3e
00000010: a985 3c3f b902 fc3e
0.06421908 0.07804056 0.62598765 0.18418965 0.7364145 0.49220827

encoder3.0.weight f4 [6, 6, 8]
00000000: 90a9 643d 13df d6ba c4b3 5dbd 7a83 07bd
00000010: 996e 5a3c d8af 933d d4f6 403e ecb3 973e
00000020: 2dfc cf3d f7b8 09be f2aa 14bd 4c0f a8bc
00000030: a2f4 abbb 5fd9 8c3d 748a c13d 08e0 03be
00000040: f013 c03b 201b 8abd a696 ac3c be87 3cbd
00000050: 7ede d5bb caa8 81bb ba3b 033c ee5a 95bd
00000060: 42e3 46be bb12 50bd 61b5 55bc c326 bfbd
00000070: 5a53 803c 090a 53bd 479c 88bc 1244 db3c
00000080: d922 4bbe e836 103e a50d 98bc c0a9 1a3d
00000090: abf1 b8bd 8b52 b43d 3b0d f5bc 14cd 81bc
000000a0: 2e67 cabd dbf7 2cbc b614 2abe 1741 883d
000000b0: 71d5 2bbd a837 a93d a18a 183d bcbc 103e
000000c0: 9fc6 a4bc d2cd a03d 3fb5 993d 75c5 30bd
000000d0: f7ab 1b3d 553b ca3d 99b6 55bc 73e1 6b3e
000000e0: 5c69 b73d d678 8d3a 83c8 1d3c 1ad3 09be
000000f0: de41 3dbd e415 bfbc 139b 133d 39bf ff3c
00000100: 47e5 9a3c c81d 763a da26 ddbc 0e26 1b3d
00000110: 4543 f93d c4bb f13d 9f43 603e 0731 743e
00000120: 9526 eebb 0cb5 f33c 8b51 2c3d cebb 8c3d
00000130: c3ad c13d e6c0 e4bc 1f08 b4bd 5943 273e
00000140: 9636 c8bd 9729 18be 306e c9bd 9cfc a53d
00000150: 48c5 78bd 6588 643c 39a0 373e 6d36 fa3b
00000160: 1f0a d43d 7346 59bd 428f 283d 6d15 20be
00000170: e3a6 b53d 7689 d0bd a0be 143d bc63 f43c
00000180: 4efb ffbd 432b fabd 434d 983c db0a 09bd
00000190: 8b6e d9bd 732f 0fbe 29a2 11bd a1eb 8bbd
000001a0: a8d2 85bd 3e5f e73d bdf0 09be 60da 04bd
000001b0: a9ce 423d a25d eabd ddd1 3f3d cb7d 8a3d
000001c0: 90fa 27bd acb2 16bd f975 f5bd 08c5 15bd
000001d0: 77a6 03be 55b0 bcbd f75b 1cbe b9ad 93bd
000001e0: 9612 913d 87cf a2bd 3eff c9bb b1b8 50bd
000001f0: 5d43 9bbd 450f c8bd d883 423d 8d1a 8fbb
00000200: 5d39 433d 8173 4bbc d841 b1bd cae8 98bd
00000210: 31b5 9abc 442b 32be 1f59 d8bd 5051 33bd
00000220: 8ac7 103d 760b 1aba c732 413d b072 a4bc
00000230: af92 8d3b 9bc3 0fbe 9744 19be be8a 943c
00000240: 1501 9e3d 7f52 20bd fd6d 623c b63f 80bd
00000250: fc89 1b3d 25b1 073e a6f8 e83d 1d9b 6b3d
00000260: 232c c13d 4f2f a13d ee02 1e3e c9e4 f43d
00000270: b63c 74bd 1ce9 94bd b5d2 25be 6050 b7bd
00000280: 9a5d ce3d f233 cebc 9188 da3c cfe4 09be
00000290: 7de7 6d3d 10c6 d5bb 96c5 4abd 182f 29bb
000002a0: ddbc 803d 2e22 e43d b15f 33be ef93 92bc
000002b0: 046a ca3d 1f15 b5bd 10df 4b3d b245 8c3d
000002c0: e294 283e 0710 513e 3754 a83d 2f23 b6bc
000002d0: ec85 453d c1e2 52bd 205a 22bb 75ca 843c
000002e0: c0e2 063e dcef a73b 98e4 bebd ee1f 3cbe
000002f0: c362 103e 8ba4 ed3c 2aa0 35bd bc16 253e
00000300: 4a51 96bd 20c8 9b3c cc97 11bc 4ec4 10bd
00000310: dbb2 43bd 1389 853c 607b e23c 6352 003e
00000320: 303e 5a3e 0b0a 4ebd 6dfc b73d 2eff 73bd
00000330: 30fa 96bd 5202 1cbe 8077 283c fd24 a7bc
00000340: 23f6 bb3d 8188 a93d 5a2c 183b 6d03 c0bc
00000350: dfbf 383d a6ec 6cbc aaf4 023d 72e9 2d3d
00000360: 41c7 f73d 9371 8d3d 2248 a1bd 2816 1cbe
00000370: ed53 803d 710f 0bbe 90dd c5bc bccd 38bc
00000380: f664 a13c e9ec 703c 2387 e5bd 1977 853c
00000390: 7801 fabd e367 c93c 940e 00be 505f 2f3e
000003a0: dd55 473e 924b 5f3e d5d7 ad3d 42c9 783d
000003b0: 63f8 80bc 7410 23bd e93c 733d f1eb 2a3d
000003c0: 1332 7abd 3bfb f73b 11e1 b73d 13ed e13d
000003d0: 842f 29be f47e c0bd 06cf c0bd 25a3 3bbd
000003e0: fafe ff3d 2c9f ec3d 8b33 353d ff48 603c
000003f0: 044e 973d 4869 6d3e 3a44 6f3e 531c 3b3e
0.05582577 -0.0016393386 -0.054126516 -0.03308437 0.013332033 0.07211274 0.18844157 0.29629457
0.101555206 -0.13449465 -0.03629584 -0.020515107 -0.0052476684 0.06877398 0.09450236 -0.1287843
0.0058617517 -0.06743455 0.021067929 -0.04602789 -0.0065267673 -0.003956889 0.008009845 -0.07292734
-0.1942263 -0.050799113 -0.013043732 -0.09333565 0.015664745 -0.051523242 -0.016676081 0.026765857
-0.19837512 0.14083445 -0.018561194 0.037759542 -0.090304695 0.08804806 -0.029913535 -0.01584486
-0.09882961 -0.01055714 -0.16609463 0.0665304 -0.0419516 0.08262569 0.03724158 0.14134496
-0.020114241 0.07851757 0.07505273 -0.04315706 0.038005795 0.09874598 -0.013044023 0.23035221
0.089556426 0.0010793458 0.009630325 -0.13459435 -0.046205394 -0.023325868 0.036036562 0.031219112
0.018908156 0.0009388593 -0.026996065 0.03787809 0.12171034 0.118033916 0.21900795 0.23846827
-0.007267783 0.029749416 0.042069953 0.068717584 0.094569705 -0.027924012 -0.087906115 0.16334285
-0.097760364 -0.14859615 -0.0983547 0.08104822 -0.060735017 0.013948535 0.17932214 0.0076358826
0.10353493 -0.0530457 0.041152246 -0.15633173 0.08869722 -0.101824686 0.036314607 0.029832713
-0.124991044 -0.12215283 0.018591529 -0.03345762 -0.106167875 -0.13982944 -0.03555504 -0.06832052
-0.0653432 0.11297463 -0.1347074 -0.03243482 0.047560368 -0.1144364 0.046831 0.06762274
-0.04101044 -0.03679149 -0.11985392 -0.036564857 -0.1285647 -0.0921332 -0.15269457 -0.07210869
0.07083623 -0.07949739 -0.0061644604 -0.050957385 -0.07581208 -0.097685374 0.047489017 -0.004367179
0.047662128 -0.012417675 -0.08655137 -0.07466276 -0.018885227 -0.17399317 -0.105638735 -0.043778718
0.035346545 -0.00058763416 0.047167566 -0.020074219 0.0043204646 -0.14039461 -0.14967571 0.018132564
0.0771505 -0.039141174 0.013820169 -0.06262152 0.03797339 0.13251169 0.11375551 0.057520974
0.094322465 0.078703515 0.15430805 0.119577 -0.05962821 -0.072710246 -0.1619366 -0.08950877
0.10076447 -0.025171254 0.026676448 -0.1346619 0.058082093 -0.006523855 -0.04950484 -0.0025815424
0.06286023 0.11139332 -0.17516972 -0.017892806 0.09883502 -0.08841919 0.049773276 0.06849231
0.16463044 0.2041627 0.08219188 -0.022233574 0.04822342 -0.05148578 -0.0024772957 0.01620982
0.13172436 0.005125029 -0.093209445 -0.18371555 0.14100175 0.029009124 -0.044342197 0.16121954
-0.073397234 0.019016325 -0.008886289 -0.03534346 -0.04777799 0.016300714 0.02764672 0.12531428
0.21312785 -0.050302546 0.08983693 -0.05956953 -0.07371938 -0.1523526 0.010282397 -0.02040338
0.09177806 0.08277989 0.0023219795 -0.023439134 0.045104858 -0.014460718 0.03197161 0.04245896
0.120985515 0.06906428 -0.07875086 -0.15242827 0.062660076 -0.13580109 -0.0241535 -0.01127952
0.019701462 0.014704921 -0.11207416 0.016292142 -0.122073114 0.02458567 -0.12505561 0.17126203
0.19466348 0.21806172 0.08488432 0.06073881 -0.01574344 -0.039810613 0.05938426 0.041728918
-0.06108291 0.007567791 0.08978475 0.110315464 -0.16522032 -0.093992144 -0.094144866 -0.045809884
0.12499805 0.11553797 0.04423861 0.013689279 0.07387927 0.23184693 0.2336587 0.18272524

encoder3.1.weight f4 [6]
00000000: 10c0 813f 2937 6f3f 8603 853f 7a79 823f
00000010: e0df 773f ae44 7d3f
1.0136738 0.9344354 1.03917 1.0193322 0.9682598 0.9893292

encoder3.1.bias f4 [6]
00000000: 97cb 88bd 3ec0 19bd a12f febe 4042 003d
00000010: 90d9 b03b ffd1 003e
-0.06679457 -0.037536852 -0.49645713 0.03131318 0.005397029 0.12580107

encoder3.1.running_mean f4 [6]
00000000: 4073 84bd 6331 9f3e fbd2 debe 9bb3 1f3e
00000010: ce2e 303d 78ac 533e
-0.06467295 0.31092367 -0.4352034 0.15595858 0.043013386 0.2067126

encoder3.1.running_var f4 [6]
00000000: f62a 0f3e 0b69 f63d 9bcb 153e a557 da3d
00000010: 43d6 cc3d 08b6 2f3f
0.13981232 0.12031754 0.1462845 0.10661248 0.10001805 0.6863713

encoder_lat2.0.weight f4 [6, 6, 8]
00000000: f6e3 2fbd fb13 d5bd 0fda 403d ad92 f93c
00000010: 76ba 523d b25f 4d3e 2aa1 bc3d 501a 3e3e
00000020: ea20 dfba a6d0 503c c859 e3bc aec2 a4bc
00000030: fb62 3b3d a592 5d3c 9cc5 1c3e 433f de3d
00000040: b7cd e33c 48e6 be3d af8a d43d 77aa a03d
00000050: 343a 13bd c762 db3d 1dd0 19be 471d dabc
00000060: 0007 5fbe 0929 56bd ae5a 1bbe 96a8 83bc
00000070: 54fb 7abd b86d fc3d a7d8 6b3d b983 603e
00000080: 4e7c 0d3d 3a04 153e 7f1e 05bd 8fb8 b83d
00000090: d5cf 013e af87 ca3d 152d 383d 82a7 ad3c
000000a0: 1cc0 19be fb62 88bd d95a 8dbd 8d62 87bd
000000b0: 5215 f6bd e974 9e3d 8c42 e3bc b133 db3d
000000c0: 794b 7bbd 0591 153d 51a8 c0bd 8e79 913c
000000d0: a442 b1bd ec11 98bd 38a3 96bd 3cf9 3abd
000000e0: 5ab8 ba3c 6054 ddbd 28f5 84bd 91ea a4bd
000000f0: 60bb c4bd 2713 d3bd 5681 c6bd 2448 7bbd
00000100: adf4 fd3d 00bb 14bd 3b1c 4c3d a9fe 993d
00000110: 3e0d e53c 0b30 27bd 576e e03d 9c02 e13c
00000120: cebb 70bb 8515 143e 6885 57bd 1e70 97bd
00000130: 7fc5 25bd 3cc7 0cbe f3c8 0dbe 820c 87bd
00000140: 7257 06be ba9b 91bd 4d49 25bd f5d9 393e
00000150: c626 f9bc 7aa3 b1bd 9b76 99bd b3c6 4bbe
00000160: 6779 10be 1869 163e 1560 5cbd 955c 363e
00000170: 4398 5e3c 7fb0 0abd 43f6 c23d 620e e1bd
00000180: f782 d6bc 481c 94bc 4233 f4bc 22c7 193d
00000190: 5565 5f3d 3728 273e c3bf 023e fde6 253e
000001a0: 37b2 773c 3267 0c3d 3196 a0bd 116e 023e
000001b0: cc11 c83d 52e3 e43d 8d8c 303e 56fd 08bd
000001c0: 69e9 1dbc 8e0c f33d 5ed7 5c3c 0689 44bc
000001d0: 040c b23d d67e dc3d c060 873d 71c2 5abd
000001e0: 32a1 6a3c a885 afbc d8c5 72bd 8033 123d
000001f0: 0578 873c 19c8 9dbd dd0c 303c 46b9 453e
00000200: 2f20 153e 8bdc d83d c47d b13d 7dc1 0fbd
00000210: 0187 66bd 3bae 903a af24 47bc be4a 163e
00000220: bfd1 c3bd 265d 8fbd e33a e9bd 101f 81bd
00000230: 64f8 363d 6f37 8f3d e978 e43d e9b6 a73d
00000240: ab85 3abd 18e4 e6bd 8a89 c2bc 22f9 9b3d
00000250: a8e8 2bbe 9be9 fbbb 3ab8 b4bd f557 8fbb
00000260: e580 43be bc95 abbd fe7a 45be da16 74be
00000270: 9e43 82be 7a9a b2bd 2710 34be 58ff 8bbc
00000280: 61fc 0bbe cc26 81bd aad8 f73d 256a 2b3e
00000290: c286 693c 916d 013e b201 ad3d 2217 b3bc
000002a0: 469d 193c 532b 7fbb 3f75 76bd f283 09be
000002b0: ce06 0ebe 5d0d c33d b02a 9abc c616 02be
000002c0: 3139 1b3e f32a bbbd 9d31 85bd 93c3 22bd
000002d0: 8577 d13d aa04 76bd ef3a f43d f14e 813d
000002e0: c759 0d3e 7277 7f3d c0ac 483d c211 64bc
000002f0: da1b a53d 1de5 203d 872a 263e dbb9 f13d
00000300: 1478 103d ba1c f53d f400 093e b792 c43d
00000310: 0f14 f83d 5ee7 573e 791d 0a3c 08c3 5b3e
00000320: 7b2f 90bd 4091 8c3d 5c37 cf3d 2967 6e3d
00000330: 3c63 7ebd 58db fcbd 7b18 1cbd 45d9 bbbb
00000340: 7144 fbbc ade5 fe3d 85a9 2f3e 78b8 d33c
00000350: 1e45 063d 3e75 f83d f300 e13d a1a2 fc3c
00000360: d66f e5bd 8c00 f7bd 8b1a e33d 50c6 c7bc
00000370: e84b 193e 07bf d63d 80e1 8bbd cc58 373d
00000380: 382c fb3d daf6 b0bd 0db7 4e3d 02f3 0e3e
00000390: 3fb8 c43d f7e9 293c 788d e83c 4459 1ebd
000003a0: 926b c0bd acc0 c53c 1ca5 973c 36a3 0bbd
000003b0: 00bf babb 932a cd3d 691e d13b 3da2 d03d
000003c0: 9580 4ebe bbc5 0ebe 12f3 613d e76c 34bd
000003d0: 0db2 c93c 1883 563e a135 3d3e 40fe 273e
000003e0: 6ff9 30bd 48a8 f63d 8528 613d 586a ccbc
000003f0: 3057 0c3e d4f9 953c 34ca 033e 8622 ea3d
-0.04294201 -0.104042016 0.047082957 0.030465448 0.051447354 0.20056036 0.09210427 0.18564725
-0.0017023359 0.012745058 -0.027752772 -0.020112362 0.045748692 0.013523732 0.15309757 0.1085191
0.027808053 0.093212664 0.10378014 0.078450136 -0.03594418 0.107122 -0.15020795 -0.026625289
-0.21780014 -0.052285228 -0.1517131 -0.016071599 -0.06127484 0.12325615 0.057579663 0.21925248
0.034542374 0.14552394 -0.032499786 0.09019577 0.12676938 0.09889161 0.04496487 0.021198038
-0.1501469 -0.06659504 -0.069020934 -0.06610594 -0.12015785 0.077371426 -0.027741693 0.10703219
-0.061351273 0.036515255 -0.09407104 0.017758157 -0.08655289 -0.07425293 -0.0735535 -0.045647845
0.022792984 -0.10807109 -0.06492072 -0.080525525 -0.096060514 -0.103063874 -0.096926376 -0.061348096
0.12400184 -0.03631115 0.04983161 0.07519276 0.027960416 -0.0408173 0.10958546 0.027467065
-0.0036733034 0.14461334 -0.05261746 -0.073944315 -0.04047155 -0.13747877 -0.13846187 -0.065941826
-0.13119295 -0.071097806 -0.04035311 0.1814955 -0.030413996 -0.08673759 -0.07493325 -0.19900016
-0.14108811 0.14688528 -0.05380257 0.17808755 0.013586107 -0.033859726 0.09519627 -0.109890714
-0.026185496 -0.018079892 -0.029809598 0.037543423 0.054539997 0.16323934 0.12768464 0.16201396
0.015118173 0.034278102 -0.07841147 0.127373 0.097690195 0.111761704 0.17241116 -0.033444725
-0.009638169 0.11867629 0.013479082 -0.01199556 0.08693698 0.107663795 0.066102505 -0.05340809
0.0143206585 -0.021426037 -0.05927071 0.035693645 0.016536722 -0.07704181 0.010745254 0.19308957
0.14563058 0.1058894 0.08666566 -0.035096634 -0.056281094 0.0011038253 -0.012154742 0.1467695
-0.0956149 -0.070001885 -0.11388185 -0.06304753 0.044670478 0.06992995 0.11155874 0.08189184
-0.045537632 -0.11273974 -0.023747224 0.07615878 -0.1678797 -0.00768776 -0.08824201 -0.004374499
-0.19092138 -0.08378169 -0.19285199 -0.23836842 -0.25442213 -0.0872087 -0.17584287 -0.01708953
-0.13670494 -0.06306228 0.12101872 0.1673971 0.01425332 0.12639453 0.08447589 -0.021861617
0.009375876 -0.0038935735 -0.06017041 -0.1342924 -0.13869783 0.09524033 -0.018819183 -0.12704
0.15158536 -0.09139051 -0.065036036 -0.039737295 0.10227875 -0.06006304 0.11925303 0.06313885
0.13803779 0.06236977 0.048992872 -0.013920249 0.08061953 0.039281 0.1622716 0.11803027
0.035270765 0.1196837 0.1337927 0.09598296 0.12113201 0.21084353 0.008429878 0.21461117
-0.07040306 0.06863642 0.10117981 0.05820385 -0.062106356 -0.12346524 -0.038109284 -0.0057326877
-0.030672284 0.12446151 0.1715451 0.025844797 0.03278076 0.12131737 0.10986509 0.030839266
-0.11202972 -0.12060651 0.11089047 -0.024386555 0.14970362 0.10485654 -0.0683012 0.044762418
0.122642934 -0.08640833 0.05046754 0.13959888 0.09605455 0.010370723 0.02838777 -0.03865935
-0.093955174 0.024139725 0.018511347 -0.034091197 -0.0056990385 0.10017886 0.006381799 0.101871945
-0.20166238 -0.13942616 0.05516345 -0.04404917 0.024621034 0.20948446 0.18477489 0.16405582
-0.04320663 0.12043816 0.054970283 -0.024953052 0.13705134 0.018307604 0.12870103 0.11432366

encoder_lat2.1.weight f4 [6]
00000000: df28 873f d2ec 593f 56e1 873f 195d 853f
00000010: 58aa b03f e75f 823f
1.0559348 0.85126984 1.0615642 1.0419036 1.3801985 1.0185517

encoder_lat2.1.bias f4 [6]
00000000: 253b 1c3d 11b2 36be f4f4 b7bb ced2 a83d
00000010: 21ed 19be 3fba ce3b
0.038142342 -0.17841364 -0.0056139175 0.08243333 -0.15031864 0.0063088234

encoder_lat2.1.running_mean f4 [6]
00000000: 360a 8f3e 74ae 16be f343 ac3e f938 afbd
00000010: 8c28 c33e 8e70 b03e
0.27937478 -0.14714986 0.3364559 -0.085557885 0.38116872 0.34460872

encoder_lat2.1.running_var f4 [6]
00000000: 3eac c33d f213 243f d6ac 733e 0bdc a03f
00000010: e56e 8e3e 4a59 5f3e
0.09554337 0.64092934 0.237964 1.2567152 0.2781898 0.21811405

encoder4.0.weight f4 [8, 6, 8]
00000000: 16af dc3d cb7c cb3c 6298 f23d 3b93 2cbe
00000010: 52f8 d83b 24b5 4c3d 035f 113e cb1f bc3d
00000020: 14c9 283e 3b4d e23c 3cd3 363d cda1 2b3d
00000030: 6e4f 9c3d 8050 7abd 8d26 ec3d f531 523e
00000040: f85f 503c 1073 01bc a484 943d afc2 c6bc
00000050: 4613 f83d fb10 f73a 1170 79bd 2153 0bbe
00000060: ac8c 423d 7783 f1bd c513 84bd 0e50 09be
00000070: bec4 df3b 6dc0 873d 27c8 343b c9a4 75bc
00000080: 4b7d 243e 9716 163e aec3 0cbd b2c3 cf3d
00000090: 9a77 073e ac85 a4bd 3780 ddbc 9878 ae3d
000000a0: ffc9 8bbd e927 28be 0014 98bc ab16 1bbe
000000b0: 5991 40bd 09ae 03bd d3d5 fbbc 4f11 24be
000000c0: 2c66 343e 410e 843e a3be 57bd adc6 103e
000000d0: 3c2a 0cbc e123 03bd 5561 ae3d 0b77 20bb
000000e0: 60f1 8ebc 2633 063e 3354 9c3d 9682 d23b
000000f0: 325b c83d f49f 923c 540b 883b 2d90 ddbd
00000100: 214a 453c 08ce bc3b 7d44 f9bd 060d f7bd
00000110: f999 1ebe 388e 8a3d 271d be3d 571e 493e
00000120: 745f 99bd 0a42 13bc 60cc 8cbc 27fa 5f3d
00000130: 2a81 a1bd a58b abbd 0e32 ee3c 0dba 18be
00000140: 2a31 473d 6aeb 40be 2ed3 6fbd 7c98 ff3c
00000150: 7ea6 41bc 5279 0d3e 5409 44bd 7d6b 903d
00000160: 5288 2abd 9919 6bbd 3bdc 86bd 79d4 6cbd
00000170: a3e3 ef3c 68f9 99bd 23d3 4ebd 0b5e 38be
00000180: 5cdd ad3c 004a e43d 1a45 00be 415e e03d
00000190: 049b 69bd fd52 f63c 1c3e 0a3d 4eb0 3abe
000001a0: e7f4 813d a105 ef3d 6d6c d83d 0a06 7fbd
000001b0: 9f8a a33b 9f1e 863d a5b2 443d 9dad 57bd
000001c0: d6b6 3c3d c5ea 61be 0e28 953d ebf0 013d
000001d0: 720e ccba 21a8 70bb dc15 363e 227b c83c
000001e0: 8eeb f23d 4b70 923d 9b1e a03d 6b6f 25bd
000001f0: 0a29 92bd 5d22 aebc 39ca 0abe de0f afbd
00000200: 3443 3e3e e8cb e13d 02a7 873d aebd 803c
00000210: 2aa6 e43d bd32 f0bd 0f08 debd deab 90bd
00000220: ce34 9abd 8c3d f03d 4461 b7bc 285a 873d
00000230: 9d34 cfba 2765 f4bc 549a 46be 217a 25be
00000240: 0b2e 0f3e 098e 1c3e 178e c63d 3607 1cbe
00000250: 9fe9 af3d 8af1 ccba 4172 dd3d 8ca0 223d
00000260: 1982 c0bd f4b7 aa3d bf8e 833d b9c3 933d
00000270: b578 86bd f4ac 9b3c 4e10 b7bc 4d91 733d
00000280: 34a8 37bd 07bd 313e aa8f 3a3e 809e 793d
00000290: 7dba 053e fd57 11be 59c8 5e3d 4fa3 033c
000002a0: 84e6 27be 60a9 ebbc 8f5b 153d 66d8 073d
000002b0: 702d 093e c2e2 80bc 71ce 643e a9ce 133e
000002c0: 766c e13d b48d e3bd 3c01 79bd 97fd 033d
000002d0: 00bc 6abd 18d5 163d c65d bebd e741 cf3d
000002e0: 2f61 e5bd 9b35 e63d 0451 113e 7b80 c13d
000002f0: 257d 2c3c baf7 213b 360f 0cbe 27b4 2b3d
00000300: ee7b 2abe 8907 1bbb 1fa6 fb3c f52f a4bd
00000310: 9981 ff3b e615 0c3e e3ce 2f3e d201 8f3d
00000320: 966f 0abe e925 583d 1614 dabd 314c 233e
00000330: 9743 d8bc 7f82 793d f403 313e 012d 7c3d
00000340: 554b 923c a727 403d 32bd bf3d 96ad 3a3c
00000350: 8826 edbc 2ec9 7dbd a18e 203e 6029 d0bc
00000360: b340 4fbe 61a9 32bd 1a3d 05be f86f 933d
00000370: c4cd af3c d90d ef3d ddf4 a23d 4105 963d
00000380: f4c9 07be 2509 da3d 2a2d c1bd 16de 43bc
00000390: 3986 d2bd a1ac 23bd abf3 413d e0df ed3c
000003a0: 4716 9cbd c376 60be 5729 08be 6c2f b1bd
000003b0: a670 e03d 3776 8ebd 74b0 dbbd 336e 313e
000003c0: 17ef d8bd 6cff 8ebd e256 733d 6f05 19be
000003d0: b4db 1bbd 7c4a 0bbe f5af 2c3c d77c 34bd
000003e0: 2490 673d c354 13bd f9d9 0fbd 1dc2 0bbe
000003f0: 48c1 dfbd 1873 f1bd 7895 b83c f6b1 e8bd
0.107755825 0.02483978 0.11845471 -0.16853039 0.006621399 0.049977437 0.141964 0.091857515
0.16482955 0.027624717 0.044635043 0.041902352 0.076323375 -0.061111927 0.115307905 0.2052687
0.012718193 -0.007900968 0.07251862 -0.024262754 0.12113051 0.0018849665 -0.06089789 -0.1360593
0.047497436 -0.11792653 -0.06449083 -0.13409445 0.0068288734 0.06628499 0.002758512 -0.014992901
0.1606342 0.14657055 -0.034366302 0.10144748 0.13229218 -0.080333084 -0.027038677 0.08519095
-0.06825637 -0.16421475 -0.018564224 -0.15145366 -0.047013614 -0.032148395 -0.030741608 -0.16022228
0.176171 0.25792125 -0.05267204 0.14138289 -0.008554991 -0.03201664 0.08514658 -0.0024485018
-0.017449081 0.13105449 0.07633247 0.0064242585 0.09783019 0.017898537 0.004151741 -0.10818515
0.0120415995 0.0057618655 -0.12171266 -0.12063031 -0.15488423 0.06765407 0.09282904 0.1964048
-0.07488909 -0.008987913 -0.017187297 0.054681923 -0.07885964 -0.083762445 0.029076602 -0.14914723
0.04863087 -0.18839803 -0.058551006 0.03120064 -0.01181948 0.13815811 -0.04786046 0.07051752
-0.04163391 -0.05739746 -0.065849744 -0.057819817 0.02928335 -0.075182736 -0.050494324 -0.18004625
0.021223716 0.11146927 -0.1252636 0.109554775 -0.0570326 0.030068869 0.03375064 -0.18231317
0.063455395 0.116709955 0.105675556 -0.06226162 0.00499089 0.06548809 0.04802193 -0.052655805
0.046072803 -0.22062214 0.072830305 0.031723898 -0.001556827 -0.0036721306 0.17781776 0.024472777
0.11861335 0.071503244 0.078183375 -0.04038946 -0.07136734 -0.02125662 -0.13553704 -0.08547948
0.18580323 0.1102522 0.06623651 0.015715446 0.11164506 -0.117284276 -0.10841381 -0.07064031
-0.07529603 0.11730489 -0.022385247 0.06608993 -0.0015808527 -0.02983339 -0.19394809 -0.1615987
0.13982408 0.15288557 0.0969507 -0.15237126 0.085894816 -0.0015635949 0.10812808 0.03970389
-0.09399814 0.083358675 0.06423711 0.072150655 -0.06565992 0.019003369 -0.022346642 0.05946474
-0.044838145 0.17357264 0.18218866 0.060942173 0.13059421 -0.14193721 0.054390285 0.008034541
-0.16396528 -0.028767288 0.03646427 0.033165358 0.1339624 -0.015733127 0.22344376 0.14434303
0.110070154 -0.11111012 -0.060792193 0.032224264 -0.057308197 0.036824316 -0.092952296 0.10119992
-0.11200177 0.11240693 0.14191061 0.09448334 0.010527884 0.0024714307 -0.13677678 0.041919854
-0.16648838 -0.0023655614 0.030718861 -0.080169596 0.0077974317 0.13680229 0.17168765 0.06982769
-0.13519129 0.05277053 -0.10648362 0.15947033 -0.026399417 0.060915466 0.17286664 0.061566357
0.017858187 0.046912815 0.09362258 0.011393925 -0.028949037 -0.061959438 0.15679409 -0.025410354
-0.20239525 -0.043618564 -0.1301159 0.07199091 0.021460421 0.11672563 0.0795686 0.07325221
-0.13260633 0.106462754 -0.094324425 -0.011954805 -0.10279507 -0.039959554 0.04735152 0.029037416
-0.076214366 -0.21920304 -0.1329702 -0.08651623 0.10958986 -0.069561414 -0.10727015 0.17327194
-0.10592478 -0.069823116 0.05940903 -0.14943479 -0.038051322 -0.13602632 0.010539998 -0.04406437
0.056533948 -0.035969507 -0.035119984 -0.13648267 -0.10925537 -0.117895305 0.02253221 -0.11362068

encoder4.1.weight f4 [8]
00000000: 5e6c 7d3f e1f0 813f 74a4 843f ae9e 7d3f
00000010: 4491 9b3f b076 763f 62b8 7b3f 1930 943f
0.9899348 1.0151635 1.0362687 0.9907025 1.2153707 0.9627485 0.9832822 1.1577178

encoder4.1.bias f4 [8]
00000000: c922 5dbe 279a 5dbe 4f86 42be 6829 83be
00000010: 9b83 4bbe 5137 bdbd b926 14be cde8 f9be
-0.215953 -0.21640836 -0.18996547 -0.25617528 -0.19874422 -0.092390664 -0.14467897 -0.48810425

encoder4.1.running_mean f4 [8]
00000000: bc29 7dbd aaee 18be f0f2 f5bd 65d7 b63c
00000010: db83 77bd a89a 31bd 60ad 29bd c42e 02be
-0.06180738 -0.14934793 -0.12009227 0.022319505 -0.06042848 -0.043360382 -0.04142511 -0.12713152

encoder4.1.running_var f4 [8]
00000000: 3880 4c3e 146b 8e3d 5453 de3d cf18 153f
00000010: 1e5d 343e 06c6 273e a129 af3e 777e a73e
0.19970787 0.06954017 0.10855737 0.5824098 0.17613646 0.16384134 0.34211448 0.32713673

encoder_lat3.0.weight f4 [8, 6, 8]
00000000: 931e b93d e115 1abd 190f 96bd 1d0f 08be
00000010: d2a5 c7bd 1a46 df3c c9ef 79bd e0a6 f13c
00000020: bf3d 1cbd 8a35 523d 4728 8cbd 073d 13be
00000030: fa48 283d aad8 45be 54e9 4abe 6f69 83bd
00000040: 7c07 e8bd b059 99bd b81c e43c fa11 d33d
00000050: f341 1bbc 7c0b 22bd 235d 853d 2342 cfbd
00000060: c3ea 933c 2d4c c7bd f3b6 49bd aae6 19be
00000070: b040 c5bd cfae 49be 7948 81be 1451 7fbe
00000080: 52eb 8d3d 3784 003e d452 87bd 5d9c 9f3d
00000090: 9931 373d 2536 a0bd 5a38 4abb f623 a03d
000000a0: 6ff2 fabc 699c dcbd 1dc0 dc3d 69d2 293d
000000b0: 0774 d43c 6eca 5cbd 9068 e83d 3edc e73d
000000c0: 100b d139 ec85 0bbd 010a 853d e497 4dbd
000000d0: e4cc 4539 8cd0 c93d 7b24 853c 4dbd 493e
000000e0: 11b5 ff3b 3064 bd3d 2c79 c03b 0c2c 6e3d
000000f0: 0204 cebd eb1b 55bd e5cd 1f3e 2870 5d3e
00000100: aa6b 443d 073a 0c3d 527f d33c 6463 79bd
00000110: f9f6 e43c 6f4f b4bd f574 60be e231 03be
00000120: 2dd3 8abd b867 3ebd fd2f 08bd 8329 973d
00000130: 891f 9c3c 39ee c83d 9fde 283e 1eb0 8e3d
00000140: 4b98 913c 00d7 dbbd 1988 1fbe b8e4 cebd
00000150: 99ed 683d c85f 383b fd6a d0bd 1622 083e
00000160: aa4a bdbc 0291 0d3d 34ea d8bd 24a5 b8bd
00000170: 87cb 0e3e 5aaf 42bd d4c1 1e3e fcd7 93bd
00000180: d5e6 75bc 7962 0a3d f123 f83d 9d18 a0bb
00000190: 23d1 733c 48d7 4d3d d3cb 033e d544 083e
000001a0: e5ef b3bd 354e 18bd 1b84 55bd ea76 5c3d
000001b0: 8bd0 963d b37d 533d e16d f7bc 35c5 673e
000001c0: cef2 8a3d 9fa4 afbd 773e 41bd 0c70 a7bd
000001d0: 5fa8 09be 7fac 493d fdd4 41be 2835 1bbd
000001e0: b561 74bd 51c3 10bc 8527 72bd 47db 90bd
000001f0: bf1a 883d 28f3 4abb 4d30 283b d437 013e
00000200: bbcf f8bd 36b1 e5bd e452 57bc 8ad3 243d
00000210: cabf 0ebc 6232 efbb 05ab 12bd ede0 9abc
00000220: ac9c bfbd fbfa 56be a356 88bd 3da6 9abb
00000230: c966 6bbc cb46 0e3e fd50 173e 1da1 463e
00000240: 54d5 023d 27c6 d1bc d0b0 47bd de87 60bd
00000250: 71f4 bfbb 44ed 983d bf7c 24bd d277 973e
00000260: 7d1e bfbd cc85 733c b9ff 0c3d 5af2 6ebd
00000270: f340 dcbc 1da6 5e3c 76f8 1c3e 9a04 233e
00000280: fcd5 ae3d d345 4abe f37e 973c d45e 45be
00000290: 09c3 6ebc 1c7e 043e 04f1 36be cd6b 8ebd
000002a0: 7832 18be d3b2 c23d 5a58 d03d 1d89 a13d
000002b0: f061 b73b f29b 463b 3d04 f13d dacd 173b
000002c0: dd08 90bc a2b5 29be 2233 66bd 9e88 843d
000002d0: b33b dfbc 6603 a23c 941a 5e3b 096d b83c
000002e0: 52f9 11bd 2137 193e b8d4 93bd 0908 b2bd
000002f0: cd31 83bd 724e 323e f4c7 0dbd b576 1a3e
00000300: dddb df3d 6c73 82bb 4969 43bd 1a08 b7bd
00000310: d619 cabd e8ac a83d 9259 64bd 590d dd3c
00000320: bdd1 ae3c ea71 6c3c fc10 30be 7b64 8e3c
00000330: 3dab 95bd 6882 af3b 900a 3dbd 89b8 72be
00000340: 629d 05be d47f 03bd c206 893d f959 d8bb
00000350: 93fb 8bbc 486e 473d 0488 94bc 3ea3 5bbd
00000360: 592b b23d 1e22 25be 4b1b a4bd ce51 97be
00000370: 6b75 d7bd 1692 d7bd ca38 bdbd 4e77 dcbd
00000380: ec8c 9f3d aedf a53d 7977 62bc 9a8c 4bbc
00000390: ad4e 823d 142c 0abd 599a 57bd 7d56 a3bd
000003a0: b09e 1d3d 89b8 aa3d 0697 2abd 70a9 51bc
000003b0: 9d26 223e 7abe d9bc a1b4 5dbd ffe3 283e
000003c0: 47a4 46bd dbc6 813c 8f4c 08be 779d bcbd
000003d0: ee73 47bd 56c4 d7bd 9297 b4bd a2c4 1ebe
000003e0: 6bc4 38be e651 0e3d 747a 71bb 19ae d6bc
000003f0: 5551 e73c da57 36be 2b4e f5bd 0a1d 733b
0.09039035 -0.03761852 -0.073270984 -0.13287015 -0.097484246 0.027255107 -0.061019693 0.029498518
-0.038144823 0.05132059 -0.0684362 -0.14378749 0.04108522 -0.19320932 -0.1981557 -0.06416594
-0.113295525 -0.0748781 0.027845725 0.10306163 -0.009476173 -0.039561734 0.06511905 -0.101200365
0.018056279 -0.09731326 -0.04924674 -0.15029398 -0.09631479 -0.1969559 -0.25250605 -0.24933273
0.069296494 0.12550436 -0.06607595 0.07793496 0.044725034 -0.07822827 -0.0030856342 0.07819359
-0.03063318 -0.1077202 0.1077883 0.04146043 0.025934232 -0.05390399 0.11348069 0.11321305
0.0003987183 -0.034063265 0.06496049 -0.050193682 0.00018863712 0.0985423 0.016252747 0.19701119
0.007803567 0.09247625 0.00587382 0.058147475 -0.10059358 -0.052028578 0.15605886 0.21624815
0.04795424 0.034235027 0.025817547 -0.060885802 0.027949797 -0.08804213 -0.21919616 -0.12811998
-0.0677856 -0.046485633 -0.03324889 0.073809646 0.019058006 0.09811062 0.16491173 0.069671854
0.017772814 -0.10734367 -0.15579261 -0.101022184 0.056867216 0.0028133262 -0.101766564 0.13294253
-0.023106892 0.03456212 -0.10591546 -0.09015873 0.13944827 -0.04753051 0.15503627 -0.0721893
-0.015008648 0.033785317 0.1211623 -0.0048857466 0.014881405 0.050254136 0.12870722 0.13307507
-0.087859906 -0.03718396 -0.05212794 0.053824343 0.07363995 0.051633548 -0.030203762 0.22633822
0.067845926 -0.08576321 -0.04717871 -0.08175668 -0.13443135 0.04923677 -0.18928905 -0.03789249
-0.059663493 -0.00883563 -0.05911972 -0.07073074 0.066457264 -0.0030967686 0.0025663555 0.12618953
-0.121489964 -0.11215441 -0.013142321 0.040240802 -0.008712718 -0.0072997073 -0.03580763 -0.018906081
-0.09356055 -0.20994179 -0.0665715 -0.004719524 -0.014367768 0.13894193 0.14776988 0.19397397
0.031941727 -0.025607182 -0.048752606 -0.054817073 -0.005857997 0.0746713 -0.04015803 0.29583603
-0.09331987 0.014863443 0.034423564 -0.058336593 -0.026886439 0.013589409 0.15329155 0.15919724
0.08536908 -0.19753198 0.018493151 -0.19274455 -0.014572867 0.12938732 -0.17865378 -0.06954155
-0.14863002 0.09506764 0.10173102 0.078874804 0.005596392 0.0030305353 0.117683865 0.0023163469
-0.017582351 -0.16573194 -0.056201108 0.0647137 -0.027250146 0.019777011 0.0033890354 0.02251293
-0.03563816 0.14962436 -0.07218307 -0.08692939 -0.06405983 0.17412737 -0.03461452 0.15084346
0.109306075 -0.0039810445 -0.04770783 -0.08937092 -0.09868209 0.08236104 -0.055749483 0.026983904
0.021340245 0.014431456 -0.17193979 0.017381897 -0.07308052 0.005356122 -0.04615265 -0.23703207
-0.13048318 -0.03210433 0.06690742 -0.0066025225 -0.017087733 0.048689157 -0.018131264 -0.053622477
0.08699674 -0.16126296 -0.08013018 -0.295546 -0.105204426 -0.105259106 -0.09239347 -0.10764943
0.077905506 0.08099304 -0.01382243 -0.012423659 0.063626625 -0.033733442 -0.05263743 -0.07975481
0.038481414 0.083359785 -0.041647933 -0.012796745 0.15835042 -0.026580084 -0.05412734 0.16493224
-0.04849651 0.015841892 -0.13310455 -0.092097215 -0.048694544 -0.10535495 -0.08817972 -0.15504697
-0.18043678 0.034746073 -0.003684667 -0.026206063 0.028237024 -0.1780695 -0.119778 0.0037096166

encoder_lat3.1.weight f4 [8]
00000000: 7d82 573f e434 5a3f 7d72 2a3f 4925 df3e
00000010: 19f1 b13e a9a6 673f b318 fc3e 89a3 023f
0.84183484 0.85236955 0.66580945 0.43583134 0.34754255 0.9048868 0.49237594 0.51030785

encoder_lat3.1.bias f4 [8]
00000000: ac4b 553c aa5c 323d b2b0 bbbc 92fe d2bd
00000010: eb06 eebd fd5e 453d c3e3 b7bd 8a7f b2bb
0.01301853 0.043545403 -0.022911403 -0.10302462 -0.11622413 0.04818629 -0.08978989 -0.0054473327

encoder_lat3.1.running_mean f4 [8]
00000000: 9683 a0bd 0867 143e 9516 123e 15e7 353e
00000010: 1858 20bd 5c90 c1bd f162 603e 5f3f f73d
-0.07837598 0.14492428 0.14266427 0.17763932 -0.039146513 -0.094513625 0.21912743 0.12072634

encoder_lat3.1.running_var f4 [8]
00000000: c9b9 b83f a8ec 253f 14ac 043f 2e41 2d3f
00000010: 6151 4c3f 2047 1f40 0b1d b73f 44b9 983e
1.4431697 0.64814234 0.5182507 0.6767758 0.79811674 2.4887161 1.4305738 0.29828846

encoder5.0.weight f4 [8, 8, 16]
00000000: c24a 613d 3c81 2b3d 011a 8bbc 9543 b13d
00000010: a63c 0a3d 7f51 583d f03e aabd 9d89 2fbd
00000020: ece0 ed3c 88e9 b63c fc5e cbbc ba05 56bd
00000030: 980e a63c 5e5c 8cbd 1ee8 40bd 33f3 5ebd
00000040: e866 22be 020e 62bd 617a 6bbc 069b 4a3d
00000050: bf6c 4dbd 9a61 a2bc 44d5 e43b c5aa 9cbd
00000060: 06b0 073d a78c b3bc 4701 7f3c 9616 2a3b
00000070: d471 a63c 777c e0bc dfbb 313e 0647 1e3e
00000080: 74ab b43d 3d06 a53b 28e9 db3d 608a 983c
00000090: 455a 91bc 1104 14be 4e4b bbbd 5535 41bd
000000a0: e687 59bc 0f56 663d 7e8c 34bd 95ea 43bd
000000b0: c68b 373d 5d26 013d 11ad e73d 25ec bb3d
000000c0: e347 a83d b6d3 db3d 08c1 3d3d 7a22 c73d
000000d0: cceb 173e 464d 383b 15df 97bd 410a 913c
000000e0: 14ee 063c 3cab 493d bea8 a8bd a05e b8ba
000000f0: d785 43bc 7c01 523d f70f babd c3d9 f9bd
00000100: a804 59be 54ef 00be 1e02 ebbd 1701 11be
00000110: b1e6 01be 70dd 38bd e14a 1cbe e650 03bb
00000120: 7a57 7bbd 5e28 7cbd f3b2 023d c894 74bd
00000130: 08ef ecbc 8468 3f3c 4528 723d 89c5 d239
00000140: e0ab 073e 43a5 473d 8cfd 943d 2f7c 8e3c
00000150: a86a 2cbd fd69 f33c f28f 613c 28bd c93c
00000160: ac62 04bc ba0d 3e3c 3e4e de3c 9667 a3bc
00000170: b592 57bc d66d 003e 9f32 ba3d 0183 0d3e
00000180: fdc4 e7bd 5874 003d b344 09bc f97a b9bd
00000190: ab4f 883b 67df 3fbd b7af 6d3c 95ff 28bd
000001a0: 13a0 473d c908 1cbd 9e4e d1bc d369 c53d
000001b0: 7aa5 8e3c ad03 9c3d 4383 7d3d 1ed9 c93d
000001c0: a98a 623d 34fb a73b a277 a13d f3d6 0f3d
000001d0: c71a ae3d 4993 a4bc 46a2 423d ce51 863d
000001e0: 80df 90bc ba9f b73d da3f 9cb9 d8b4 d1ba
000001f0: 266c 023e a16a ba3d 3c91 e93d a53e da3d
00000200: fbc5 3dbd e345 dcbd ef90 8cbd e999 58bd
00000210: b8b4 61bd 4607 08bd e82d 713d f0b1 863d
00000220: d393 3fbc 9971 883d f238 5abd f293 ca3d
00000230: be0b 0a3d 110e 4c3d f162 9d3c 1b5d c33d
00000240: 3308 793d 13a9 803c 53ce cd3c a5f5 3a3d
00000250: 627a 2f3d ee86 d53d 28e1 e03d 6698 543d
00000260: 2a58 ed3d 8119 a13d 2502 e73c caea 2bbc
00000270: c9fc ccbc c883 03bd e1a9 0dbe cd7a 1ebe
00000280: a652 02be 380a 7c3b 4ac0 193b 7e9b e2b9
00000290: 5456 bebc aaa3 863c c83a 30bd 729d 103d
000002a0: 4b2d 4fbd a642 16bd f964 8f3d 6bee 46bd
000002b0: 9e5a 77bc 1f09 3d3d 3274 a0bb 2091 fbbd
000002c0: f0c3 6ebd 19cc aebd e1df 90bb 5adf 89bd
000002d0: c198 0ebd f4c2 ccbc b620 87bd 5177 71bd
000002e0: bd95 043d e61d 4dbd 61a3 a63b 10d5 903d
000002f0: eb8e 02bd 48ea 083d 940a dd3b f6c9 1d3e
00000300: 26b2 0c3d 6529 eb3d 2aa6 e13d ec19 e6bc
00000310: 6962 f13c 9cb8 663d c716 193a 75ff 98bd
00000320: 2dfd 90bd 61c1 d8bc 752d 13bd ac8a 923d
00000330: 8ebc 893d edfe 313d 540c 5e3d 15b0 013e
00000340: c5a5 8cbc 6d91 83bd 6054 823d 147f 07bd
00000350: d906 fc3c 8d11 2e3d 5027 3b3d f92f 95bd
00000360: 6b52 33bd 1d5b 89bd 40c1 cdbd fc77 ebbd
00000370: af49 7cbd a044 c8bd b8c3 b5bc 3115 08bd
00000380: 56e2 cc3d 37ce 94bc d9d7 113d c015 563d
00000390: 54e6 72bd 1287 043d a8e3 bd3d 665f cc3c
000003a0: 7c6d 453d 8c15 c93d 02b0 16bc 283e e0bc
000003b0: 893c b0bd 99b8 b1bd 8ff4 c2bd de05 e0bd
000003c0: 0126 ff3c 70d5 523c c554 1cbb 1c9a 2cbd
000003d0: 224c 733c 9300 b9bd 9496 bbbc f80d 8e3c
000003e0: 4524 c3bc 4c89 053d e7b7 55bd bcda 61bd
000003f0: d5ab bcbd 4fd7 e8bd 3fd5 19be 0da9 59be
0.055002935 0.041871294 -0.016980173 0.086554684 0.033749245 0.052812096 -0.083127856 -0.042855848
0.029037915 0.022328153 -0.024825566 -0.052251555 0.02027063 -0.06853555 -0.047096364 -0.05443115
-0.15859568 -0.05518914 -0.014372439 0.049464248 -0.050152536 -0.01982193 0.006983431 -0.07649759
0.033126853 -0.021917654 0.015564269 0.0025953404 0.02031795 -0.0274031 0.17356823 0.15456781
0.088217646 0.005036144 0.107378304 0.01862067 -0.01774324 -0.14454676 -0.091452226 -0.047170002
-0.01327703 0.056234416 -0.044079296 -0.047831137 0.044811033 0.031530727 0.11312307 0.091759
0.08216836 0.1073374 0.046326667 0.09723373 0.14836043 0.002812223 -0.074155964 0.017705085
0.008235473 0.049235567 -0.0823531 -0.0014066286 -0.011933765 0.051270947 -0.09085076 -0.12199738
-0.21193182 -0.12591296 -0.11475013 -0.14160572 -0.12685658 -0.045133054 -0.15262939 -0.0020037233
-0.06136272 -0.061561935 0.03190894 -0.0597122 -0.028922573 0.011682633 0.059120435 0.00040201496
0.13249159 0.04874159 0.07274923 0.0173932 -0.042093903 0.029713625 0.013767229 0.02462633
-0.008080166 0.011599952 0.027136918 -0.019946855 -0.013157536 0.12541899 0.090916865 0.13819505
-0.113168694 0.031360954 -0.008378196 -0.09056658 0.004159888 -0.046843912 0.014507226 -0.041259367
0.048736643 -0.038094316 -0.025550183 0.09639325 0.01741289 0.076178886 0.06189276 0.09855865
0.055308018 0.0051263813 0.07884146 0.0351171 0.08501201 -0.020089762 0.047518037 0.06558572
-0.017684698 0.08966012 -0.00029802212 -0.001599933 0.12736568 0.09102369 0.114046544 0.1065648
-0.046331387 -0.10755517 -0.068635814 -0.052881155 -0.055103987 -0.03321006 0.05888167 0.06576908
-0.011692959 0.06662292 -0.053276964 0.098914996 0.033702604 0.049818102 0.019212218 0.09539243
0.060798835 0.01570562 0.025122797 0.04564442 0.042841323 0.104261264 0.10980445 0.05190315
0.115890816 0.078661926 0.028199265 -0.01049299 -0.025022881 -0.0321081 -0.13834335 -0.15476532
-0.1272684 0.003845824 0.002346056 -0.0004322193 -0.023234524 0.016435463 -0.04302481 0.0353064
-0.050580304 -0.036684655 0.07001681 -0.048567217 -0.015097288 0.046151277 -0.004896664 -0.1228354
-0.05829233 -0.08535022 -0.0044212197 -0.06732054 -0.034813646 -0.024995305 -0.06598036 -0.05895168
0.032369364 -0.05007734 0.0050853943 0.070718884 -0.03187458 0.033426553 0.006745646 0.15409073
0.034349583 0.11482505 0.110180214 -0.028088532 0.029465871 0.0563284 0.0005839881 -0.074705996
-0.070795394 -0.026459398 -0.035932023 0.07155356 0.06725417 0.043456007 0.054210976 0.12664826
-0.017168889 -0.06424222 0.063637495 -0.033080176 0.030764984 0.042497206 0.04569179 -0.07284541
-0.04377977 -0.067068316 -0.10046625 -0.114974946 -0.061593708 -0.09778714 -0.022188053 -0.033223335
0.10004108 -0.018164737 0.03560624 0.052266836 -0.05930169 0.032355376 0.092719376 0.024947833
0.048200116 0.09818563 -0.009197237 -0.027373388 -0.08605296 -0.08677787 -0.09519302 -0.10938619
0.031146051 0.01286827 -0.0023854238 -0.042139158 0.014849694 -0.09033313 -0.02289895 0.017340645
-0.023821006 0.03260164 -0.052177336 -0.055140242 -0.09212462 -0.11369192 -0.15022753 -0.21255894

encoder5.1.weight f4 [8]
00000000: 96ff b83e 05e9 123f 6cc5 263f 3e0c 293e
00000010: 8099 043f eae2 4b3f 90cd 9f3e 5063 dd3e
0.36132497 0.5738681 0.6514499 0.16508576 0.5179672 0.7964312 0.3121152 0.43239832

encoder5.1.bias f4 [8]
00000000: dd45 ac3d 3a35 1f3e 985d 233d ff2a 8e3d
00000010: 6465 3bbd f26d 913d e895 543e dd82 953d
0.08411763 0.15547648 0.03988418 0.069417946 -0.04575099 0.071010485 0.2076031 0.07300351

encoder5.1.running_mean f4 [8]
00000000: 7b60 5cbe db8b 993e dbd8 a1bd 5baf 453e
00000010: 4b28 46be 63b0 a3bd 176f 843e 0696 86bd
-0.2152118 0.29989514 -0.0790269 0.19305174 -0.19351308 -0.079926275 0.25866005 -0.065715834

encoder5.1.running_var f4 [8]
00000000: d5e1 b23f 867d a93f 9b79 0640 b7c3 593f
00000010: 1701 5d3f 871b 0a40 1cbb 8e3f c3f8 143f
1.3975168 1.3241432 2.1011722 0.8506426 0.8632979 2.1579301 1.1150851 0.5819208

encoder_lat4.0.weight f4 [8, 8, 16]
00000000: ab80 a23d 36be 8e3d 9993 b7bc 803e d236
00000010: 75a6 a7bc c29e 063c faeb 87bd 8d2c 7d3b
00000020: 0ef9 3dbd 8a6b f23c 68e6 d0bc 2dc3 8c3d
00000030: 2d92 953d 0211 4a3d da03 673d 8444 cbbd
00000040: e66d 40bd 4148 7fbc 9121 533d 9b13 91bd
00000050: d5b4 b03c d07b 353c ab21 b03c b502 9fbc
00000060: 1528 013d 85dc 7abc 82f3 3e3d 09a3 ac3d
00000070: 42aa b33d 3fec df3d ea76 913c 258c c93d
00000080: 266b b83d 1f2e 39bd 749f b3bc 8328 663d
00000090: c817 65bd 962c 24bd ea6d ac3b 8662 013c
000000a0: c625 42bd 87df 6ebd e3f4 e1bd 2420 80bd
000000b0: 9405 f43d 19d8 b13c 0e71 c9bc d17c 403e
000000c0: fea2 2bbd 8447 7e3c de0c df3c 3195 853c
000000d0: 8654 573c fa38 79bd be46 033d 1237 96bd
000000e0: 825d 90bd d041 6bbd 5e55 9abd e7e0 bfbc
000000f0: 4d14 1abd a18c 893c 375d 94bd f4f0 adbc
00000100: 81bf 1abe 649f 14be 3956 dbbd 8883 26bc
00000110: c001 a6bd 16ab 88bd 3f29 a2bd 1a48 1bbe
00000120: 52be 8fbd f678 31be 5136 32bd 86b4 56bc
00000130: c552 5bbd e55a 88bc 7a75 3fbd a272 f3bd
00000140: ce57 9f3d 9649 0d3d b1fe 8fbc fcfa 3cbc
00000150: ba74 cd3c 85b3 923c d1cb 153d 929d 88b9
00000160: 35f6 833d afad 21bc 9171 673d 122b c63b
00000170: 2bc1 c33d 9334 58bc dc36 593d b92d 7c3d
00000180: 1bf9 febd 508b f3bd 4446 54bc 93b5 0abe
00000190: 3042 0cbe 52a3 1d3b 9587 8f3c ba66 e2bd
000001a0: dd48 2bbd b8f7 3b3b a69d d8bd 8d1c 31bc
000001b0: 8035 923c d89e 783c 62d8 0c3d ba0b d13d
000001c0: 0498 33be 960d 99bd 60bd 51bd 6346 e53c
000001d0: 386f 8abd 1ed1 9b3d cb73 d43d 00b9 713d
000001e0: e4c4 5b3c fbee c5bc 204a a23d 9590 473d
000001f0: 2feb 95bd 351b ebbc 71c7 f43d d994 c83d
00000200: 2e3b 393c b270 42bb 6a30 8cbd cfec 86bc
00000210: 1f35 3e3c 4a4f cfbd 62a8 88bb d567 db3c
00000220: 9f06 1cbe a7af f4bd 273c d0bc 53cf 12be
00000230: 54c9 abbd c9e2 48be 11fd 73be 1a34 49be
00000240: e836 4cbd 85b4 dc3d 53ea 6d3a 2cd3 473d
00000250: 79a4 d23d e220 68ba 71f0 7cbb e937 363c
00000260: 8494 733d 9da5 81bc cd3f a8bd 5408 1e3d
00000270: da16 f3bc 8034 403d 1947 743d f715 a0bd
00000280: 95e6 0a3c dc50 6abc 9a7a b1bc 2b31 0c3d
00000290: 38c6 1f3d 1dbc b23d 2c58 b13d 2f70 0c3d
000002a0: a35a 10bb fd2f ee3d 6efd 0b3e 3ed0 473d
000002b0: 95b8 ac3a bbf6 703d 0314 de3c 2454 993d
000002c0: ec09 16bd b014 8b3d 3be9 b73b 569e 40bd
000002d0: ce25 893d bc56 c8bd 719d 6abd 9465 83ba
000002e0: 9ea8 0ebe fb6e b6bd 1a62 58be 3caf 14be
000002f0: 59fd 65be e64f e6bd e8f3 1bbe 453a 01be
00000300: b283 e63c 30e7 773c e223 683d 8366 e6bc
00000310: 07bd f63d 4b7b 103c 1da0 9cbc 9408 6a3c
00000320: 5aa1 8e3d f593 853d 86ee 3c3d 3a14 e03c
00000330: b94e a73c b69e ce3d 8675 933d 9ae9 c6bc
00000340: 6420 d3bd 01bc febd 78ad af3c 78ff 233d
00000350: 4903 293d e331 54bd 2cb5 be3c bb8c 593d
00000360: 08ab 33bd f0ed 90bd f7de bc3d ce17 c43d
00000370: fba9 653c 082f b3bd f8d9 aabc f79b efbd
00000380: 8a24 28be 1c23 dabb 9515 9abd 3262 f0bd
00000390: 7d0e 1fbd ff3f a7bd 4145 433d 7cb7 4ebd
000003a0: 85a8 30bc add0 b23d 3681 1a3e d499 4a3c
000003b0: 7036 803d 0169 cc3c 908e 453c 78fd 7d3c
000003c0: 9567 163d fe60 1b3d 52b4 05bd bed1 f83c
000003d0: c08c 063d 0f4f 0bbd ae79 27bc 84c0 89bb
000003e0: 0dec 7e3c 5c48 eabc b65b cd3c ba46 773c
000003f0: c92f 0c3c 6c7f 603b e8a1 a5bb 917f f3bd
0.07934698 0.069698736 -0.022409247 6.2657637e-06 -0.020465115 0.008216562 -0.06636806 0.003863129
-0.046380095 0.029592294 -0.025500491 0.06873164 0.073032714 0.049332626 0.056400158 -0.09925178
-0.046979807 -0.0155811915 0.051545683 -0.070838176 0.021570602 0.0110768825 0.02150043 -0.01941047
0.031532366 -0.015311365 0.046618946 0.08429534 0.087727085 0.10933732 0.017756898 0.098411836
0.09004812 -0.04521 -0.02192662 0.05619098 -0.055930883 -0.040081583 0.005262126 0.007897025
-0.047399305 -0.05831864 -0.110330366 -0.0625613 0.119151264 0.021709489 -0.024590041 0.18797614
-0.04190349 0.01551998 0.027227815 0.016306492 0.013142711 -0.060845353 0.032049887 -0.073347226
-0.07049085 -0.05743581 -0.07535814 -0.023422671 -0.037617017 0.01679069 -0.07244342 -0.02123306
-0.15112115 -0.14513928 -0.10709805 -0.010163195 -0.081058025 -0.06673257 -0.07918023 -0.15164223
-0.070187226 -0.17331299 -0.04350883 -0.013104564 -0.053545732 -0.016644904 -0.046742894 -0.11887099
0.07780419 0.034494005 -0.017577501 -0.011534449 0.025080074 0.017907867 0.036571328 -0.0002605734
0.06443445 -0.00986807 0.05650479 0.006047615 0.09558328 -0.013196128 0.053030834 0.061567042
-0.12449857 -0.11891806 -0.012956206 -0.13545828 -0.13697124 0.0024053645 0.017520705 -0.1105475
-0.041817535 0.0028681587 -0.10576944 -0.01081003 0.017847776 0.01517459 0.034386046 0.10207315
-0.17538458 -0.074732944 -0.051205993 0.027987665 -0.067594945 0.07608245 0.10373648 0.05901432
0.013413642 -0.024161806 0.079242945 0.04872187 -0.07320248 -0.028699497 0.11952103 0.097940154
0.011305613 -0.0029669222 -0.06845172 -0.016470341 0.011609345 -0.10122545 -0.0041704634 0.02678291
-0.15236901 -0.119475655 -0.025419308 -0.143369 -0.0838801 -0.19617762 -0.23827006 -0.19648781
-0.04985705 0.10776619 0.00090757495 0.048785374 0.10285277 -0.00088549976 -0.0038595463 0.011121728
0.059467807 -0.01582604 -0.08215294 0.03858216 -0.029673982 0.046925068 0.059638117 -0.078166895
0.008477827 -0.014301505 -0.021664906 0.034226578 0.039007396 0.08727286 0.086593956 0.034286674
-0.002202668 0.11630247 0.13670895 0.04878258 0.0013177568 0.05882905 0.027109152 0.07486752
-0.036630556 0.06791055 0.00561252 -0.047026 0.06696664 -0.09782168 -0.057279054 -0.001002478
-0.1393151 -0.089078866 -0.21131173 -0.14519972 -0.22459926 -0.11245708 -0.15229762 -0.12619884
0.02813897 0.015130803 0.056674846 -0.028125053 0.12047773 0.008818458 -0.019119317 0.014284272
0.06964369 0.06522361 0.04612591 0.027353395 0.02042328 0.100888655 0.0720015 -0.024281312
-0.103089124 -0.12438203 0.021445021 0.040038556 0.0412629 -0.05180539 0.023279749 0.053112727
-0.04386428 -0.07076633 0.09222215 0.09574853 0.014017577 -0.08749205 -0.020855889 -0.1169967
-0.16420189 -0.0066570174 -0.07523648 -0.11737479 -0.038832176 -0.08166503 0.047673468 -0.050467953
-0.010782366 0.08731208 0.15088353 0.012365777 0.06260383 0.024952414 0.012057915 0.015502326
0.036719877 0.037934296 -0.03264267 0.03037345 0.032849073 -0.034010943 -0.010221882 -0.004203858
0.015559209 -0.028598957 0.025068145 0.015092546 0.008556315 0.0034255637 -0.005054701 -0.11889566

encoder_lat4.1.weight f4 [8]
00000000: e759 173f 515a 623f 38a9 723f 17dc 393f
00000010: f5f1 f93e 6854 313f 153b 573f 39de 523f
0.59121555 0.8841906 0.9478946 0.72601455 0.4881741 0.6926942 0.8407453 0.82370335

encoder_lat4.1.bias f4 [8]
00000000: 7421 1a3e 417b 733d 9cc0 88be a482 0abd
00000010: fcb2 24be 298e 5e3e adbf d2be 8b6f 913d
0.15051824 0.059443716 -0.2670945 -0.033815995 -0.16083902 0.21733917 -0.41161862 0.07101353

encoder_lat4.1.running_mean f4 [8]
00000000: 06bf 9abd 69bd ac3e 743e 86bd 54f4 cbbd
00000010: 5eff 463e ac34 1bbe 8f6b 0cbe 53cd e93e
-0.07555966 0.33738258 -0.06554881 -0.09958711 0.19433352 -0.15156811 -0.13712905 0.45664462

encoder_lat4.1.running_var f4 [8]
00000000: ee2d 8c3f 5428 9540 ff82 b23f 0f48 ad3f
00000010: eacf ed3f 4a49 943f aeaa fb3e f88e 9e3f
1.0951517 4.661173 1.3946227 1.3537616 1.8579075 1.1584866 0.49153656 1.2387381
