Models/IAE/cnn_test_joint.pth (torch, 68133 bytes, 55 tensors)

encoder1.0.weight f4 [4, 3, 4]
000000 9b 5b 27 be 5a 09 6f 3e 87 4e 9c 3d 46 54 45 be
       -0.16343538 0.23343411 0.076321654 -0.19270429
000010 f6 4d 2f be 61 06 98 3d ef 48 a2 be 3c 14 7b be
       -0.17119583 0.07423092 -0.3169627 -0.24519438
000020 5a 2d 0b be f3 c6 dc 3d 74 87 e4 3d 0e b2 ab bd
       -0.13591519 0.10780134 0.11158648 -0.083835706
000030 3e c8 67 3e f4 5c 45 3e cf 5a b1 bd 31 4e 50 be
       0.2263498 0.1927374 -0.086598985 -0.20342328
000040 75 f7 69 bd e1 08 5d be ff ab 8a 3e 22 59 95 bd
       -0.05712076 -0.21585418 0.27084348 -0.07292391
000050 18 36 83 3e 07 9e 09 3e 13 9d d6 3d 60 9e 90 bd
       0.25627208 0.13439189 0.10479178 -0.07061458
000060 32 2b 72 be f3 33 a4 bd 00 9f 06 3e 4a 3e 77 3e
       -0.2364929 -0.08017721 0.13146591 0.24144855
000070 6b bc 69 be fa 33 34 be 16 17 19 3e 18 8b 3c 3e
       -0.22825782 -0.17597952 0.14950213 0.18412435
000080 6f 1d 3d 3e 58 db 5a 3e f2 ad 84 3e 0f 76 81 be
       0.1846826 0.21372736 0.2591396 -0.25285384
000090 fe ad 30 be e6 69 93 3e 84 7a 05 be df b6 3e be
       -0.17253873 0.28791732 -0.13035017 -0.18624447
0000a0 26 4f 52 3e 67 d4 90 3e 80 6a 6c 3e 97 45 02 be
       0.20538005 0.2828705 0.23087502 -0.12721859
0000b0 28 6d 84 bc ab 82 05 3d 28 01 3d 3e 9e b3 01 3d
       -0.016165331 0.032595318 0.18457472 0.031665437

encoder1.1.weight f4 [4]
000000 a5 7f 78 3f 7d 16 84 3f a2 b4 7e 3f 73 9f 80 3f
       0.9706977 1.0319363 0.99494374 1.004866

encoder1.1.bias f4 [4]
000000 d6 ad c3 bc e0 2a f6 bc 1c 6e 40 3d 44 dd 0c bc
       -0.023886602 -0.030049741 0.04698001 -0.008597676

encoder1.1.running_mean f4 [4]
000000 8a 82 7a bc 29 0b 7e 3d 32 32 5a 3d cd 87 b3 3c
       -0.015289912 0.062022362 0.053270526 0.02191534

encoder1.1.running_var f4 [4]
000000 4d 8d 20 3b cb e5 5f 3b fe c0 2c 3b 5a 32 3a 3b
       0.0024498284 0.0034164067 0.002636015 0.002841136

encoder2.0.weight f4 [6, 4, 4]
000000 37 69 a5 bb 96 41 3f 3e 61 dd 5b be 6e 6a 3c be
       -0.005047943 0.18677363 -0.21471168 -0.18399975
000010 92 26 cb bd 25 d4 e8 bc 9c 3e 60 3e 50 b2 98 bd
       -0.09919466 -0.02842147 0.21898884 -0.074558854
000020 12 82 57 3e a7 71 a1 bd 74 1b 4b be f0 75 50 be
       0.21045712 -0.078830056 -0.19834691 -0.2035749
000030 da 3d 17 3d 98 1a 3f bc 6b ec 28 be dc b7 a6 3c
       0.03692422 -0.011664055 -0.16496436 0.020351343
000040 4f 2c 19 3e 44 5e 08 3e 0a c9 f4 3d 8f f0 4d 3b
       0.14958309 0.1331721 0.11952408 0.0031423902
000050 99 00 28 3e b4 5f 76 be 90 9c 7f 3d 3d 94 77 3e
       0.16406478 -0.24059945 0.06240517 0.24177642
000060 41 61 62 3e 75 fe 4c 3c 79 ba 36 be 1e b6 80 3e
       0.22107412 0.012511839 -0.17844571 0.25138944
000070 50 ed c1 3d c9 1b 0b 3e a7 d3 f9 3d c2 da d6 3d
       0.09469092 0.13584818 0.121985726 0.104909435
000080 4f b2 57 3e eb 9d 00 3e 49 4c d9 3c ee 3c 72 be
       0.21064113 0.12560241 0.026525633 -0.23656055
000090 1b e7 05 be cf 70 dc bc 40 e6 42 be 1c 9d 9e bd
       -0.13076441 -0.02690926 -0.19033146 -0.0774481
0000a0 dc 02 38 3e 7c a7 8c b9 e8 d1 9b bd f7 91 e6 bd
       0.17969841 -0.00026827666 -0.07608396 -0.11258309
0000b0 1f f1 03 3e c6 0a d9 3d 1e 85 0f be b1 af 3e bd
       0.12884949 0.10597758 -0.14015624 -0.04655427
0000c0 09 4d 80 bd 43 36 08 3e f4 e8 7a 3d 48 ad bd 3d
       -0.06264693 0.13301949 0.061257318 0.092615664
0000d0 86 65 48 3e bd eb 34 be b5 20 60 be e7 f1 66 3e
       0.19569978 -0.17668052 -0.21887477 0.22553216
0000e0 65 ad 62 be ca 1b 15 bd b4 ae 5c 3e f7 0c 4e be
       -0.22136457 -0.036403455 0.21551019 -0.20122133
0000f0 68 49 2c be 77 3a 7d 3e 3a 4c fc bb e7 9f 5b 3e
       -0.16824877 0.24729334 -0.0076995166 0.21447717
000100 11 79 d9 bd 9a 14 dc bd 85 01 2d 3e 2e 75 42 be
       -0.10618795 -0.10746117 0.16895111 -0.18990013
000110 02 9d e5 3d 36 5d c0 bd b8 e2 5c bc 45 c6 21 3e
       0.112115875 -0.093927786 -0.013481788 0.1579829
000120 6b 27 41 3c 5a 48 20 be 5d f1 61 3d c5 16 4e be
       0.011789183 -0.156526 0.055161823 -0.20125873
000130 98 f7 07 be f6 af 20 be d1 fc 99 bc 85 48 19 be
       -0.13278043 -0.15692124 -0.01879731 -0.1496907
000140 e4 99 44 3e e9 8e 30 bc 50 c7 c5 bd 96 31 5c be
       0.1919933 -0.01077626 -0.096571565 -0.2150329
000150 1a 87 3e be 76 ff 8e 3d cb be 64 be b3 d0 73 3e
       -0.18606225 0.06982319 -0.22338407 0.23810081
000160 3e e7 63 be e8 49 d5 3d 30 6c 88 3c 4c ef fb 3d
       -0.2225618 0.10414487 0.01665315 0.12301502
000170 8c 62 32 3e a5 84 83 3d 84 de 66 3e eb 51 ac 3c
       0.17420405 0.06421784 0.2254582 0.021035155

encoder2.1.weight f4 [6]
000000 cd 0a 79 3f c1 8d 7e 3f dc 47 77 3f b2 8f 7e 3f
       0.97282106 0.9943505 0.96594024 0.9943801
000010 c2 41 80 3f ef f2 83 3f
       1.0020068 1.0308512

encoder2.1.bias f4 [6]
000000 27 45 43 bc 3c 58 ea bc 8e 15 a0 3c 71 dd d0 bc
       -0.011918343 -0.028606527 0.019541528 -0.025496216
000010 46 a1 2f bc 2a a1 ae bb
       -0.010719603 -0.005329271

encoder2.1.running_mean f4 [6]
000000 18 c3 9d bd 01 8a 22 3e 39 d7 f9 bc 27 d8 55 3c
       -0.07703227 0.15872957 -0.030498134 0.013052023
000010 2c c7 b8 bd a9 76 25 3c
       -0.09022364 0.010099092

encoder2.1.running_var f4 [6]
000000 ae 97 90 3d 7d a3 e6 3e c2 6f 1f 3e 9a 95 8c 3d
       0.070601806 0.45046607 0.15569976 0.06864472
000010 32 d1 4c 3e 5b 97 62 3e
       0.20001677 0.2212805

encoder_lat1.0.weight f4 [6, 4, 4]
000000 9c d6 0b be b5 10 04 be 66 27 dd 3d 33 08 e7 bd
       -0.13656086 -0.12896998 0.1079853 -0.11280861
000010 54 68 85 3e 08 ea cd bd 93 f8 ee bc 88 e0 8b 3d
       0.2605616 -0.100544035 -0.029171264 0.06829935
000020 6a 11 d4 3d 4e 7a 91 3d 1b fd 2e be 00 28 13 3e
       0.10354884 0.07103406 -0.1708874 0.14370728
000030 8a 2e 70 bd 2a d7 36 3e 4b b3 44 be 8c d2 94 ba
       -0.058638133 0.17855516 -0.1920902 -0.0011354252
000040 d3 95 43 be 43 b1 7d bd 54 22 ad bc 3a d8 06 be
       -0.19100122 -0.061936628 -0.021134533 -0.13168421
000050 69 24 58 3e ce 12 9b 3e d5 55 85 bd 1e 6f 2c 3e
       0.2110764 0.30287784 -0.06510512 0.16839263
000060 8b cf 4b 3c bc 75 f9 3d bb c5 1d 3e ad 01 83 bc
       0.012439619 0.12180659 0.1540746 -0.01599201
000070 26 ff fc 3d 85 7f 3e 3e 14 94 32 bd 47 43 83 bd
       0.12353353 0.18603332 -0.04359825 -0.064093165
000080 d9 ca 4d bc 36 14 23 3e 1e 3c 33 be a5 08 c5 bd
       -0.01256057 0.15925679 -0.17503402 -0.096207894
000090 fc 84 b4 bd da df 58 3e d6 9a 12 be 52 aa 2a 3e
       -0.08814427 0.21179143 -0.14316878 0.16666535
0000a0 32 53 3c 3c b2 62 11 3e 22 58 18 3e a7 20 28 3d
       0.011494445 0.14197806 0.1487737 0.041046765
0000b0 b1 f0 c1 bd 09 3d 66 be 3c d8 0e 3d f2 87 15 3e
       -0.09469736 -0.2248422 0.034874186 0.1460264
0000c0 15 c3 2d 3d ee ff 4a 3e 27 01 ca bd c4 d7 59 be
       0.042422373 0.19824192 -0.09863501 -0.21273714
0000d0 7a ca 92 3d 57 ba 93 3d 94 e9 61 3c 88 96 98 3d
       0.071675256 0.07213276 0.0137885995 0.074505866
0000e0 a9 d0 0d be f7 2d 09 be 48 d7 38 be 5e e1 af 3d
       -0.13849129 -0.1339644 -0.18050873 0.08587907
0000f0 55 2e 86 3e c7 46 04 bd 34 6b 78 3e 13 aa 42 3e
       0.26207224 -0.03229406 0.24259645 0.1901019
000100 61 c9 de bd 41 b7 d2 3d c5 d3 0e 3e e1 98 1c be
       -0.10878254 0.10288859 0.13947971 -0.15292694
000110 ba 4b 53 be 56 d8 30 be f4 18 b0 3d c2 9e 39 3e
       -0.20634356 -0.17270026 0.085985094 0.18126968
000120 3e cc 3b 3e 33 4e 36 3d 9c e5 e2 bd 59 e5 ae bd
       0.18339631 0.04450817 -0.11078951 -0.08539838
000130 45 c5 25 3e f5 37 63 3c d3 31 72 bc ef 09 8b 3d
       0.16188534 0.013868322 -0.014782387 0.06789004
000140 4a a2 91 3d 44 94 10 be e8 0b 88 3d 26 c6 20 3e
       0.07111032 -0.14119059 0.06642896 0.15700588
000150 cb ee b9 3d 08 e0 12 be 9b 88 8a 3e c0 60 a8 bd
       0.09078749 -0.14343274 0.27057347 -0.082215786
000160 12 07 69 3e c7 b5 b8 3d b5 5b 7b 3e 15 9a 20 be
       0.22756603 0.09019046 0.24546702 -0.15683778
000170 5f 12 bf bd 4d af 8d 3d 9a 60 00 be ba fa 2c 3d
       -0.09329676 0.069182016 -0.1253685 0.0422313

encoder_lat1.1.weight f4 [6]
000000 6e c0 84 3f 9e 81 77 3f 8d 82 78 3f 81 4c 89 3f
       1.0371225 0.96682155 0.97074205 1.0726472
000010 12 e1 83 3f 34 31 72 3f
       1.0303061 0.9460633

encoder_lat1.1.bias f4 [6]
000000 97 5e d5 3c 98 ee ac bc 09 09 26 bd 35 ae 2c 3d
       0.02604608 -0.021109864 -0.04053596 0.042158324
000010 ab 4d 1e 3c 46 2d 8d bc
       0.009662072 -0.017233502

encoder_lat1.1.running_mean f4 [6]
000000 f5 69 e4 3b 82 a8 9f 3d e8 6e 30 3d 10 b5 01 3c
       0.006970639 0.07795812 0.04307452 0.007916704
000010 30 2c d7 3b 96 fc ba 3d
       0.006566547 0.09130208

encoder_lat1.1.running_var f4 [6]
000000 14 cb c9 3d b7 3c 52 3f ea 9f 3c 3e 20 46 b7 3e
       0.09853187 0.82123893 0.18420377 0.3579569
000010 88 ca 41 3d 86 f4 68 3e
       0.04731229 0.22749528

encoder3.0.weight f4 [6, 6, 8]
000000 64 09 b7 bd 1f 52 d2 bd 51 27 cd 3d 0b 13 e3 bd
       -0.08937338 -0.102695696 0.10017265 -0.110876165
000010 d0 c4 99 3d 6d 01 64 bd 57 1c a1 bd 8a ce 3d 3d
       0.07508242 -0.055665422 -0.078667335 0.04633955
000020 4c 17 ac 3d ba ae a3 3c 4f e2 0f 3e f6 f0 9d 3d
       0.08402881 0.019980777 0.14051174 0.07711975
000030 42 11 04 3e 65 1d 58 bd 11 e5 a8 3d 48 ef 08 bd
       0.12897208 -0.052762408 0.08246816 -0.03343132
000040 1c bc 52 3c ca 00 11 3e 20 f2 0d 3e c4 23 fa 3d
       0.012862232 0.14160457 0.13861895 0.12213853
000050 33 ac b7 bd 35 a7 94 bd b3 71 c7 bd 13 a9 e0 bd
       -0.08968391 -0.07258455 -0.09738483 -0.10969748
000060 56 54 c5 3c 8c 62 1e bd 9c b5 12 bd 32 d0 a5 bd
       0.024088066 -0.0386682 -0.035817727 -0.08096351
000070 69 b8 9e 3d 3d 85 c0 3b 74 90 d5 bb 89 c2 b0 3d
       0.07750017 0.0058752582 -0.0065174643 0.08630855
000080 e3 d4 0e be 3c 12 29 bd 8f 45 0f be c5 4b 32 3d
       -0.13948397 -0.041277155 -0.13991378 0.04352929
000090 37 6f ce bd a3 1a c7 bd b5 13 b0 3c 37 81 8f 3d
       -0.10079806 -0.097218774 0.021493772 0.07007068
0000a0 ca 57 05 be 6c cf 9b 3d fc 5b 8b 3d c7 cf 80 bd
       -0.1302177 0.07607922 0.06804654 -0.062896304
0000b0 ec 8e b9 bd 10 50 fc bd b4 1b 36 3a a8 ed 23 3d
       -0.09060463 -0.12319958 0.0006946877 0.04002157
0000c0 65 a5 1f 3d 4a 6d e7 bd 58 b3 d4 bd 34 7a d3 bd
       0.038976092 -0.11300142 -0.103857696 -0.10326043
0000d0 21 6a f9 3d 25 ba f6 3c de 15 c7 bd 95 63 ca bd
       0.121784456 0.030118058 -0.09720968 -0.09882275
0000e0 ee 15 f9 3c ee 34 34 3c a3 e3 bf bd c9 08 37 bc
       0.030405965 0.010998948 -0.0936959 -0.011171528
0000f0 3e 2a a2 bd 4a a4 5b bc d0 23 12 3e c2 34 8b bd
       -0.07918213 -0.013405869 0.14271474 -0.06797172
000100 02 45 b4 3b 3f b0 44 bd 6e ee fa bd fd c2 8e bd
       0.0055013904 -0.048019644 -0.12252508 -0.06970785
000110 d7 e7 bc 3c b8 88 e8 3c e8 81 9e bd c5 6c 67 3d
       0.023059769 0.028385505 -0.077396214 0.056500215
000120 e8 dc 01 be ed c0 2b 3d 00 44 8f bd 23 d0 b6 bd
       -0.12681925 0.041932035 -0.06995392 -0.08926418
000130 e5 28 1e b9 f5 77 01 3d a9 6e b0 bd 47 9d 02 3e
       -0.00015083289 0.03160854 -0.08614857 0.12755309
000140 1a 89 3d bb 94 1a d8 3d 2d 4b b9 3d 15 32 f1 3c
       -0.002892083 0.105519444 0.09047542 0.029442826
000150 34 80 87 3c a5 11 d9 bd e1 07 b3 3d f8 eb f3 3d
       0.016540624 -0.105990686 0.08741737 0.11910242
000160 81 37 7e bc 86 c7 17 3e cd 16 d1 bb 3d 7b 9b 3d
       -0.015516163 0.14822206 -0.006380892 0.07591865
000170 db 54 2f 3d 34 33 9c bd 28 94 15 3e 11 8e 1e 3e
       0.042805534 -0.07626954 0.14607298 0.15483882
000180 8a 84 00 3e bf 4d bb bd d0 f0 00 ba f6 b9 3d 3d
       0.1255056 -0.09145688 -0.00049186964 0.046319924
000190 3b 74 b4 3c 22 74 c4 3d 4e 63 51 bd b9 57 d1 3d
       0.02202808 0.09592463 -0.051120095 0.1022181
0001a0 dc 68 01 3e d3 12 82 3d 0a fe e3 bd 6c 8e 45 3d
       0.12637657 0.06351247 -0.111324385 0.048231527
0001b0 bc 5d 1f 3e 67 17 8f bc 34 df 16 bd 71 a6 76 bc
       0.155631 -0.017467214 -0.036833957 -0.015054331
0001c0 3c 6d 19 3e 7f e7 e1 3d 09 b1 a5 bd 92 45 8c bd
       0.14983076 0.110304825 -0.080904074 -0.06849207
0001d0 02 e2 00 be 72 a0 d2 bd bb 0a 01 3c ad 3b 07 be
       -0.12586215 -0.10284509 0.0078760935 -0.13206358
0001e0 bb 7b 23 3d cd 0f 0a 3d f9 37 27 bd 3a dc fd bc
       0.03991292 0.033706475 -0.040824864 -0.030988801
0001f0 a8 54 d3 bd ef 1e 22 bc 68 8c 67 3d a3 bd 06 3e
       -0.10318881 -0.00989507 0.056530386 0.13158278
000200 cf 46 bd bd 40 0a 20 bc 2c d7 90 3d 9e aa a7 3d
       -0.09242021 -0.009768069 0.07072291 0.081868395
000210 a6 6c 03 3e 6b bd 7e 3d 1a 39 14 bd 1b ba a7 3c
       0.12834415 0.06219236 -0.03618727 0.020474484
000220 f1 5f 0e bd dc 84 cb 3c 46 90 69 bd cc 02 bc 3d
       -0.034759466 0.024843626 -0.057022355 0.09180221
000230 71 7f c9 bd 45 22 08 3e 74 ea f3 3d b1 2f c5 3c
       -0.09838761 0.13294323 0.11909953 0.024070593
000240 58 5a 07 3e 2f 07 9e bd 35 7b 61 bd d8 32 80 bc
       0.13218057 -0.07716214 -0.05504914 -0.015649244
000250 a4 ff ab 3d ec 46 ae 3c 73 d6 5e bc 5d ef 1c bd
       0.08398369 0.021274053 -0.013600933 -0.038314212
000260 27 41 fb 3d 3a 81 14 3e fa 23 82 3d e6 b3 76 b9
       0.12268286 0.14502421 0.06354518 -0.00023527406
000270 f8 75 c8 3d a5 77 ae bb d8 38 d7 bd e4 e1 2e bd
       0.09788126 -0.0053243213 -0.10508889 -0.042695895
000280 06 9d aa bd 89 a7 da bd 5d 2e 81 3d fa 15 54 bc
       -0.08330731 -0.10676486 0.06307671 -0.012944693
000290 19 3e 6f 3d f6 a9 64 bb 52 9c 95 bd e6 1d 0c 3e
       0.05840883 -0.0034891344 -0.07305206 0.1368328
0002a0 4c 31 f0 3d 56 82 b3 bd fc 31 84 bd 38 98 2b 3c
       0.11728153 -0.08765094 -0.06454846 0.0104733035
0002b0 5e b2 86 bd 38 65 ae 3d 3b da bb 3d 78 b5 c7 3b
       -0.065769896 0.085154 0.091724835 0.006094631
0002c0 a7 eb da 3d 42 52 68 3d ea b8 11 be e6 2f 04 be
       0.10689478 0.056719072 -0.14230695 -0.12908897
0002d0 49 75 61 bc 48 75 0c 3d 7f 3f ab bd f2 5c 03 3e
       -0.013760873 0.034291536 -0.0836172 0.12828425
0002e0 3e 2c d9 3d bd 7d ad 3a 64 30 c8 3c a1 51 07 be
       0.10604142 0.0013236325 0.024437137 -0.13214733
0002f0 eb 2b aa 3d 02 11 9e 3d f0 e8 d4 3c a7 77 e4 3d
       0.08309158 0.07718088 0.02598998 0.111556344
000300 53 5a 61 bc f1 ef 04 3b 1d d5 dd bd 93 cd 2f 3d
       -0.013754445 0.0020284618 -0.10831664 0.04292066
000310 26 4e 2f 3d 53 84 ac 3c 60 a8 18 bd 2d 9d e3 bd
       0.042799138 0.02105919 -0.03726995 -0.11113963
000320 b3 3f b2 bd 18 34 07 be 18 1e b6 3d 80 95 48 3d
       -0.08703556 -0.13203466 0.08892459 0.0489707
000330 cf b6 c6 3d cd b4 87 3d 09 bf dc bd 24 59 f7 bc
       0.09702837 0.06626282 -0.107786246 -0.030193873
000340 eb 3f 98 3d 4d d8 de bd 40 4e 8b 3d d8 aa 33 bd
       0.074340664 -0.108811 0.068020344 -0.0438641
000350 65 45 39 3d 01 e5 e3 bc c9 76 a8 b9 e9 a6 d2 bd
       0.045232195 -0.027819159 -0.0003213196 -0.10285742
000360 cb 1b 81 3d 69 74 d7 bd 4d ff b1 bd 29 9e 81 bd
       0.06304129 -0.1052025 -0.08691273 -0.06328995
000370 10 cb 00 be fd 18 e9 bd 17 5e bd bc 00 14 30 be
       -0.12577462 -0.11381719 -0.023116155 -0.1719513
000380 cd 03 eb bc 50 3d 24 b8 6b b7 99 3d 60 e8 1e bd
       -0.028688336 -3.915775e-05 0.07505687 -0.03879583
000390 ad e9 88 3d fe cb 66 3d d8 e6 6b 3d 11 7d 6e bc
       0.06685195 0.056346886 0.057593197 -0.014556185
0003a0 41 44 96 3d 1d 67 8c bd ed 07 70 bc 49 cf 04 be
       0.07337237 -0.06855605 -0.014650327 -0.12969698
0003b0 a8 c7 f3 3d 0e 77 73 3d e1 5b 6a bd d2 64 ad 3c
       0.11903316 0.05943971 -0.05721653 0.021166239
0003c0 f5 5f 65 bc 7c 36 8e 3d ea e3 c5 3d cc 11 55 bd
       -0.013999929 0.06943986 0.09662612 -0.052018926
0003d0 f9 fe da bd 29 46 cb 3d fc e2 e5 3c 9b b9 b4 bd
       -0.106931634 0.09925491 0.028062336 -0.08824464
0003e0 d6 18 df bc ba b8 50 bd d9 52 20 3d 7b 6c ad bc
       -0.027233522 -0.05095742 0.03914151 -0.021169892
0003f0 11 21 de bd 7e 96 08 be 9c 9e 73 bd 46 3a a0 3d
       -0.10846151 -0.13338658 -0.059477434 0.07823615

encoder3.1.weight f4 [6]
000000 ed 88 7b 3f 0d de 7d 3f f4 d8 83 3f 77 4d 7b 3f
       0.9825581 0.9916695 1.0300584 0.98165077
000010 f9 e0 81 3f 68 9d 7b 3f
       1.0146781 0.9828706

encoder3.1.bias f4 [6]
000000 1f 21 01 3a 86 35 89 bb f4 8d 2d bd 18 88 8d bc
       0.0004925895 -0.0041872887 -0.042371705 -0.017276809
000010 53 84 0a 3d 98 cf 5e bb
       0.0338176 -0.0033998247

encoder3.1.running_mean f4 [6]
000000 c8 72 89 bd 85 e0 3e bd 7a 3c 6f 3d 5e 65 2a 3d
       -0.06711346 -0.046600837 0.058407284 0.041600578
000010 18 18 a8 bd 07 68 dd 3c
       -0.082077205 0.027027143

encoder3.1.running_var f4 [6]
000000 ce fa 99 3e ce aa f1 3d 85 b9 71 3d 86 09 83 3e
       0.3007416 0.118001565 0.059014816 0.25593203
000010 dc 9c 9c 3e 61 14 a3 3e
       0.30588424 0.31851485

encoder_lat2.0.weight f4 [6, 6, 8]
000000 dc eb bc 3d ff cb 05 3e 6b 11 2c bd 59 ba 70 bd
       0.09224674 0.130661 -0.0420088 -0.058771465
000010 a5 10 e4 3d 3e 95 9a bd 09 e6 bf 3d f8 c7 a8 bd
       0.11135987 -0.07547997 0.093700476 -0.08241266
000020 ce 86 18 bd 3d f4 a7 3d c6 39 46 3d 60 97 07 be
       -0.037237935 0.08200882 0.04839494 -0.13241339
000030 ab e6 11 be 42 a4 c9 3d 58 40 f3 bd 71 92 ee 3d
       -0.14248149 0.09845783 -0.11877507 0.11649025
000040 37 c3 cc bd 7f b2 1b bb c0 11 22 3d 8c a1 c1 bc
       -0.09998172 -0.0023757515 0.03956771 -0.023636602
000050 29 d4 ef bd b0 0b 21 bc a0 2f 80 3d 81 c4 bf 3b
       -0.11710388 -0.009829447 0.06259084 0.0058522825
000060 ab f3 3d 3d f4 dc bc bd 1f 7a 54 3d a3 21 4e 3d
       0.046374958 -0.09221831 0.051874276 0.050325047
000070 16 37 16 be fd 1c d9 3d 17 ac 0b bd 95 18 5d 3d
       -0.14669451 0.10601232 -0.034099665 0.05397852
000080 17 48 64 3d 17 1d d4 bc 8a 4b 2d 3d c2 e5 ae 3d
       0.055732813 -0.025892777 0.042308368 0.085399166
000090 48 06 c3 3d a8 1f 1b 3e 9f 28 89 bd 26 f7 d2 3c
       0.095226824 0.15148795 -0.06697201 0.025752615
0000a0 c3 89 90 3d 54 95 8e bc 1a 25 40 bc 05 54 c4 3d
       0.07057526 -0.01740519 -0.011727596 0.09586338
0000b0 b2 ce 1b 3e 01 14 cc 3d 92 93 2e 3e 7d 66 fe 3d
       0.15215567 0.09964753 0.17048481 0.12421892
0000c0 7d f6 03 3e f7 84 50 3c ef 0c aa 3d 83 87 13 bd
       0.12886997 0.012727014 0.08303248 -0.036017906
0000d0 2e 11 ba 3d bc a9 a1 bc 95 4d 1e 3d 0c fd 93 bd
       0.09085308 -0.019734256 0.038648207 -0.07225999
0000e0 04 1a 17 3d 79 f6 68 3d 07 56 ac 3d 92 c7 9e 3d
       0.036890045 0.05687568 0.08414846 0.07752909
0000f0 ac 72 f3 3d ce 80 ec bd 3f 57 1b 3e e9 d5 e3 3d
       0.11887106 -0.11548005 0.1517 0.111247845
000100 df 5f 06 be 49 98 09 3e 44 5e d2 3c 4e f1 87 3c
       -0.1312251 0.13436998 0.025679715 0.016594555
000110 71 63 92 3d f9 e1 b3 bc 43 a1 4a bd c4 bc 1e 3e
       0.07147873 -0.021958338 -0.049470197 0.15501696
000120 36 09 65 3d d5 10 1f 3d 6f 50 4a bd bf 98 13 3e
       0.055916987 0.03883441 -0.049393114 0.14413737
000130 7b a6 10 3e 8e 04 8d 3c 46 56 bf 3d cb 51 2c 3e
       0.14126007 0.017214086 0.09342627 0.16828077
000140 57 76 97 bd 6a 7e 12 bc f8 e5 a7 bd dc f9 13 3e
       -0.073956184 -0.008941272 -0.0819816 0.14450783
000150 71 c6 22 3e f0 0b a6 bd 6b c4 11 3d e7 1d 6c 3d
       0.15896012 -0.08107746 0.03558771 0.057645705
000160 26 30 92 3d 01 72 f4 bc 03 ec e0 bc 9d 0a 85 bd
       0.0713809 -0.029839518 -0.02745629 -0.06496165
000170 9c 46 25 3e d5 d7 76 3d d7 88 d4 bc a9 c9 a3 3d
       0.16140217 0.060264427 -0.025944157 0.07997448
000180 e8 2b be bd 22 31 9a 3d 2e 71 ec 3d d1 67 bf 3d
       -0.09285718 0.075289026 0.11545025 0.09345973
000190 1f a0 b0 3d f6 92 a6 bc f1 72 06 3e a5 8f c2 bc
       0.08624291 -0.020333748 0.13129784 -0.023750136
0001a0 0e 98 2a bd 2d 53 fe 3d 08 8c 67 bd d4 1a 81 3a
       -0.041648917 0.12418208 -0.05653003 0.0009849914
0001b0 7e 99 a1 bd 11 cc b0 bc e0 3c e9 bc 04 1b 8d 3d
       -0.078906044 -0.021581681 -0.02847141 0.068899184
0001c0 30 cc ec bd c7 83 e6 bc 97 12 a3 bd d2 60 09 3d
       -0.11562383 -0.028139008 -0.0796253 0.0335396
0001d0 68 d7 88 3d cb 94 5e bd d0 47 c9 3d 05 af 13 be
       0.066817105 -0.05434112 0.0982815 -0.14422233
0001e0 3b 07 59 bd 9a c8 37 bd 73 e1 f6 3d e6 da 02 3e
       -0.05298541 -0.044869043 0.1205472 0.12778816
0001f0 cf 07 12 bc 61 fc b7 bc dd c0 9e bd c5 d4 5e bd
       -0.0089129945 -0.02245921 -0.077516295 -0.05440213
000200 e0 82 14 3d 92 a8 70 3c 62 2f 83 3d 31 15 aa 3d
       0.036257625 0.014688628 0.06405522 0.08304823
000210 29 78 79 bd bd 50 63 bd e3 37 9c 3d fb 27 b9 ba
       -0.06090561 -0.05549692 0.07627847 -0.0014126295
000220 19 a9 8e 3d 9a a0 f3 3d 40 35 5a bd 73 66 e4 bc
       0.069658466 0.11895867 -0.05327344 -0.027880883
000230 b0 18 35 3e 98 bc 36 bd 85 7f 1d 3e f4 3b fd 3d
       0.17685199 -0.04461345 0.15380676 0.12364951
000240 42 fd de 3d e7 11 7c 3d c4 ba f1 bc 00 30 c8 3d
       0.10888149 0.06154051 -0.029508002 0.0977478
000250 5c 4b 0a 3c 9e 28 1f bd 3b 92 71 3d 34 68 c9 bd
       0.008440819 -0.038857095 0.058977347 -0.09834328
000260 69 39 b0 3b ec 82 89 bd db 57 06 3e 7f b6 4e bd
       0.0053779376 -0.067144245 0.13119452 -0.05046701
000270 8a b7 51 bc a9 52 49 bd 3c 45 a3 bc 4c 5c e5 3c
       -0.012800107 -0.049151096 -0.019930474 0.027998112
000280 ba e5 94 bd 2e 01 71 bd b4 7c d9 3d f5 32 dd bd
       -0.07270379 -0.058839016 0.10619488 -0.10800735
000290 20 c8 a6 3d f4 81 f0 bd 2f 46 72 bd 72 6b 7a 3d
       0.081436396 -0.117435366 -0.059148964 0.061137624
0002a0 32 29 da 3c c3 5e aa 3c 21 1c d5 3d 80 5f cf 3d
       0.026630972 0.020797139 0.10405756 0.10125637
0002b0 f8 da b9 3d 26 fa 78 bd cc 4c b3 bd 91 ac 52 bd
       0.09074968 -0.060785435 -0.08754882 -0.051434103
0002c0 61 58 d9 bd 49 d4 0d 3d cf 52 36 bd c5 4c 95 3c
       -0.1061256 0.03462628 -0.044512566 0.018225083
0002d0 4c a1 0e be f1 ab 51 3d 9d 52 66 3c 8f 99 10 be
       -0.13928717 0.051189367 0.0140577825 -0.14121078
0002e0 7d 33 3b 3e da e4 06 3e 6a ad ab 3d c2 e9 82 3c
       0.1828136 0.13173237 0.083826855 0.015980605
0002f0 1e 85 21 bd 9e 80 81 bc 81 7f da bc 8e aa ba bc
       -0.03943359 -0.0158084 -0.026672127 -0.022786405
000300 da d7 a6 3d 8e ec 36 3c 0e 9b 81 3b 95 9c a5 3d
       0.08146639 0.0111647975 0.0039552515 0.08086506
000310 21 ce aa 3d f4 e1 15 bc dd 19 c5 bd df 25 14 3d
       0.08340097 -0.00914811 -0.09624074 0.03616893
000320 8b 9b cf 3d 53 bc 13 bd 85 d2 39 3a 1a d2 5a bc
       0.10137089 -0.03606827 0.000708856 -0.013355756
000330 a3 9a 95 3d 6d c5 87 3c fa a5 eb bc 22 9e cb 3d
       0.07304885 0.016573632 -0.028765667 0.09942271
000340 d6 0f 5a bd c6 c7 7e 3d 64 18 74 bd 28 d8 21 be
       -0.05323776 0.062202238 -0.059593573 -0.15805113
000350 2b 28 b9 3c d8 da 0b bd 02 f4 86 bd 8a 0a e8 3b
       0.022602161 -0.034144253 -0.065895095 0.0070813345
000360 75 fd 4b 3d b2 68 7f bd d6 a3 76 3b bb 21 25 bd
       0.049802262 -0.062355705 0.0037634275 -0.04031537
000370 b5 c2 88 3d 97 3c 33 be a7 56 25 3d 02 29 4a 3d
       0.066777624 -0.17503582 0.04036584 0.049355514
000380 80 c0 2a 3e 6a 1b b7 bc 16 14 e5 bd 32 5d d9 3d
       0.16674995 -0.02235194 -0.11185472 0.10613479
000390 c7 84 04 3e 20 a6 87 3d 23 76 0c 3e 4e db 80 3d
       0.12941276 0.06623483 0.1371694 0.06291829
0003a0 bf 27 4a be 02 aa f5 bd 82 ad 31 be a0 ee b5 bd
       -0.19741724 -0.11995317 -0.17351344 -0.08883405
0003b0 ef 72 94 ba 2b f5 8d 3d ba af 88 b8 69 8e b6 bc
       -0.0011325757 0.06931528 -6.517717e-05 -0.022284703
0003c0 fd 8c cb bc 2a ae 6b 3d 31 bf 27 3d b2 8d 57 bc
       -0.024847502 0.057539143 0.04095382 -0.013156341
0003d0 ea c2 05 bd bc dc 54 3d 0d 37 30 be 7e 33 a4 3d
       -0.032656588 0.05196832 -0.172085 0.08017634
0003e0 8e 43 93 3d 0a 4c 51 bd 97 e0 ef bc 6b 5f 5b bd
       0.071906194 -0.051097907 -0.029281897 -0.053557795
0003f0 b6 e4 de bd c0 20 20 3d 6f 58 2b bd 7e b3 ed 3d
       -0.10883467 0.039093733 -0.041832384 0.11606501

encoder_lat2.1.weight f4 [6]
000000 c8 5a 89 3f a2 bc 89 3f a7 55 85 3f ff d5 88 3f
       1.0730829 1.0760691 1.0416764 1.0690306
000010 82 52 87 3f 27 b2 86 3f
       1.0572054 1.0523118

encoder_lat2.1.bias f4 [6]
000000 ec 84 d0 3c ce f2 4d 3d 77 06 70 3c 1e b2 4b 3d
       0.025454007 0.050280385 0.014649979 0.049730413
000010 9f c8 1f bd 75 98 28 3d
       -0.039009687 0.04116102

encoder_lat2.1.running_mean f4 [6]
000000 b8 a8 a1 3d 1b 2b 5c 3e df 23 73 3d de 4e d3 bc
       0.07893509 0.21500818 0.05936038 -0.025794443
000010 f0 ca 52 3d 59 f8 96 bd
       0.051463068 -0.07371587

encoder_lat2.1.running_var f4 [6]
000000 91 50 74 3e 52 56 1a 3f f9 65 0c 3e 41 12 87 3e
       0.23858859 0.60287964 0.13710774 0.26381114
000010 94 e7 07 3f a1 57 70 3f
       0.53087735 0.9388371

encoder4.0.weight f4 [8, 6, 8]
000000 be c2 0b 3d 0f 4b f0 3c bb a4 7b bc 14 a6 cc bd
       0.034121267 0.029332666 -0.015359099 -0.099926144
000010 51 05 c1 bc 0c 2e ce 3d a0 66 cb bd 0b 67 c9 3d
       -0.023562105 0.100673765 -0.099316835 0.09834107
000020 ad 69 02 be e2 bf 06 bd 55 f3 de bc 1f 7f cd 3d
       -0.12735625 -0.032897837 -0.02721564 0.10034012
000030 75 9f 43 bc 70 3e 0d 3d b1 8a 16 3d 33 23 d3 3c
       -0.011939873 0.034483373 0.03675336 0.02577362
000040 04 99 ac 3d 45 07 59 bd a0 5a e6 bd 78 d9 e3 3d
       0.08427623 -0.05298545 -0.11247754 0.11125463
000050 63 c9 72 3d 2f 57 73 3c 6e 5b 06 be 2d 31 de bc
       0.05927409 0.014852329 -0.13120815 -0.027123058
000060 bb 37 38 38 40 c6 37 bd f1 f2 f2 bc 69 e0 2c bc
       4.392092e-05 -0.0448668 -0.02965686 -0.01055155
000070 82 6f 10 3d dd 78 90 bd d2 a2 38 bd 8d 05 5c bd
       0.035262592 -0.07054303 -0.045077153 -0.05371623
000080 79 a9 8c 3c ce 1d 09 be b3 03 12 be 40 9c e9 bd
       0.017170655 -0.13390276 -0.14259224 -0.114067554
000090 2a 06 f1 bd 91 bc 61 bd ff 56 9f bd 9b a5 0e 3c
       -0.11768754 -0.05511147 -0.07780265 0.008706476
0000a0 7d 4a 12 3d 72 e8 89 bd 00 f0 04 bd 20 97 2f 3e
       0.03571557 -0.067337885 -0.032455444 0.17147493
0000b0 7b 4e f2 3c 78 34 48 3e c9 4b 9a bd a2 c9 d2 3d
       0.029578438 0.19551265 -0.07533986 0.10292365
0000c0 0c b6 b3 bd 5c 52 1d bd 40 e9 76 3b fa 80 e8 3d
       -0.08774957 -0.038408622 0.003767565 0.11352725
0000d0 45 46 99 bd 6e 23 f0 bc 33 73 e8 3c 02 0d 0e 3e
       -0.07484106 -0.02931377 0.028375244 0.1387215
0000e0 ab 06 05 be 38 81 f3 3d cd b7 e6 3d 99 13 e8 bd
       -0.12990825 0.11889881 0.11265526 -0.11331863
0000f0 f0 09 cc bd f2 7f 9b bc e5 9b 05 3e 6f 11 95 bd
       -0.09962833 -0.018981908 0.1304775 -0.07278716
000100 38 58 25 3a a3 11 1d bd 84 cc bf bd 33 b3 d6 3d
       0.0006307396 -0.038346898 -0.0936518 0.10483398
000110 f8 34 e8 3a ba 79 e1 3d f5 bd 95 3d 35 d8 3b bd
       0.0017715981 0.110095456 0.07311622 -0.045860488
000120 6d 34 c4 bd 4e 53 dd bd f9 d5 f4 3d 47 be 16 3e
       -0.09580312 -0.10806905 0.119548745 0.14721023
000130 5a ab df 3c 34 d3 4e bd e8 a7 07 3e 5b 6c ad 3c
       0.027303386 -0.050494388 0.13247645 0.021169832
000140 05 9a e2 3d 28 2f 0e be 48 d8 5d bd de 83 2c bd
       0.11064533 -0.13885176 -0.05416134 -0.042117946
000150 b0 4a c9 bd c1 5a 00 3e ee 11 1e be e3 d2 33 bd
       -0.09828699 0.1253462 -0.15436527 -0.04390229
000160 1b cc de bd 8c bf b0 bd 34 25 a1 bb c1 74 fb bd
       -0.10878774 -0.08630285 -0.004917765 -0.122781284
000170 fc 77 7f 3b 6a 62 94 bc 0a a3 04 3e 8a 4e 25 3d
       0.0038981428 -0.018113334 0.1295282 0.040358104
000180 10 20 89 bd 36 5c fd 3d 2b bd f7 3d 86 77 50 ba
       -0.066955686 0.123711035 0.12096628 -0.00079523807
000190 cc 9c a4 3d 2f cd 84 3b d0 50 c9 3d 8a 1e a7 3d
       0.08037719 0.00405278 0.09829867 0.08160122
0001a0 9d bc e4 bd 3a c9 e9 3d a3 6f 1c be 59 b0 e8 3d
       -0.11168788 0.11415334 -0.15276961 0.11361761
0001b0 f9 78 cb 3c 41 7f 9b bd 41 ae de 3d 3f 11 f6 bd
       0.024837958 -0.07592631 0.1087308 -0.12015008
0001c0 29 3f b1 3d 03 ec de 3d db 21 63 3d 02 ca f5 3d
       0.08654625 0.108848594 0.05545221 0.120014206
0001d0 cc d0 3f 3d d5 ba 0b 3c b4 c6 09 3e f6 b5 fa bd
       0.046829984 0.008528431 0.13454705 -0.122417375
0001e0 6c 85 c2 3d ae 9b 62 bd b8 ab e3 3c 9b ba 1f 3d
       0.094981045 -0.05532425 0.027791843 0.03899632
0001f0 6f 11 4f bd 84 33 15 be 4b 2e d8 bd c8 73 47 3c
       -0.050553735 -0.14570433 -0.10555705 0.0121736005
000200 6a 8c a0 bb 1c 21 0a 3e 3c 11 e9 3b 3c 49 9c 3d
       -0.004899551 0.13489193 0.00711265 0.07631156
000210 6a f0 0c 3e 3f 61 10 3e 25 43 a1 3d 07 19 26 bd
       0.13763586 0.14099596 0.07874135 -0.04055121
000220 c9 49 0c bd d0 46 5d 3d c9 b0 4e bd a4 04 a3 bd
       -0.034250055 0.05402261 -0.050461564 -0.079598695
000230 0e ba c4 3d c0 cf 95 bd a8 f2 ad 3d 74 81 46 bb
       0.096057996 -0.07315016 0.08493549 -0.0030289562
000240 50 0e 08 bc 9a c1 ec bd 79 63 cf bd e9 ed d0 bd
       -0.008304194 -0.11560364 -0.10126395 -0.10201628
000250 7a 77 7b bd 3e ac 6a 3d 78 92 ba 3d 1f e1 9a 3d
       -0.06139324 0.05729317 0.09109968 0.0756247
000260 de 5d 9b 3d 6e 89 50 3d 4a b2 d5 bd e8 32 83 bd
       0.07586263 0.050912313 -0.104343966 -0.06406194
000270 b9 30 8d bd 89 7c d5 3d 7d ee 25 3d d4 b2 97 bc
       -0.06894059 0.10424144 0.040510643 -0.01851789
000280 eb 5e f8 bd ea d9 0e be 87 d2 34 bd 60 fd 98 bc
       -0.12127479 -0.13950315 -0.044146087 -0.018675506
000290 e3 0e a4 bd e3 9c f7 bd 84 2f a0 3c b4 61 b4 3d
       -0.08010652 -0.12090471 0.019553907 0.08807698
0002a0 25 94 07 be 7f c6 9a bd 0c 59 e2 3d f6 81 cb bd
       -0.13240106 -0.075573914 0.110521406 -0.099368975
0002b0 31 47 e6 bc c4 d3 bb 3d 58 7a 9e bd b4 3e c9 bd
       -0.028110119 0.091712505 -0.07738179 -0.09826413
0002c0 bf 2f 06 3e b5 7b 44 bd e8 38 e3 bc 0b 50 fc bd
       0.13104151 -0.04796954 -0.027737096 -0.123199545
0002d0 d5 d3 c7 3d 45 11 1c bd 8a c2 7c 3d 7b 3d 4b bd
       0.09757201 -0.038102407 0.061708964 -0.04961918
0002e0 9a 59 20 bd e7 de dd 3d 80 e9 1b 3c b3 58 04 be
       -0.03914795 0.10833531 0.00951612 -0.12924461
0002f0 a2 c5 76 3d bc ba 77 bd 9a 8c 19 be a9 f7 b4 3d
       0.06024707 -0.06048082 -0.14995041 0.088363
000300 f1 37 9e bd c2 d0 eb bc b4 5a 9b bd 8b a9 c7 3d
       -0.07725514 -0.028786067 -0.075856596 0.09749135
000310 bc eb a1 3d ec 63 c9 bd f4 ae a0 bd 2e 7a 86 3d
       0.07906291 -0.09833512 -0.0784587 0.06566273
000320 ae 35 e6 bd 86 61 03 be e2 a2 9c 3d 47 79 03 be
       -0.11240707 -0.12830171 0.07648255 -0.12839232
000330 65 c6 30 bd e5 e3 d5 bc 4c 74 a7 3b 3a fc 1c bd
       -0.043157954 -0.026109645 0.005110299 -0.03832648
000340 60 29 29 bc b4 22 a0 bd e9 80 43 bd 22 2c d3 bd
       -0.010324806 -0.07819119 -0.04773036 -0.10311152
000350 4f cd f6 bd c9 90 06 3d cc 31 55 3c 2b ce 03 3d
       -0.12050878 0.03285292 0.013012361 0.03217904
000360 92 d8 a7 bd cd 9c b3 3d 61 7a 65 bb a8 a6 15 be
       -0.081956044 0.08770142 -0.003501557 -0.14614356
000370 ac b5 12 bd 85 79 ec bc 9e ef 76 3d 95 da 38 3c
       -0.035817787 -0.028866539 0.06028711 0.011282583
000380 f7 9b 0b be 22 1b 95 3d 79 08 5c 3d 27 1b 56 3d
       -0.13633715 0.07280566 0.053719018 0.05227199
000390 a7 85 99 3a fd 94 9c bc fe cb 7c bc 3b e2 47 bc
       0.0011712805 -0.019114012 -0.015429495 -0.012199934
0003a0 ba 4e a1 bd 7c 29 12 3c cd 5e ab 3d f8 de b0 3c
       -0.07876344 0.008921023 0.08367691 0.021590695
0003b0 d9 36 10 3e 9e 82 58 3d 97 26 38 bd 3c 19 06 be
       0.14083423 0.05285894 -0.044958677 -0.13095564
0003c0 48 6e be bd b8 e3 a6 bc 18 bc da 3d 56 7f 0b 3e
       -0.09298378 -0.020372257 0.10680407 0.13622794
0003d0 ef 93 c0 bd a8 11 12 be 9c 66 05 be ca 41 e0 3d
       -0.09403216 -0.14264548 -0.13027424 0.10950048
0003e0 17 fd d2 bd e0 09 0a be d3 e7 c3 bd 19 e1 0b 3e
       -0.10302179 -0.1348033 -0.09565701 0.13660087
0003f0 27 be 0f 3e 80 c1 fb 3c 6f 5a b2 bd 95 07 f0 3d
       0.14037381 0.030731916 -0.08708655 0.11720196

encoder4.1.weight f4 [8]
000000 32 18 7d 3f f2 14 80 3f 36 cc 81 3f f2 3e 78 3f
       0.98865044 1.0006392 1.0140445 0.96971047
000010 d4 65 7b 3f fb c2 7c 3f f0 e9 82 3f 2a 10 7e 3f
       0.9820225 0.98735017 1.0227642 0.99243414

encoder4.1.bias f4 [8]
000000 9f 30 68 3b 05 ef 11 bc bc 41 fd ba 02 a2 98 bb
       0.003542937 -0.008907084 -0.0019321959 -0.0046579847
000010 d5 82 d0 3a 51 12 08 3b 27 de 7d 3b 05 5f 9e 39
       0.0015908132 0.002076287 0.003873715 0.00030206903

encoder4.1.running_mean f4 [8]
000000 ee 33 bb bd 9f f8 b5 bd 20 25 19 3e c2 da 54 bd
       -0.09140764 -0.08885311 0.14955568 -0.051966436
000010 9c ed 83 bd ca d1 35 3b 3e f1 7c bd e1 a7 40 3d
       -0.06441805 0.0027743452 -0.061753504 0.0470351

encoder4.1.running_var f4 [8]
000000 3b 1f a8 3e 88 6a 91 3d 5f 34 ef 3e 49 76 17 3f
       0.32836327 0.07100397 0.46719643 0.59164864
000010 88 ad 06 3f 41 07 4b 3e 9a a9 54 3e a9 d7 26 3e
       0.5260854 0.19826986 0.20767823 0.16293205

encoder_lat3.0.weight f4 [8, 6, 8]
000000 bf c9 8f 3d c4 9f af bd 70 4a 26 3d 2b be 92 3d
       0.07020902 -0.08575395 0.040598333 0.07165178
000010 e3 92 e4 3d d9 cb a6 bc ff 7f cb 3d d2 eb 81 3d
       0.11160829 -0.020360874 0.09936523 0.06343807
000020 95 fb 05 3e 0c 03 ce 3d 21 b4 a8 3d 6f f1 51 bd
       0.13084252 0.10059175 0.08237482 -0.05125564
000030 af 1f 98 bd d6 60 68 bd 5c d4 17 3d d8 bc ef bc
       -0.07427918 -0.056732975 0.037067756 -0.029264852
000040 99 ae 81 bd 3b cf 47 bd 4f 05 8f 3d 58 8e 4f 3d
       -0.0633213 -0.048781615 0.069834344 0.05067286
000050 08 19 f0 3d 21 17 24 be 80 65 ee bb 00 4b c7 bc
       0.11723524 -0.16024448 -0.0072752833 -0.024327755
000060 45 8b 94 bd 19 6c 98 3d d0 5a 32 bd cc ad f1 3d
       -0.07253126 0.07442493 -0.043543637 0.11800727
000070 e7 27 21 3d 02 8b 71 bd 1e 86 e8 bd d0 d5 ed 3d
       0.039344694 -0.05897046 -0.11353706 0.11613047
000080 cf 71 ed bd 99 f7 77 bd 93 af 15 3e 57 e5 16 3e
       -0.11593973 -0.060538862 0.14617757 0.14735924
000090 61 d0 6a bd 06 ac fa 3d ae 74 05 bd aa 12 82 bd
       -0.05732763 0.12239842 -0.032581978 -0.06351216
0000a0 d5 13 5d 3d 32 c5 3b 3d 82 e1 48 3d 03 9b 80 3d
       0.05397399 0.045842357 0.049043186 0.06279566
0000b0 6e 28 d5 bd 39 e5 6c 3d 90 5a 06 3e 63 0a f1 3d
       -0.10408102 0.05783579 0.13120484 0.11769559
0000c0 cb 84 ce 3c 3a 88 05 be 8d dc 93 bd bd 65 ed 3b
       0.025209805 -0.13040248 -0.07219801 0.007244794
0000d0 3e 61 ed bc 37 d2 75 bd fc bd b0 3d e4 6b dc bd
       -0.028977033 -0.06001493 0.08629987 -0.10762766
0000e0 e4 4a 54 bd 8d 38 9b bd 3f 11 80 bd c1 2b 05 bd
       -0.051829234 -0.075791456 -0.062532894 -0.03251243
0000f0 cf 93 eb 3d bf bb 33 be 55 91 03 be d7 4d 0f be
       0.115028016 -0.17552088 -0.12848409 -0.13994537
000100 5b a6 1c 3c bc 56 40 bd b2 23 ba bd da f6 50 bd
       0.009561147 -0.046957716 -0.090888396 -0.051016666
000110 80 6f 04 bd fe 9e ec 3d 72 4e 0a be dc cb 51 bd
       -0.032332897 0.11553763 -0.13506487 -0.051219806
000120 c1 e2 9d bd 62 8c b9 3d 44 4f 80 3c 1b 82 8f bd
       -0.077092655 0.09059979 0.015662797 -0.070072375
000130 5b bf 5c 3d ff 7c dd 3c c9 61 4b bc 2a 79 fd bc
       0.05389343 0.027037142 -0.0124134505 -0.030941565
000140 86 f1 ee bd 45 ed a3 3c 33 4e fb bd c1 9e 25 bd
       -0.11667161 0.0200106 -0.12270775 -0.040434603
000150 21 42 0a 3e 58 eb 85 3d 54 63 da 3c 66 58 c6 3d
       0.13501789 0.06539029 0.026658691 0.096848294
000160 a4 52 95 bd a2 41 c5 bd a1 0a 74 3d 8d 2a b7 3d
       -0.07291153 -0.09631659 0.05958045 0.08943663
000170 00 1e 3c 3d 64 f9 bd bd e4 fc 8f 3d 59 93 86 3d
       0.045927048 -0.09276083 0.07030657 0.06571073
000180 be 9f 52 bd 8b fc 02 be 0b 72 05 be 4d 76 ed 3d
       -0.051421873 -0.1279165 -0.13031785 0.1159483
000190 8d 8c 9e bd 09 6d 96 3d 1e d4 77 3d 2a 89 ea bd
       -0.07741652 0.073450156 0.060505025 -0.11451943
0001a0 fb 8d f2 3d 7f e2 ed 3d 93 d1 e6 3d 13 2c 9b bd
       0.11843487 0.11615466 0.11270442 -0.07576766
0001b0 3f c4 ca 3c 3f 78 00 3e f7 18 84 bc a1 cb 88 3d
       0.02475178 0.1254587 -0.016125185 0.06679464
0001c0 f1 23 1c 3e 06 bb 04 3e d6 54 e3 bb bd 72 a5 3d
       0.15248086 0.12961969 -0.0069376035 0.08078525
0001d0 d1 59 e3 3d 2c 82 94 3c 5e 19 3d bd d5 fc 82 3d
       0.111011155 0.018128477 -0.04616677 0.0639588
0001e0 b5 05 e5 bd 40 ab c4 bc 8c 10 bd 3d 80 bc c9 3d
       -0.11182729 -0.02400744 0.09231672 0.09850407
0001f0 cd 1a 09 be c7 af 70 bb ca 22 e2 3c ad bd cc 3d
       -0.1338913 -0.0036725865 0.02760448 0.09997115
000200 ca bb 97 3d e9 db d4 bc 7e 67 bb bd 2a f3 a4 bc
       0.07408865 -0.025983768 -0.09150599 -0.02013548
000210 72 53 de bd db ee f3 3d b8 e3 fa bc 48 a7 39 3d
       -0.1085576 0.119107924 -0.030626163 0.045325547
000220 0c 49 ad 3c 30 e3 67 bd da a2 b6 bd fb 45 fa 3d
       0.021152996 -0.056613147 -0.0891778 0.12220379
000230 cd b4 e9 3d 0e 70 dc 3d 06 95 d3 bd 69 e2 05 bd
       0.11411438 0.1076356 -0.10331158 -0.032686625
000240 22 91 e3 bc 96 58 da 3d e1 76 17 3e 7f a8 d7 bd
       -0.027779166 0.10661428 0.14791442 -0.10530185
000250 97 54 5b 3d eb 58 a5 bc 2c 0e ba bc e9 e8 19 3e
       0.053547468 -0.020184001 -0.022711836 0.15030254
000260 34 62 fc ba 32 73 6b bd b6 9f 01 3e 72 4c ce bd
       -0.0019255341 -0.057482906 0.12658581 -0.100731745
000270 c4 38 f2 3d 77 8c a7 bd d4 74 de bc 2f db ae 3c
       0.118272334 -0.081810884 -0.027155317 0.02134475
000280 04 fe e7 3d d4 60 d6 3d 30 cc 9b bd 5d 28 2e 3d
       0.113277465 0.10467687 -0.07607305 0.042518962
000290 3d 2f 06 3d 6d fa e2 3d 4c d1 16 3e e0 1a c6 3d
       0.032759894 0.11082921 0.14728278 0.09673095
0002a0 e3 e8 21 3e 5e 71 bd 3a 0d 4a 7d bb 83 9c c7 bc
       0.15811495 0.0014453342 -0.0038648874 -0.024366623
0002b0 af ba b6 3c ec 23 b1 bc e2 44 96 bc 2a 52 39 3e
       0.022305815 -0.021623574 -0.018343393 0.1809775
0002c0 58 e6 eb 3b 67 a3 c7 3d 4e 3f c5 bd 76 84 10 3d
       0.00719909 0.097479634 -0.09631215 0.035282575
0002d0 38 8f 0b bc 34 af 06 3e cc 8c 7c bd 2d 9d 0a be
       -0.008518033 0.13152772 -0.061657712 -0.1353652
0002e0 7e 55 cb bd 32 6b 48 bd 7b df 02 3d 9e 5b de bb
       -0.09928416 -0.048930354 0.03195141 -0.006785824
0002f0 4f 73 e8 bc 63 91 ec 3c fb eb cf 3d 12 29 b9 3d
       -0.028375296 0.02887792 0.101524316 0.09041037
000300 cb f4 77 3a 0a 33 03 bd 66 cc 08 3e c9 78 07 3e
       0.0009458779 -0.032031097 0.13359222 0.1322967
000310 57 7d fb bd 9a f3 1b 3e bb 5d 59 bd 2d 09 18 3e
       -0.12279766 0.15229645 -0.053067904 0.1484725
000320 6e a0 0e be 92 de ae bc 99 a0 99 bd 01 da 25 bd
       -0.13928387 -0.021346364 -0.07501335 -0.040491108
000330 70 67 85 3c c8 b5 33 3d 78 6c 8f 3d 80 88 95 3d
       0.016284674 0.043874532 0.07003111 0.07301426
000340 02 a7 90 bd d8 cb 97 3d 4d 6c 5c 3d 27 5f c1 bd
       -0.07063104 0.07411927 0.05381422 -0.09441977
000350 98 57 29 be a0 c1 ab bd a9 b4 af bd b1 bf f8 bd
       -0.1653732 -0.083865404 -0.0857938 -0.12145937
000360 82 07 8f bc c5 8f 51 3d 9a 8f a5 bd 7f a0 8d bd
       -0.017459635 0.0511625 -0.080840304 -0.06915378
000370 58 e1 a2 3b 52 13 d9 3b b1 c2 07 be 8c b9 35 bd
       0.0049707107 0.0066246176 -0.13257863 -0.044366404
000380 5b 27 b2 bd f5 d5 76 3d 58 ab 49 bc 03 bd ec b9
       -0.08698913 0.06026264 -0.012308918 -0.00045154252
000390 c0 ac b6 3d b9 70 54 bc 07 92 2a 3d a1 0e 10 be
       0.08919668 -0.012966328 0.04164317 -0.1406808
0003a0 60 e7 ee 3b 23 90 aa 3d 27 d6 8e bd d5 95 a6 3d
       0.0072907656 0.08328273 -0.0697444 0.08134047
0003b0 c4 13 fa bd 0d 39 af bd 36 de 84 3b 11 30 06 bd
       -0.12210801 -0.085558034 0.00405481 -0.032760683
0003c0 6e 20 5c 3c b1 f7 2c bb 25 6c 0c 3e 81 84 8a 3b
       0.013435466 -0.0026392753 0.13713129 0.0042272215
0003d0 29 a8 c1 bd 4e 45 05 bd 0d aa 4f bd 50 08 d7 bd
       -0.09455902 -0.032536797 -0.050699282 -0.10499632
0003e0 82 34 80 3d e8 31 c0 bd de 15 9c bc bd db 17 bc
       0.06260015 -0.09384519 -0.019053396 -0.009268698
0003f0 3c 1b d8 bd c7 83 20 3d ad da 97 bc 4d e8 b3 3d
       -0.105520695 0.039188173 -0.01853689 0.08784542

encoder_lat3.1.weight f4 [8]
000000 b5 7a 80 3f 2f e5 77 3f 7d bf 87 3f 75 8a 7b 3f
       1.0037447 0.9683408 1.0605313 0.98258144
000010 68 bb 77 3f c6 6b 82 3f 73 5e 7e 3f 9c 32 84 3f
       0.96770334 1.018914 0.9936287 1.0327945

encoder_lat3.1.bias f4 [8]
000000 88 d8 e5 3c 94 73 22 bc 9e 2c ed 3c fe 9c f8 bc
       0.028057352 -0.009915251 0.02895194 -0.030348297
000010 f9 97 41 bc 23 46 cc 3c b3 b4 4f bc 33 24 cd bb
       -0.011816018 0.024935788 -0.012677359 -0.006260419

encoder_lat3.1.running_mean f4 [8]
000000 4e 24 da 3d 60 da 7a bd 17 89 c3 3c d7 f4 c1 3c
       0.10651456 -0.061243415 0.02386908 0.023676319
000010 40 76 36 3c bb 39 d2 bd 08 c3 01 bd 70 84 7b 3d
       0.011136591 -0.102649175 -0.031680137 0.0614056

encoder_lat3.1.running_var f4 [8]
000000 d9 c7 83 3e 09 01 24 3f b0 02 0b 3f ad a4 37 3f
       0.2573841 0.6406408 0.54300976 0.7173565
000010 a3 d0 b5 3e ce 32 76 3f 34 e6 40 3e b7 94 56 3e
       0.3551074 0.9617127 0.18837816 0.20955168

encoder5.0.weight f4 [8, 8, 16]
000000 72 fb 5b 3d f0 cc 00 3d fa 76 d1 bb 04 6c 8b bb
       0.053706594 0.031445444 -0.006392357 -0.00425482
000010 2c 7e 8e 3d fe 9e 4b 3d f2 ab 10 bd cc be b5 bd
       0.06957659 0.049712174 -0.03532023 -0.08874282
000020 bb ab ae bd 99 e5 0a bd 01 e4 2c bc 7b d4 48 3d
       -0.08528849 -0.033910368 -0.010552407 0.049030762
000030 a3 9d 09 bd 87 87 7c bd 7c 23 ac 3d aa 8a 29 3c
       -0.0335976 -0.061652686 0.084052056 0.0103480015
000040 e5 7a b0 3d 10 cc 75 bd 04 68 22 bd d1 50 4d 3d
       0.0861719 -0.060009062 -0.03964998 0.0501259
000050 42 c0 6e 3d 6f 3d e7 bd 6e 2e 95 bd 93 91 e2 bd
       0.05828882 -0.112910144 -0.072842464 -0.11062922
000060 be d7 b1 bd 81 e0 ee bb 4b 15 20 3c 2e 1e b2 bd
       -0.08683728 -0.0072899465 0.009770702 -0.086971626
000070 ea eb 79 3d f6 9b 9c bd 04 c6 7b bc cf cf e5 bd
       0.061016 -0.07646935 -0.015367035 -0.11221277
000080 02 c6 8c bd 8f a2 c4 b9 a4 3d 1f bd dc 74 6d bd
       -0.068737045 -0.0003750515 -0.038877144 -0.057972774
000090 78 98 5f bd 06 53 a7 3d 28 01 76 3d 98 bd 8e bd
       -0.054588765 0.08170132 0.060059696 -0.06969756
0000a0 20 18 85 bd 9d 14 b4 3c 5a af df 3c fd c4 06 bd
       -0.06498742 0.021982485 0.027305294 -0.032902706
0000b0 00 4f 5f 3c e4 33 2a 3d 40 b4 7b 3d 0e 30 48 3d
       0.013629675 0.041553393 0.061451197 0.048873954
0000c0 4f 5e 6a 3d 72 ae 56 3d fd 29 a7 bc d5 fc 20 3d
       0.057218846 0.052412458 -0.020405764 0.03930362
0000d0 87 31 08 3c f5 12 ac 3d 2b 1c 78 bd 4c 8c 96 bd
       0.0083125895 0.08402053 -0.060573738 -0.07350978
0000e0 1c fd 84 bd 72 7c 42 3d c2 8b 82 bd 3f c8 7c 3d
       -0.06493589 0.04748196 -0.06374313 0.061714407
0000f0 63 77 9e 3d f1 b0 52 3d 48 d4 92 3c f4 4d e8 3b
       0.07737615 0.051438276 0.01792349 0.007089371
000100 32 b8 b6 bd 82 fd 92 bb 0e 10 f5 bc 31 a1 0e bd
       -0.08921851 -0.004485787 -0.029914882 -0.034821693
000110 6b ae df bc b4 5a 50 bd 19 03 91 bd fa 31 42 3d
       -0.027304849 -0.05086775 -0.07080669 0.047410943
000120 6f d7 67 bd a3 08 cb 3c 6f 2d 9e 3d a0 a4 66 3d
       -0.056601938 0.024784392 0.077235095 0.056309342
000130 6b 8e 64 bd 29 5c f1 bc 90 78 59 bc a8 5a 8f 3c
       -0.055799883 -0.02946289 -0.013273373 0.017499283
000140 ee d9 80 bd 30 d5 12 bc 44 6f 1c 3d 87 66 01 3d
       -0.06291567 -0.008961961 0.03819205 0.03159192
000150 8c d5 aa 3c c8 07 47 bd 9c d8 f9 3b f2 02 38 bd
       0.02085378 -0.048591405 0.007624699 -0.044924684
000160 ca 79 a3 3d 56 19 82 3b 4b 44 23 3d b1 cc 92 bd
       0.07982214 0.0039703054 0.03986005 -0.07167948
000170 2a a9 5b bd 09 d0 6a bd dc be 69 3d 38 cc 3c 3d
       -0.053628124 -0.057327304 0.057066783 0.046093196
000180 3a 4c 8b bc cb 9e ad 3d e4 36 a3 bd a9 5f 87 3b
       -0.017004121 0.08477553 -0.07969454 0.0041312766
000190 86 cc b4 3d 04 3d 4b bd 85 10 7b bd cd ae 11 3d
       0.08828072 -0.049618736 -0.06129505 0.035567094
0001a0 7b 46 dd bb ae 42 81 3d 16 b6 a9 bd 18 f8 ad bc
       -0.0067527867 0.06311546 -0.08286683 -0.021236464
0001b0 b3 0d 13 bd 11 c9 d0 3c b1 ca 83 3c b7 14 e9 3c
       -0.035901736 0.025486501 0.016087862 0.02845226
0001c0 14 b5 c5 3d 37 a5 83 bd 06 ab 1b 3d f0 18 ae bd
       0.096536785 -0.064279966 0.038004898 -0.0850085
0001d0 6e a9 f5 bc 1a 62 6d 3a f5 db ff bc 1b 58 59 bd
       -0.029988017 0.0009055451 -0.031232813 -0.05306254
0001e0 be a5 46 bd 4f 26 5a 3c 06 b5 5e bb e4 1a ab 3d
       -0.048497908 0.013314798 -0.003398241 0.08354738
0001f0 75 14 ce bc 59 ee 8b 3d 95 80 b0 3d 65 35 22 bb
       -0.025156239 0.068325706 0.08618275 -0.0024751064
000200 3e 07 52 bc f0 be f7 3c 30 89 1c bd 9c 3a 93 3c
       -0.0128191095 0.030242413 -0.03821677 0.017972283
000210 ed a3 fc bc 59 3d 2a 3d 31 2b a4 bc 31 de 82 bc
       -0.030839885 0.041562412 -0.020040127 -0.01597509
000220 47 00 26 bd a8 01 09 bb cb a0 eb bc a7 3b bd bc
       -0.04052761 -0.0020905528 -0.028763195 -0.023099734
000230 d5 ac 82 3d 5e bb 4a 3d 32 ec 77 3d a6 9f 83 3c
       0.06380621 0.049495094 0.060527988 0.016067337
000240 80 5e f8 bc 5f 89 75 bd 4c ed e1 3c d5 2d 1d bd
       -0.030318499 -0.05994546 0.027578972 -0.038373787
000250 7c 55 1e bd ee e9 47 bd ae 9b a8 bd 59 d4 30 bd
       -0.038655743 -0.048807077 -0.082328185 -0.04317126
000260 19 99 c1 bc 4c bf 28 bd 51 cf f6 3c a0 2b b8 3d
       -0.023632573 -0.04119806 0.030128153 0.08992696
000270 a2 df b6 3c bd 6d b8 3d 82 df 91 bd 37 d9 57 bd
       0.022323433 0.09005306 -0.07122709 -0.052697387
000280 2b 36 96 bd 35 c5 28 3d 7e 3f 80 bd 11 14 a2 3d
       -0.073345505 0.041203696 -0.0626211 0.079139836
000290 f6 c0 99 3d dd 7f 7d 3d e2 c5 36 bb 08 03 46 bd
       0.075075075 0.061889518 -0.0027888943 -0.048342735
0002a0 80 ff 75 bc da 98 97 3d 56 72 15 3c 04 a6 95 3c
       -0.015014529 0.07402201 0.009121498 0.018267639
0002b0 ac 30 a7 bd fe 10 c6 bc 96 8d 1f 3c ac ef 00 bd
       -0.0816358 -0.024178024 0.009738347 -0.03147857
0002c0 c6 5c 87 3d 37 5c e3 3c 31 0d b7 bd 08 77 66 bd
       0.06609492 0.027753932 -0.08938063 -0.05626586
0002d0 41 3d 0a 3d 6f 3f 6c 3d 3e 58 35 3d 5b db a1 bd
       0.033749823 0.057677682 0.044273607 -0.07903167
0002e0 db 55 8f bc bd 45 2c 3d 8d 14 02 bd a4 be 03 3d
       -0.017496994 0.042058695 -0.03175788 0.03216423
0002f0 85 d8 93 bd d4 4f b1 3d c5 9b 84 bd 82 0d 7f 3d
       -0.07219032 0.08657804 -0.06475023 0.06226874
000300 2d 01 df bc 61 b9 93 bd be 32 b0 bd 3f b9 97 3d
       -0.02722224 -0.072130926 -0.08603428 0.0740838
000310 b6 d2 af bd 6f a2 8f 3a 08 f9 0f bd f4 25 e2 39
       -0.08585112 0.0010958443 -0.035149604 0.00043134356
000320 0c d8 76 bd 22 f1 97 3d 88 08 92 bd b5 cf 95 bc
       -0.060264632 0.07419039 -0.071305335 -0.018287519
000330 4c 9f 61 3d 00 91 da 39 f5 c0 a6 bd c6 79 d7 39
       0.055083558 0.00041688234 -0.081422724 0.00041098724
000340 e2 79 c2 bd 0b 1e 9b bd eb 81 84 3d ff d0 0e 3c
       -0.094959036 -0.075740896 0.064700924 0.008716821
000350 8d 2e 9e bd 09 7a 4e bd 8b ab 90 3d b3 46 a0 bd
       -0.077237226 -0.05040935 0.07063969 -0.07825985
000360 4a 3c 4c 3c f3 50 96 bd 84 89 9c bd 0a d8 47 bd
       0.012465546 -0.073396586 -0.076434165 -0.048790015
000370 62 24 99 3a f3 fd 3c bd 0c 41 7a 3d 28 39 a0 3d
       0.0011683817 -0.046140622 0.06109719 0.07823402
000380 3a 09 5e 3d a5 7d a6 3d 1b dd 97 bd cd 25 40 3c
       0.054208018 0.081294335 -0.074152194 0.011727762
000390 87 e7 4b bd fa 1f 31 3d e7 f6 7f bd f5 c5 59 3d
       -0.04978135 0.043243386 -0.062491324 0.053167302
0003a0 17 b1 fa 3a 47 61 92 bd 16 47 19 3d 57 51 7d bd
       0.0019126263 -0.071474604 0.03742131 -0.06184515
0003b0 1a 25 32 bd 7b 32 8b bd c2 43 c3 bd 4c e2 09 bd
       -0.043492414 -0.06796738 -0.09534408 -0.03366308
0003c0 75 2f 9c bc c4 99 51 3d 6f d2 09 bc 64 bc ae 3d
       -0.019065598 0.051172033 -0.008411988 0.085320264
0003d0 71 5c 24 bc fb 7e 0c bd 33 a3 14 bd ae 67 0d bd
       -0.010031805 -0.034300786 -0.03628845 -0.034522705
0003e0 77 ea 80 bd e3 e4 7d 3d be 38 59 3a d9 7f f4 3c
       -0.062947206 0.06198586 0.00082863483 0.029846119
0003f0 8c 60 c4 bc dc e5 87 3d 6f ec 03 3d d2 e0 be bc
       -0.023971818 0.06635639 0.032207903 -0.023300562

encoder5.1.weight f4 [8]
000000 8d 0f 80 3f 7c 4d 80 3f d1 87 7f 3f be 31 77 3f
       1.0004746 1.0023646 0.99816614 0.96560276
000010 6b 96 7a 3f 97 a8 7f 3f cf 93 7b 3f a5 06 80 3f
       0.9788577 0.9986662 0.98272413 1.0002028

encoder5.1.bias f4 [8]
000000 5d e6 09 3c 13 ea 85 3c d1 53 85 3c 10 98 f2 bc
       0.008416739 0.016346967 0.016275318 -0.029613525
000010 c1 a7 60 3b 81 42 6a 3c b1 9a f2 bb 0b d0 50 3c
       0.0034279677 0.014298082 -0.0074036946 0.012744914

encoder5.1.running_mean f4 [8]
000000 cd e1 9c bd 83 36 15 be cb 21 71 bd 0a 12 9b 3d
       -0.076602556 -0.14571576 -0.058870118 0.075718
000010 ae ee 1f 3d 36 8e 11 3d f5 1a 8a 3d ac 59 8f bd
       0.039045982 0.035536014 0.06743423 -0.069995254

encoder5.1.running_var f4 [8]
000000 95 f6 3e 3e 9b 0f 19 3e 8f 99 b4 3e f8 8e 96 3e
       0.18648751 0.1494736 0.35273406 0.29405951
000010 54 a1 91 3e 25 b6 22 3f 70 cb 6f 3e 51 1d d8 3e
       0.28443396 0.6355918 0.23417449 0.42209867
